models/ppo/Catan/ppo_catan_model_update200.pth (torch, 145076 bytes, 9 tensors)

shared.0.weight f4 [128, 10]
0	0x3e186e33	0.14885788
1	0x3e272196	0.16321406
2	0x3e107058	0.14105356
3	0xbdc32da6	-0.09530191
4	0x3e3b0d2e	0.18266746
5	0x3bfd6d0b	0.007733946
6	0x3eb14eae	0.3463034
7	0xbe5c4964	-0.21512371
8	0x3ec22968	0.37922215
9	0xbc4313aa	-0.011906544
10	0x3e1a2164	0.150518
11	0xbe045384	-0.12922484
12	0xbe2aac8b	-0.16667382
13	0x3e8b2b19	0.27181318
14	0x3e0626d5	0.1310075
15	0x3e50f19b	0.20404665
16	0xbe3a977b	-0.18221848
17	0xbd95b0af	-0.0730909
18	0xbe058926	-0.13040599
19	0x3d4bd911	0.049767558
20	0xbd1037d0	-0.035209477
21	0xbe2298a5	-0.15878542
22	0x3e5340a0	0.20630121
23	0x3d681423	0.05665983
24	0xbe129a87	-0.1431676
25	0x3d0c0f49	0.034194265
26	0x3eabf531	0.33585504
27	0x3e758ee7	0.23980294
28	0x3e3a90d9	0.18219317
29	0xbca6d639	-0.020365821
30	0xbe8c8307	-0.27443716
31	0x3e614258	0.21997964
32	0x3dbe19cd	0.09282265
33	0xbd6900ca	-0.056885518
34	0x3e33f1d5	0.1757272
35	0x3ea80cdd	0.32822314
36	0x3e5e0ff4	0.21685773
37	0x39c0bab5	0.000367602
38	0x3e7328ef	0.23746084
39	0xbe70488d	-0.23465176
40	0xbe5a1d19	-0.21300162
41	0xbe99de4c	-0.30052412
42	0xbdcf6a96	-0.101277515
43	0xbe869a39	-0.26289538
44	0x3e136cca	0.14396968
45	0x3dde2a45	0.10847906
46	0x3e1e9af3	0.15488796
47	0x3e43f4f0	0.19136405
48	0xbe8d8007	-0.2763674
49	0x3daae0b5	0.08343641
50	0x3d8f8704	0.07008174
51	0xbdf6875f	-0.12037539
52	0xbd988e0a	-0.07448967
53	0x3c7b825b	0.015350903
54	0xbe578d87	-0.21050082
55	0xbe4500e7	-0.19238625
56	0xbe0992f4	-0.13434964
57	0x3e51035f	0.20411442
58	0x3e708b9d	0.23490758
59	0x3cd4fa5e	0.02599829
60	0x3e8dab33	0.27669677
61	0x3e9abfa8	0.30224347
62	0x3cb6814d	0.022278452
63	0xbe3c59db	-0.18393652
64	0xbd49a2f7	-0.04922768
65	0x3d1e23f0	0.03860849
66	0xbe86f9fc	-0.26362598
67	0x3edffcc5	0.43747535
68	0x3c94e5e2	0.018176023
69	0xbe08e348	-0.13367951
70	0x3eaa0a54	0.33211005
71	0xbe72cc35	-0.23710711
72	0xbe2d6a38	-0.1693505
73	0xbd5712f3	-0.052508306
74	0x3dd631b0	0.10458696
75	0xbe3756e8	-0.17904246
76	0xbe61b914	-0.22043258
77	0xbe2442c1	-0.1604109
78	0x3e02da3b	0.12778561
79	0x3dcb484c	0.09925899
80	0x3e744a20	0.23856401
81	0xbe8be499	-0.27322844
82	0x3e6ed9ec	0.23325318
83	0x3cbffee0	0.023436964
84	0xbe29e2ca	-0.1659042
85	0x3eaff346	0.3436529
86	0xbdcbbe92	-0.09948458
87	0xbeaaa2e4	-0.333274
88	0xbe8176f8	-0.25286078
89	0x3c2e9076	0.010654559
90	0x3e7c47d2	0.24636772
91	0x3e970c75	0.2950169
92	0xbda36bca	-0.079795435
93	0xbd15b4fc	-0.036549553
94	0xbcc955eb	-0.024577102
95	0x3cff4baa	0.03116401
96	0x3e2a8a6a	0.16654363
97	0x3dc2ad12	0.09505667
98	0x3cdc5755	0.026897112
99	0x3e670d73	0.22563724
100	0x3e54fed9	0.20800342
101	0xbe57d027	-0.21075498
102	0xbd338059	-0.043823574
103	0x3d750c18	0.059825987
104	0x3d5e0281	0.054201607
105	0x3e690e19	0.22759284
106	0x3da8b059	0.08236761
107	0x3e6c36f5	0.2306784
108	0x3c5a1974	0.013311733
109	0x3e70b9f9	0.23508443
110	0x3daaae45	0.083340205
111	0xbdeff793	-0.11717143
112	0xbd70f80e	-0.058830313
113	0xbce48b95	-0.02789859
114	0x3d45c921	0.048287515
115	0x3d820141	0.063478954
116	0xbe0d31e4	-0.13788563
117	0x3dba8747	0.09107833
118	0xbeb77c22	-0.35836893
119	0x3d2d39ff	0.042291638
120	0x3d8f177a	0.069869
121	0x3df946b3	0.12171688
122	0xbd96bdf9	-0.07360453
123	0xbe316049	-0.17321886
124	0x3e10507e	0.14093205
125	0x3e3834b5	0.17988856
126	0xbe42f771	-0.19039704
127	0xbea94ac9	-0.3306487
128	0xbe70e287	-0.23523913
129	0x3e4b4b67	0.19852982
130	0x3e80f4d2	0.25186783
131	0x3e078c54	0.13237125
132	0x3e658e86	0.2241765
133	0x3e62f410	0.22163415
134	0xbdd2b6d2	-0.102887765
135	0x3e89f8c2	0.269476
136	0x3b074637	0.0020641217
137	0x3e006a08	0.12540448
138	0xbd183cd0	-0.03716737
139	0x3e2ba102	0.16760638
140	0x3e903e1f	0.28172395
141	0xbbdb5d07	-0.0066944393
142	0x3de431f3	0.111423396
143	0x3ce9756c	0.028498374
144	0x3d7994bb	0.060932856
145	0xbc82006d	-0.015869344
146	0x3e54771c	0.20748562
147	0xbe9a393c	-0.3012179
148	0x3d474f8a	0.04865984
149	0xbe310daa	-0.17290369
150	0xbde4a655	-0.11164538
151	0xbd756a55	-0.05991586
152	0x3e711d55	0.23546346
153	0x3d82a7e0	0.06379676
154	0x3e69d9ee	0.2283704
155	0x3d887877	0.06663602
156	0xbe604e32	-0.21904829
157	0x3e8f6833	0.28009185
158	0x3e8b25eb	0.27177367
159	0x3e612139	0.2198533
160	0x3e990810	0.29888964
161	0xbe48f7b3	-0.1962574
162	0x3ea30a0b	0.318436
163	0xbcf71123	-0.030159539
164	0x3d8f1974	0.06987277
165	0x3c758963	0.014986369
166	0x3e8f5e23	0.28001508
167	0x3b48b607	0.0030626075
168	0x3e648717	0.22317158
169	0xbdcdee76	-0.100552484
170	0x3e403be8	0.18772852
171	0xbdbea1ae	-0.09308182
172	0xbe65aaf6	-0.22428498
173	0x3d67b064	0.056564704
174	0x3d6356c6	0.055502675
175	0x3d6db005	0.058029193
176	0xbe6d0995	-0.23148187
177	0xbe020860	-0.12698507
178	0xbdc51107	-0.09622388
179	0xbc993908	-0.018703952
180	0x3d857099	0.06515617
181	0x3dedbf3d	0.116087414
182	0x3ce67cd3	0.028135693
183	0x3e7d627a	0.24744597
184	0xbe352c02	-0.17692569
185	0x3ebfba69	0.37446907
186	0xbe4dc6f8	-0.20095432
187	0xbe6e9027	-0.23297177
188	0xbe2e9267	-0.17048036
189	0xbc9b68f3	-0.018970942
190	0x3ccb8ee6	0.024848413
191	0x3e882aa1	0.26595023
192	0xbe55d829	-0.2088324
193	0xbdeb2d5e	-0.114832625
194	0x3e03229b	0.1280617
195	0x3dcd0d88	0.100123465
196	0xbe8ce6bb	-0.27519783
197	0xbe247bf6	-0.16062912
198	0x3e40c94f	0.18826793
199	0x3e680bde	0.22660777
200	0xbd0ab4e2	-0.03386391
201	0x3e873112	0.26404625
202	0x3dc375f8	0.09543985
203	0x3ada6cff	0.0016664563
204	0xbe81111d	-0.2520837
205	0x3b525c3d	0.0032098435
206	0xbe82821e	-0.25489897
207	0xbea19bdd	-0.31564227
208	0xbbbc1dd5	-0.005740861
209	0x3ccbfa52	0.024899635
210	0xbe8a7576	-0.2704274
211	0x3ded6718	0.11591929
212	0x3e9adab3	0.3024498
213	0x3e24a176	0.16077217
214	0x3d4d5636	0.050131045
215	0x3d7de76c	0.06198828
216	0xbd8bf83a	-0.06834455
217	0xbe07af9f	-0.13250588
218	0xbd7822d6	-0.060580097
219	0x3e5309a0	0.2060914
220	0x3e72df65	0.23718031
221	0xbe76a9e8	-0.24088252
222	0x3e36b707	0.17843257
223	0x3e4713b4	0.1944111
224	0x3e7159c2	0.23569396
225	0xbc85b66d	-0.016322339
226	0xbcfd7309	-0.030938642
227	0x3cd9d5de	0.026591238
228	0xbdc975ab	-0.098368965
229	0xbd2d6a46	-0.04233768
230	0x3cb20690	0.021731645
231	0x3e21d101	0.15802385
232	0x3d2459b6	0.040124618
233	0xbe09778b	-0.13424508
234	0x3ea22431	0.31668237
235	0xbe0659df	-0.1312022
236	0xbd7cdfdc	-0.061736926
237	0xbd8bcf5e	-0.068266615
238	0x3e3c2471	0.18373276
239	0xbe6b4f52	-0.22979477
240	0xbe713f91	-0.23559405
241	0x3d0cba28	0.03435722
242	0x3c676eae	0.014125509
243	0xbe4b249e	-0.19838187
244	0xbd869e96	-0.065732166
245	0xbdeadeaa	-0.11468251
246	0x3e85e70b	0.26152834
247	0xbea03833	-0.31292877
248	0xbdb3856f	-0.08765685
249	0x3d962c79	0.07332701
250	0xbe5294b0	-0.20564532
251	0xbded6762	-0.11591984
252	0xbd5bf724	-0.05370249
253	0x3ddf7bbd	0.10912273
254	0xbe320f84	-0.17388731
255	0xbe807858	-0.25091815

shared.0.bias f4 [128]
0	0xbec3aa72	-0.38215977
1	0xbe149ede	-0.14513728
2	0x3eefece9	0.46860436
3	0xbda2401a	-0.07922383
4	0xbdb6e772	-0.089308634
5	0xbe7aab1f	-0.2447934
6	0x3e806064	0.2507354
7	0xbde5f7ba	-0.11228891
8	0x3e5f3c0c	0.2180025
9	0x3e462fe1	0.19354202
10	0x3d999283	0.07498648
11	0x3ef21e3b	0.4728869
12	0x3caebde9	0.02133079
13	0xbe66b6e8	-0.2253071
14	0x3cea6981	0.028614761
15	0xbdaea27c	-0.08527085
16	0xbd67910e	-0.05653482
17	0x3e310e95	0.17290719
18	0xbe969a00	-0.29414368
19	0x3e4e7e81	0.20165445
20	0x3dacc4ce	0.08435975
21	0x3ec244a1	0.37942985
22	0x3e906e50	0.28209162
23	0xbd782a65	-0.060587306
24	0x3e58a229	0.21155609
25	0xbd29f3ab	-0.041492146
26	0xbe2f86ed	-0.17141314
27	0xbe6f66f6	-0.2337912
28	0xbe803e01	-0.25047305
29	0x3e42550e	0.18977758
30	0xbda8c021	-0.08239771
31	0xbe04457b	-0.1291713
32	0xbe573aa5	-0.21018465
33	0xbe1b213b	-0.15149395
34	0x3e8c0a85	0.27351776
35	0x3e3a5b52	0.18198898
36	0x3ed77c2f	0.42086932
37	0xbe195141	-0.14972402
38	0x3ebaa525	0.3645412
39	0xbccc4d56	-0.02493922
40	0xbe2bf38d	-0.16792126
41	0xbdf0dd15	-0.11760918
42	0x3ed743d5	0.4204394
43	0x3d9ecb17	0.0775358
44	0x3e694597	0.22780453
45	0xbe9381ce	-0.2880997
46	0x3e07cca4	0.13261658
47	0xbdf13d3f	-0.1177926
48	0xbdcd1ef2	-0.10015668
49	0x3d95615b	0.0729396
50	0x3de98383	0.11402037
51	0xbe2fe6aa	-0.17177835
52	0x3e514e7b	0.20440094
53	0xbe5933a4	-0.21211106
54	0xbe96852f	-0.29398486
55	0x3d04d9e9	0.032434378
56	0x3d91445a	0.07093115
57	0x3e4547f4	0.19265729
58	0x3ed10f9a	0.40832216
59	0x3d08c1f4	0.033388093
60	0x3ea3e39c	0.3200959
61	0xbd53ec81	-0.05173922
62	0x3e54ab7f	0.20768546
63	0x3ed80959	0.42194632
64	0xbd975f81	-0.07391263
65	0xbcfb4d6d	-0.030676568
66	0x3e81a47f	0.25320813
67	0xbe711778	-0.23544109
68	0xbdd950cf	-0.10611116
69	0x3e7b10ad	0.2451808
70	0x3e035228	0.12824309
71	0x3cfbdc1f	0.03074461
72	0x3e20e104	0.15710837
73	0xbe95461a	-0.29155046
74	0xbe53364d	-0.20626183
75	0xbd944b85	-0.07240967
76	0xbdcd362c	-0.10020098
77	0xbe35b84b	-0.17746083
78	0x3ea8d46e	0.3297457
79	0xbe9eead0	-0.31038523
80	0xbe59dc60	-0.21275473
81	0x3ebdc0d9	0.37061194
82	0x3df9b40e	0.12192546
83	0x3e870b39	0.2637575
84	0x3dc7d0da	0.09756632
85	0x3ccbd5db	0.024882248
86	0xbdc1187e	-0.094285
87	0x3eb19335	0.34682623
88	0xbdde6707	-0.10859495
89	0xbde36476	-0.11103146
90	0xbe691aa9	-0.22764076
91	0xbe2711dd	-0.16315408
92	0x3ddcf76c	0.107893795
93	0x3ec1444c	0.3774742
94	0xbe4df3ed	-0.20112582
95	0xbd47a608	-0.048742324
96	0xbea695b1	-0.3253608
97	0xbe9a231a	-0.30104905
98	0xbe9a2ad8	-0.30110812
99	0xbd5257ea	-0.051353373
100	0xbdc815d3	-0.09769788
101	0xbd6c5d11	-0.057705943
102	0x3ed18624	0.40922654
103	0xbe94fbb9	-0.290983
104	0xbe4c8b03	-0.19974904
105	0x3ded6f21	0.11593462
106	0xbea73241	-0.32655528
107	0x3e3f1c34	0.18663102
108	0x3edbe004	0.42944348
109	0x3d9a36c2	0.075299755
110	0x3e2cd1be	0.16876885
111	0x3c35de64	0.011100385
112	0x3ece108e	0.40247005
113	0xbe866405	-0.26248184
114	0x3e3bb6d4	0.18331462
115	0x3e2cd702	0.16878894
116	0xbdffeaa2	-0.124959245
117	0xbeaa4638	-0.33256698
118	0xbe0d41ca	-0.13794628
119	0x3e00ddbd	0.12584586
120	0xbd83a71a	-0.064283565
121	0x3e814515	0.25248018
122	0x3d646f74	0.055770352
123	0xbc140f2c	-0.00903682
124	0x3e8f9a9e	0.2804765
125	0xbe000457	-0.12501656
126	0xbde779ee	-0.11302553
127	0x3d66aab9	0.056315158

actor.0.weight f4 [128, 128]
0	0xbd1d4a59	-0.03840098
1	0xbc59a8a3	-0.013284835
2	0xbc8a5927	-0.016888214
3	0xbd28ccfe	-0.04121112
4	0xbd79f206	-0.061021827
5	0x3d2ffaa8	0.042963654
6	0xbd598fef	-0.05311578
7	0x3d8ccefd	0.068754174
8	0x3d4ad1c0	0.04951644
9	0x3d4b6a2b	0.049661797
10	0xbbafde71	-0.0053670933
11	0xbd848b51	-0.06471885
12	0x3db4006d	0.08789144
13	0xbda03161	-0.07821918
14	0x3da9df0a	0.082944945
15	0x3c927ba7	0.017881228
16	0x3d60de31	0.0548994
17	0x3d9ba2c7	0.07599407
18	0x3d931254	0.0718123
19	0x3da321f3	0.0796546
20	0x3d8ab6c7	0.06773143
21	0x3d5cf973	0.05394883
22	0x3c9f2730	0.019427866
23	0xbce60ef6	-0.028083306
24	0x3d0d5da3	0.034513127
25	0x3d2de2c6	0.042452596
26	0x3dc0cd99	0.09414215
27	0xbd59399b	-0.053033452
28	0xbd361e5b	-0.044462543
29	0xbd63ebf7	-0.055644955
30	0x3d494358	0.04913649
31	0x3ce5714c	0.028008126
32	0x3b6a4c7e	0.003575116
33	0xbc6ec573	-0.014573443
34	0x3d47b90c	0.04876046
35	0x3d8d0be1	0.06887031
36	0xbc60ecd6	-0.013728341
37	0x3db2a484	0.08722785
38	0xbd8768a7	-0.06611758
39	0xbdab973a	-0.083784536
40	0xbd34a460	-0.044102073
41	0xbd9fc039	-0.078003354
42	0xbb86adf4	-0.0041100923
43	0x3d8cbd8a	0.06872089
44	0x3cf3b676	0.02975009
45	0xbcf69474	-0.030100085
46	0xbcaf44f2	-0.02139518
47	0x3bf26539	0.0073973206
48	0xbc723ba0	-0.0147847235
49	0xbcfa0996	-0.030522149
50	0x3d7c5d43	0.06161238
51	0x3d236d1a	0.03989897
52	0x3d2305f5	0.039800603
53	0xbd9323cc	-0.07184562
54	0xbd14335e	-0.0361818
55	0x3d62e1ca	0.05539111
56	0x3d32f063	0.043686282
57	0x3d506cdf	0.050885078
58	0xbda0afbe	-0.0784602
59	0xbd5a945e	-0.05336415
60	0x3d689da1	0.05679095
61	0x3c80f0c2	0.015739802
62	0xbd4fe573	-0.05075593
63	0xbda26a61	-0.079304464
64	0xbd2716b7	-0.040793147
65	0x3db0e746	0.08637862
66	0x3d3f5504	0.046711937
67	0x3b7c9c1c	0.0038545197
68	0x3cb47d9d	0.022032553
69	0x3d1c98d4	0.038231686
70	0xbd82e017	-0.06390398
71	0x3d958fc4	0.07302812
72	0x3d57ce17	0.052686777
73	0x3c2e24d9	0.010628902
74	0x3d5eb376	0.054370366
75	0xbb64a385	-0.0034887504
76	0xbcb22be6	-0.021749448
77	0x3c09e123	0.008415493
78	0xbdbcd40a	-0.09220131
79	0x3db00411	0.085945256
80	0x3d2949d3	0.04133017
81	0xbd412be4	-0.047160998
82	0xbd5e0cb0	-0.05421132
83	0xbd99da65	-0.075123586
84	0xbbf6c0c9	-0.007530306
85	0x3d936712	0.071973935
86	0x3d2d8cc0	0.042370558
87	0x3d54a41f	0.05191433
88	0x3dbb2218	0.09137362
89	0xbd852500	-0.06501198
90	0x3ca32cca	0.019918818
91	0x3d6624c7	0.056187417
92	0xb9e2c4be	-0.00043252663
93	0xbd4fd1c1	-0.050737146
94	0xbd9c4172	-0.0762967
95	0x3d362fb0	0.044479072
96	0xbd9d987c	-0.076951
97	0xbd5160f4	-0.051117852
98	0x3d17bc7f	0.037045
99	0x3d1b972c	0.037985966
100	0x3cf3d1c1	0.029763104
101	0x3c1ac553	0.00944646
102	0x3db54d6c	0.08852658
103	0xbd563451	-0.052295987
104	0xbc5a0f2e	-0.013309283
105	0x3d3affcb	0.0456541
106	0x3aaf0f27	0.0013355956
107	0x3d26d339	0.04072878
108	0x3d7496db	0.05971418
109	0xbcbc68db	-0.022999218
110	0xbc611f3c	-0.013740357
111	0x3d9f302f	0.07772862
112	0xbbe31dfb	-0.006931064
113	0x3d94e177	0.072695665
114	0xbd6402f8	-0.055666894
115	0x3d83a079	0.06427092
116	0xbd8ce82a	-0.06880219
117	0x3d86bda7	0.06579142
118	0x3dbee280	0.09320545
119	0xbcdb9894	-0.026806153
120	0x3d8df140	0.069307804
121	0x3d4474cc	0.04796295
122	0xbbda542c	-0.006662866
123	0x3dd53dc2	0.1041217
124	0xbcde026c	-0.027100764
125	0xba72c7ec	-0.0009261358
126	0xbd1c587f	-0.038170334
127	0x3d8df284	0.06931022
128	0x3ca7f5f4	0.020503022
129	0x3cbd2630	0.023089498
130	0x3b9a9f20	0.004718676
131	0x3d41cd42	0.04731489
132	0xbd3062b3	-0.043062877
133	0xba957e80	-0.0011405498
134	0xbd75aeed	-0.059981275
135	0xbd7dbef3	-0.06194968
136	0x3d050db8	0.032483786
137	0xbd350def	-0.04420274
138	0xbd8a770e	-0.06760989
139	0xbcaa1084	-0.020759828
140	0x3c4ffa80	0.012694001
141	0xbb951f90	-0.0045508817
142	0xbd4d6344	-0.050143495
143	0xbd8855d3	-0.06656995
144	0xbd96c40e	-0.07361613
145	0x3d9643e3	0.07337167
146	0x3c932184	0.017960317
147	0xbd01ea5e	-0.03171765
148	0xbd2b07e0	-0.041755557
149	0x3cab3fe4	0.020904489
150	0xbd41b464	-0.047291175
151	0x3c5ad670	0.01335679
152	0xbd5bcc0e	-0.0536614
153	0x3dafe555	0.085886635
154	0x3ca9cac8	0.020726576
155	0xbd54d050	-0.051956475
156	0x3d12a3a2	0.035800584
157	0xbcc09600	-0.023509026
158	0x3c6f69d8	0.014612637
159	0x3c8eebb0	0.017446369
160	0xbcf8e74a	-0.030383725
161	0x3bb88720	0.0056313425
162	0xbcc7957c	-0.024363272
163	0x3d504a7e	0.05085229
164	0xbd546705	-0.05185606
165	0xbb68d700	-0.003552854
166	0xbc9102d0	-0.017701536
167	0xbd0ad735	-0.033896644
168	0x3ab6b400	0.0013939142
169	0x3d8df1c9	0.069308825
170	0x3d390bf6	0.045177422
171	0xbc124348	-0.008927174
172	0xbd040cc6	-0.032238744
173	0xb8fd1400	-0.000120677054
174	0xbd86f03a	-0.06588788
175	0xbd2b48cc	-0.04181747
176	0xbdab7580	-0.08372021
177	0xbd3047a7	-0.043037083
178	0xbc062ed0	-0.008189872
179	0x3d84c303	0.06482508
180	0x3b334f20	0.0027360395
181	0x3d54703a	0.05186484
182	0x3aa67bc0	0.0012701675
183	0x3bd937b0	0.006628953
184	0xbbd09690	-0.0063656047
185	0x3cd551a8	0.026039913
186	0x3cbe59cc	0.023236178
187	0x3d37a142	0.04483152
188	0x3cbb08b8	0.022831306
189	0x3d87449f	0.06604885
190	0xbbf39f70	-0.007434778
191	0x3cc06a34	0.023488142
192	0x3cebb96c	0.02877494
193	0x3aed0240	0.0018082336
194	0x3d49e7be	0.049293272
195	0xbcf1de2e	-0.029524889
196	0x3c2c6788	0.010522731
197	0x3b548600	0.0032428503
198	0xbda0b818	-0.07847613
199	0xbd8948be	-0.067033276
200	0xbc8ce704	-0.0172
201	0x3d305856	0.043052994
202	0xbcb20cac	-0.021734558
203	0x3d474a5e	0.048654906
204	0xbd51f064	-0.051254645
205	0xbdad402f	-0.08459508
206	0xbd03d53c	-0.032185778
207	0xbd521263	-0.051287066
208	0xbc9e1d2c	-0.01930102
209	0xbd14ffba	-0.036376692
210	0xbcf06aaa	-0.029347736
211	0xbd933309	-0.071874686
212	0xbd97816d	-0.07397733
213	0xbb400880	-0.0029301941
214	0xbd9566a0	-0.07294965
215	0x3cccf4b8	0.025019035
216	0xbd6745eb	-0.056463163
217	0xbbd14aa0	-0.00638707
218	0x3d8bf1bd	0.06833217
219	0xbcff8508	-0.031191364
220	0x3b14ea60	0.0022722706
221	0x3d90c6fd	0.07069204
222	0x3cf4a3c4	0.029863246
223	0xbc9febe0	-0.019521654
224	0xbd7ecfe2	-0.06220997
225	0x3da6dc2b	0.081474625
226	0xbcede742	-0.029040936
227	0x3d1134d0	0.035450757
228	0xbd350d34	-0.044202045
229	0x3bb7def0	0.005611293
230	0x3d1a5352	0.037677117
231	0x3c633ab8	0.01386898
232	0xbd1bf0a4	-0.03807129
233	0x3d6cca3a	0.057810046
234	0xbd8eedc5	-0.06978945
235	0xbc714328	-0.014725484
236	0xbbd56e90	-0.006513424
237	0xbd9d7176	-0.076876566
238	0x3d87c4ab	0.06629308
239	0xbd75c2dc	-0.060000286
240	0x3d8233cf	0.06357538
241	0xbc0d0840	-0.008607924
242	0x3c964820	0.018344939
243	0xbd883af7	-0.06651872
244	0x3d224dee	0.0396251
245	0xbdb06c7c	-0.08614442
246	0xbc6f15d8	-0.01459261
247	0xbd4dea3c	-0.05027221
248	0x3cdf11e0	0.027230203
249	0xbd9c7ec9	-0.0764137
250	0x3da0d413	0.0785295
251	0xbd62de2c	-0.05538766
252	0xbd827728	-0.063703835
253	0xbd166d6f	-0.036725458
254	0xbc1b95d0	-0.009496167
255	0x3d2ea51a	0.042637922

actor.0.bias f4 [128]
0	0xbd80c1a7	-0.06286936
1	0x3d8c65cd	0.068553545
2	0x3d9749de	0.07387136
3	0x3d89f9a4	0.06737068
4	0xbcbd83e3	-0.023134178
5	0x3d86ce88	0.065823615
6	0x3c1ff7c8	0.0097636655
7	0xbd2d48d4	-0.042305782
8	0xbd0695f0	-0.032857835
9	0x3c3f56c9	0.011678406
10	0x3d199a0a	0.03750042
11	0x3d163ad8	0.03667721
12	0x3d752b96	0.05985602
13	0x3d108f0f	0.03529268
14	0xbb7b1504	-0.0038312087
15	0x3da1cf32	0.079008475
16	0xbd9f67e8	-0.077834904
17	0xbcb19d44	-0.021681435
18	0x3bb4dc28	0.0055194087
19	0xbd8ec793	-0.069716595
20	0xbd10e0c6	-0.03537061
21	0x3d22cc92	0.039745875
22	0xbccf670e	-0.025317695
23	0x3c7fd2e8	0.015614249
24	0xbdb0a67f	-0.086255066
25	0xbd5b1eb1	-0.053496066
26	0x3d865e03	0.065609
27	0xbd167373	-0.036731195
28	0x3d6399a9	0.055566464
29	0x3d8e5668	0.069500744
30	0xbd9b338d	-0.07578192
31	0xbc65683d	-0.014001903
32	0x3bafba21	0.0053627645
33	0xbcd66bb6	-0.026174407
34	0xbd7f7551	-0.06236774
35	0x3c95bf51	0.018279703
36	0xbd9a96aa	-0.07548268
37	0xbc358a5a	-0.011080349
38	0xbd5b2511	-0.053502146
39	0x3c80c590	0.015719205
40	0xbdb06412	-0.08612837
41	0xbd8be762	-0.06831242
42	0xbd455714	-0.048178747
43	0x3d8e657c	0.0695295
44	0x3daa1ab6	0.08305876
45	0x3d371de0	0.044706225
46	0x3cf22273	0.029557442
47	0xbcd91f66	-0.02650423
48	0xbd30521b	-0.043047052
49	0x3d37653d	0.044774283
50	0x3d3d111f	0.046158906
51	0x39a4a50c	0.00031403487
52	0xbcb3a6e9	-0.021930175
53	0xbd7fa172	-0.062409826
54	0x3cdc589a	0.026897717
55	0x3d3c8f00	0.046034813
56	0x3d56c47c	0.052433476
57	0x3dcb7e56	0.09936206
58	0x3d6a6659	0.057226513
59	0x3d86e0f9	0.06585879
60	0xbcbc98c2	-0.02302206
61	0x3c3c200b	0.011482249
62	0x3d865130	0.06558454
63	0xbcf23b88	-0.029569402
64	0x3d5ac867	0.053413775
65	0x3d4c3b59	0.049861286
66	0x3dc20ef6	0.0947551
67	0x3d602e6e	0.05473178
68	0x3cd3230b	0.025773546
69	0xbd4090ee	-0.047013216
70	0xbd1c63b2	-0.038181014
71	0x3d0bc8f3	0.034127187
72	0xbcabbd88	-0.020964399
73	0x3dc4a14e	0.09601079
74	0xbd19dd46	-0.03756454
75	0xbc3d98b1	-0.011572049
76	0xbd4ad865	-0.049522776
77	0x3bddd71f	0.006770029
78	0x3bf80009	0.0075683636
79	0x3cae5f27	0.021285607
80	0x3d122dfc	0.035688385
81	0xbdc31fe5	-0.09527568
82	0xbd2155ff	-0.039388653
83	0x3d336d7e	0.04380559
84	0x3cb43d12	0.022001777
85	0xbc786072	-0.015159713
86	0x3c222911	0.009897486
87	0xbcba1c8f	-0.022718696
88	0xbd6b5491	-0.057453696
89	0x3d9ea67f	0.077466
90	0xbda31ccc	-0.07964477
91	0xbb68ea3c	-0.0035540005
92	0x3d1dbf5c	0.038512573
93	0xbda4da01	-0.080493934
94	0x3d7dd691	0.061972205
95	0x3b74891b	0.0037313167
96	0xbb3fa524	-0.0029242719
97	0xbc72b123	-0.0148127405
98	0x3cac6e7b	0.021048775
99	0x3dc2fa2d	0.095203735
100	0xbcd6ddbb	-0.026228776
101	0xbd51be54	-0.0512069
102	0x3d825f9a	0.06365891
103	0x3d323b40	0.043513536
104	0x3ca0ffb4	0.019653179
105	0x3d463a9a	0.04839573
106	0x3d248ad4	0.04017146
107	0xbca0638e	-0.019578721
108	0xbc005207	-0.007832057
109	0x3d9eebdf	0.077598326
110	0x3d5dd55a	0.054158546
111	0xbcd6b302	-0.026208404
112	0x3dcbe19b	0.0995514
113	0x3cb5f5cc	0.022211932
114	0x3d030b9d	0.031993497
115	0xbc8afaf0	-0.01696536
116	0xb9a586e6	-0.0003157176
117	0x3c34768e	0.011014594
118	0x3d913320	0.070898294
119	0xbb236287	-0.0024930553
120	0x3d7e9530	0.062153995
121	0xbb96c7ca	-0.0046014534
122	0x3d55487a	0.052071072
123	0x3d56eab4	0.052469924
124	0xbd4e2645	-0.050329465
125	0x3a0ce939	0.0005375329
126	0x3d272bbf	0.040813204
127	0x3cf6acc0	0.03011167

actor.2.weight f4 [5, 128]
0	0xbdb250a7	-0.087067895
1	0xbd9197d2	-0.071090356
2	0xbdcb8d94	-0.09939113
3	0x3c20cf9f	0.009815126
4	0xbd0bd37b	-0.03413723
5	0xbb4f2859	-0.0031609742
6	0x3d0630f4	0.03276153
7	0x3d2a7083	0.041611206
8	0xbcfbea0c	-0.03075125
9	0x3c83ced2	0.01608983
10	0x3d6a9e6b	0.057279985
11	0x3b84574d	0.0040387274
12	0xbcb60f56	-0.02222411
13	0xbda44c16	-0.08022325
14	0xbc95d44e	-0.018289711
15	0xbda48dd8	-0.08034867
16	0x3d7874d9	0.06065831
17	0xbcf29be7	-0.029615356
18	0xbd0ba972	-0.034097143
19	0x3d40d840	0.047081232
20	0x3d93e29c	0.07220957
21	0xbba59bb1	-0.0050539603
22	0xbcbab2f3	-0.022790408
23	0xbd835b08	-0.06413847
24	0x3d9aa80c	0.07551584
25	0x3d4cd3ee	0.0500068
26	0x3ce25fe8	0.027633622
27	0xbd9d9e2e	-0.07696186
28	0x3d4328b4	0.04764624
29	0x3cdd162f	0.026988117
30	0xbd9a767f	-0.075421326
31	0xbd317f55	-0.043334324
32	0x3cf208f1	0.02954528
33	0xbc84e0a7	-0.016220404
34	0x3d0c72d1	0.034289185
35	0xbd2a04df	-0.04150855
36	0xbd5e35e9	-0.05425063
37	0xbda22bfe	-0.07918547
38	0xbc9ec0b4	-0.019378997
39	0xbd80118f	-0.06253349
40	0xbda4182c	-0.08012423
41	0x3d290bd8	0.04127106
42	0x3d7a3c5e	0.061092727
43	0x3b85364b	0.00406531
44	0xbdc9389e	-0.09825252
45	0xbd480118	-0.048829168
46	0xbce77d4a	-0.028257985
47	0x3d862b63	0.06551244
48	0x3d05de9e	0.032683007
49	0xbd9d3a0f	-0.076770894
50	0xbd28a088	-0.04116872
51	0xbdf1ad2a	-0.118006065
52	0xbd741a3f	-0.059595343
53	0x3d317f01	0.04333401
54	0xbc335988	-0.010946639
55	0xbd3b78bd	-0.045769442
56	0x3ca565f4	0.020190217
57	0xbddd8fa1	-0.10818411
58	0x3d24510a	0.040116347
59	0x3c2cb386	0.010540849
60	0xbdc5c515	-0.09656731
61	0x3d58710c	0.052842185
62	0xbd57985d	-0.05263554
63	0x3d3ff218	0.046861738
64	0x3c8f036c	0.017457686
65	0xbcd17364	-0.025567718
66	0xbdc43d09	-0.09581954
67	0xbd37cb12	-0.044871397
68	0x3ca5b4b4	0.020227768
69	0xbc9928cb	-0.01869621
70	0xbdc3c925	-0.0955985
71	0xbd84a907	-0.06477552
72	0xbd821a9f	-0.06352734
73	0xbb90a5f8	-0.0044143163
74	0xbdb9d598	-0.09073943
75	0x3d6e784e	0.0582202
76	0xbd348684	-0.044073597
77	0xbdaead8c	-0.08529195
78	0xbc3ebfa7	-0.011642373
79	0x3c5795f6	0.013158312
80	0xbb92796e	-0.004470042
81	0x3c8fb934	0.017544366
82	0xbbbc2979	-0.0057422486
83	0xbdccd0c9	-0.1000076
84	0xbcff67b2	-0.031177375
85	0x3d821975	0.06352512
86	0xbcbc7d50	-0.023008972
87	0xbde3fc9d	-0.111321665
88	0xbd96ae8f	-0.07357513
89	0x3ce7c0dc	0.028290205
90	0xbd49d44b	-0.049274724
91	0xbcfafa37	-0.03063689
92	0xbd92bb14	-0.071645886
93	0x3d112682	0.035437115
94	0x3d15cdcb	0.036573213
95	0xbd0e0979	-0.034677003
96	0x3c9867b0	0.01860413
97	0xbcb45419	-0.022012757
98	0x3d1f0d22	0.038830884
99	0xbc86e578	-0.016466841
100	0x3d4dd4ad	0.05025165
101	0xbd331e9e	-0.04373037
102	0x3d570ff0	0.052505434
103	0xbd1364e5	-0.035984892
104	0xbd607c2f	-0.05480593
105	0xbd615f4b	-0.05502252
106	0xbdc8d9c7	-0.09807163
107	0x3d941482	0.07230474
108	0x3ccb736e	0.024835315
109	0xbd7768c7	-0.060402658
110	0xbca9aff4	-0.020713784
111	0x3b6e57c4	0.003636823
112	0x3ae364b1	0.0017348734
113	0x3cc42c00	0.023946762
114	0xbd9ff23d	-0.07809875
115	0xbb50ff82	-0.0031890576
116	0xbda1f413	-0.079078816
117	0x3d09edd4	0.033674076
118	0x3d9a63a8	0.07538539
119	0xbda1384f	-0.07872068
120	0xbdc9645a	-0.09833594
121	0xbc44fd16	-0.012023231
122	0x3c8d3b92	0.01724032
123	0x3d93cee0	0.07217193
124	0xbda082ec	-0.07837471
125	0xbc68bcde	-0.014205186
126	0xbdef512f	-0.116854064
127	0xbde68dc3	-0.11257508
128	0xbbe0eed7	-0.0068644094
129	0xbdb00a47	-0.0859571
130	0x3db26329	0.087103195
131	0xbc56a557	-0.0131009435
132	0x3dc9028e	0.098149404
133	0x3d978b92	0.07399668
134	0x3d63a8bb	0.055580836
135	0xbcfa8dd3	-0.030585205
136	0x3dd3c9d5	0.10341231
137	0xbd5ff604	-0.05467798
138	0xbb0b1dec	-0.0021227552
139	0xbd78390c	-0.06060128
140	0x3d97734e	0.073950395
141	0x3d847860	0.06468272
142	0xbd1bc23a	-0.038027026
143	0x3d07f776	0.03319498
144	0xbd466318	-0.048434347
145	0xbd490994	-0.0490814
146	0x3d721160	0.0590986
147	0x3d8f633f	0.070013516
148	0xbd2fd2b5	-0.042925555
149	0xbd227579	-0.039662812
150	0xbc92a53c	-0.017901056
151	0xbd8b8951	-0.068133004
152	0xbdb00a69	-0.085957356
153	0xbd0e783f	-0.034782644
154	0x3b2198e0	0.002465777
155	0x3cb978c4	0.022640593
156	0xbdb73cf5	-0.089471735
157	0x3c81046d	0.01574918
158	0xbb688250	-0.0035478063
159	0x3c805c30	0.015668958
160	0xbd3e31a7	-0.04643407
161	0x3d9f86f4	0.07789412
162	0x3cc4cb39	0.024022685
163	0x3bef67e8	0.0073060878
164	0xbc4e8bbe	-0.012606559
165	0xbdc3d13e	-0.09561394
166	0xbc831ace	-0.016003992
167	0xbd7375f1	-0.05943865
168	0x3da171c9	0.07883031
169	0x3d7b5001	0.061355595
170	0x3d9d908d	0.076935865
171	0xbc844297	-0.016145034
172	0x3d2117d8	0.03932938
173	0xbdb26f44	-0.087126285
174	0x3d5047d6	0.050849758
175	0xbd18b385	-0.03728058
176	0x3db93f03	0.09045222
177	0x3d0da013	0.034576487
178	0x3d8d9d73	0.06914797
179	0xbbf2225d	-0.0073893503
180	0x3a963d3d	0.0011462342
181	0x3c3f399c	0.01167145
182	0xbd8b5de8	-0.068050206
183	0x3d30c960	0.043160796
184	0x3b3c5c27	0.002874145
185	0xbd480e92	-0.04884202
186	0x3d04cbf3	0.032421064
187	0xbd73aeb5	-0.059492785
188	0x3cf55255	0.029946486
189	0x3c7c22be	0.015389143
190	0x3db5c075	0.08874599
191	0x3d805dc8	0.06267887
192	0x3d2a0561	0.041509036
193	0xbd890208	-0.066898406
194	0xbb5662a3	-0.00327126
195	0xbd161462	-0.036640532
196	0xbd234f81	-0.039870743
197	0xbca36b02	-0.019948486
198	0x3d735453	0.05940659
199	0xbbb108b1	-0.0054026474
200	0xbc908a44	-0.017644055
201	0x3bd57afb	0.0065149046
202	0x3d79fcf5	0.061032254
203	0xbac0a264	-0.0014696834
204	0xbd4cce1d	-0.050001252
205	0xbbb21cea	-0.0054355757
206	0x3d9fdfb0	0.07806337
207	0xbdb0baf6	-0.0862941
208	0x3cdacba5	0.026708433
209	0x3d5e530c	0.05427842
210	0x3bf60c9f	0.007508829
211	0x3dbbe811	0.091751225
212	0xbda433bf	-0.08017682
213	0x3bcb6756	0.006207387
214	0xbd5eef3d	-0.054427374
215	0xbd2f744c	-0.04283552
216	0x3c886e18	0.01665406
217	0x3ca963ad	0.020677412
218	0xbc02668b	-0.007959018
219	0xbc366244	-0.011131827
220	0xbd96e864	-0.07368544
221	0x3d38e91f	0.045144197
222	0xbc15e16b	-0.009147982
223	0xbd99af10	-0.07504094
224	0x3d835ef6	0.06414597
225	0x3b7eef80	0.0038900077
226	0x3d7b1fa0	0.061309457
227	0x3da0e76d	0.07856641
228	0x3dbf409a	0.09338494
229	0x3d4fada4	0.050702706
230	0xbdb038ed	-0.08604608
231	0xbb8b0fd5	-0.0042438307
232	0xbdafc0cc	-0.08581695
233	0x3ba17d8b	0.004928296
234	0x3d3ec4d6	0.046574436
235	0xbd894cb5	-0.06704084
236	0x3ceabf3a	0.028655637
237	0x3cbbeefc	0.022941105
238	0x3a4ea200	0.0007882416
239	0x3ca76ba6	0.020437073
240	0xbcc08cad	-0.02350458
241	0x3d956ebc	0.072965115
242	0x3cb8c6f8	0.022555813
243	0x3d2c1742	0.042014368
244	0x3d3f1197	0.046647634
245	0xbdb03136	-0.08603136
246	0xbda129f5	-0.07869331
247	0x3d294a66	0.041330718
248	0xbce830a7	-0.028343512
249	0x3d546083	0.051849853
250	0xbd06494b	-0.03278474
251	0xbd2628bd	-0.040566195
252	0xbd0c619c	-0.034272775
253	0xbce27fe7	-0.02764888
254	0x3da04ce7	0.07827168
255	0xbd57cf19	-0.052687738

actor.2.bias f4 [5]
0	0xbdcff7fb	-0.101547204
1	0x3d9f36a4	0.07774094
2	0x3a92e2c3	0.0011206496
3	0x3bbfbc1b	0.0058512813
4	0x3ccb7d48	0.024840012

critic.0.weight f4 [128, 128]
0	0x3df03bdb	0.117301665
1	0x3c552fb3	0.013011861
2	0xbda7eb4b	-0.081991754
3	0xbd428f7b	-0.047500115
4	0xbbddc7b0	-0.0067681894
5	0x3c248d7a	0.010043496
6	0xbcbca319	-0.02302699
7	0x3d094a33	0.033518028
8	0xbdb40726	-0.08790426
9	0x3d6087a3	0.054816853
10	0x3ccda3f7	0.025102599
11	0x3c492a49	0.012278148
12	0x3d054d24	0.03254427
13	0x3bb00515	0.0053716996
14	0x3c5dbd1a	0.013533855
15	0x3da31bde	0.079642996
16	0xbd5dfd67	-0.05419674
17	0xbdcfde14	-0.1014978
18	0x3cd16a1a	0.025563288
19	0xbd146233	-0.036226463
20	0x3d842668	0.06452638
21	0xbd7ef8bc	-0.06224893
22	0x3d88f4e1	0.06687332
23	0x3da8612f	0.08221661
24	0xbdcf56ed	-0.10124002
25	0x3d5ad948	0.05342987
26	0x3d8135d6	0.063090965
27	0xbdc08092	-0.09399523
28	0xbd4c6753	-0.049903225
29	0xbcc1ff08	-0.023681179
30	0xbd23182b	-0.03981797
31	0x3c870286	0.016480695
32	0x3cc621e0	0.024186075
33	0x3d4e4934	0.05036278
34	0x3ca636c1	0.02028978
35	0xbc6a6ae8	-0.014307715
36	0x3c564665	0.013078307
37	0xbd034841	-0.03205133
38	0x3cadb7af	0.021205751
39	0xbdbb0c1e	-0.091331705
40	0xbd046a97	-0.032328214
41	0xbd941180	-0.072299
42	0x3d05aa8c	0.03263335
43	0xbd8cdb8a	-0.06877811
44	0xbc6be090	-0.014396802
45	0x3de83f99	0.11340255
46	0xbaf518f1	-0.001869945
47	0xbc3c6cf3	-0.011500585
48	0xbd8c8582	-0.06861402
49	0x3dec391e	0.11534332
50	0xbbbd005e	-0.005767866
51	0x3cad2740	0.02113688
52	0x3d23b525	0.039967675
53	0x3db7280b	0.089431845
54	0xbdbf97fb	-0.0935516
55	0x3cf651af	0.030068247
56	0x3d532660	0.05155027
57	0xbd8ef370	-0.06980026
58	0x3d952855	0.07283083
59	0x3d4e1fa8	0.05032316
60	0x3d8acc4b	0.06777247
61	0xbcb9044e	-0.02258506
62	0xbbcc0525	-0.006226199
63	0xbda3bef5	-0.079954065
64	0xbdd5364d	-0.10410748
65	0x3d4bd282	0.049761303
66	0xbd2bccc3	-0.041943323
67	0x3d50e0bd	0.050995577
68	0x3e16457d	0.14674945
69	0xbcfe4a38	-0.03104125
70	0xbd1a1fe4	-0.03762807
71	0x3b439e8e	0.0029849145
72	0xbc334308	-0.010941274
73	0xbc9723aa	-0.018449623
74	0xbd586aae	-0.052836113
75	0xbd9805c3	-0.07422974
76	0x3d2576c9	0.040396485
77	0xbd9b985b	-0.07597419
78	0x3d82745b	0.06369849
79	0xbcc58dbc	-0.024115436
80	0xbd5a2887	-0.053261306
81	0x3cba0940	0.022709489
82	0x3abf2095	0.0014581854
83	0xbdaf55c8	-0.08561283
84	0x3da880c4	0.08227685
85	0x3db2abfa	0.08724208
86	0x3d751663	0.059835803
87	0x3d51e403	0.05124284
88	0x3cf4744e	0.029840615
89	0x3dad8719	0.084730335
90	0xbd8c4aec	-0.06850228
91	0x3c149ad0	0.009070113
92	0x3d579ee6	0.05264177
93	0xbd43bb29	-0.04778591
94	0x3d454657	0.048162784
95	0x3db1cda5	0.08681802
96	0xbd00ac8b	-0.03141455
97	0x3dd791ce	0.10525857
98	0x3ce21cf1	0.027601691
99	0xbd64418b	-0.05572657
100	0x3d7191c6	0.05897691
101	0xbd7ab8ce	-0.0612114
102	0xbd86891d	-0.06569121
103	0xbd5ae554	-0.05344136
104	0xbc55875c	-0.0130327605
105	0x3dc117d8	0.09428376
106	0x3da94e64	0.08266905
107	0x3d86987e	0.06572054
108	0x3d11d1fe	0.035600655
109	0xbcad3640	-0.021144032
110	0x3b28807e	0.0025711353
111	0xbd78d83d	-0.060753096
112	0xbd86f78a	-0.06590183
113	0x3d806af1	0.062703975
114	0xbd0861a0	-0.033296227
115	0x3d7217a0	0.05910456
116	0xbde27976	-0.11058323
117	0xbc7b1bd0	-0.015326455
118	0x3d94df1a	0.07269116
119	0xbd095e0d	-0.03353696
120	0xbba8859b	-0.00514288
121	0xbd4b1914	-0.049584463
122	0x3c869e18	0.016432807
123	0xbd5b83d4	-0.053592518
124	0xbdb7ed5a	-0.08980818
125	0xbcc66090	-0.024215966
126	0xbbaddf88	-0.005306188
127	0x3d9e1111	0.07718099
128	0x3da0b197	0.078463726
129	0xbd60f53d	-0.054921377
130	0x3cae5b68	0.02128382
131	0x3d86bd87	0.06579118
132	0xbdb1eaa1	-0.0868733
133	0xbda97397	-0.08274
134	0x3cb44fdc	0.022010736
135	0xbd588512	-0.05286128
136	0x3c9060a4	0.017624207
137	0xbd77b112	-0.0604716
138	0xbd5e752a	-0.054310955
139	0xba73d100	-0.0009300858
140	0x3daedbf5	0.08538047
141	0xbda614ab	-0.08109411
142	0xbc8cf8ec	-0.017208539
143	0xbd8eb73e	-0.069685444
144	0xbbdb61a0	-0.0066949874
145	0xbd1dca64	-0.038523093
146	0x3c6fe780	0.014642596
147	0xbc101870	-0.008794889
148	0xbd8c467a	-0.0684938
149	0x3d364eda	0.044508792
150	0x3d3988fe	0.04529666
151	0xbd352b58	-0.04423079
152	0x3da88eeb	0.082303844
153	0xbdb2093e	-0.08693169
154	0xbc504d80	-0.01271379
155	0xbd87daf8	-0.06633562
156	0xba6e9500	-0.0009101182
157	0xbd013025	-0.031540055
158	0x3d5953e2	0.053058513
159	0x3d9572a5	0.07297257
160	0xbd2222cb	-0.039583962
161	0x3d3da422	0.046299107
162	0xbd15deeb	-0.036589544
163	0xbd2ca8b4	-0.042153075
164	0xbd308636	-0.043096744
165	0xbd78146b	-0.060566347
166	0xbba68230	-0.0050814375
167	0xbca857bc	-0.020549648
168	0xbd9be26a	-0.076115444
169	0x3d27bd76	0.04095217
170	0xbd820d63	-0.063502096
171	0x3ce1fe2c	0.027587019
172	0x3d83f18b	0.06442555
173	0x3daee0b5	0.08538953
174	0xbd57071d	-0.052497018
175	0xbc83f0b8	-0.016105995
176	0x3d97239b	0.07379838
177	0xbd3c6b06	-0.046000503
178	0xbd2a801c	-0.04162608
179	0xbc9c2dac	-0.019064747
180	0xbd6448fb	-0.055733662
181	0xbd548718	-0.051886648
182	0x3d82cfdb	0.063873015
183	0xbd8a9668	-0.06766969
184	0x3d680016	0.056640707
185	0xbc0a7db8	-0.008452825
186	0x3d4763da	0.04867921
187	0x3d1872be	0.0372188
188	0xbdae86de	-0.085218176
189	0xbd448e31	-0.047987167
190	0xbd356ea4	-0.04429497
191	0xbd1b7d1b	-0.037961107
192	0xbd649c60	-0.055813193
193	0xbd88840e	-0.066658124
194	0x3da3a85f	0.079910986
195	0x3c4332a8	0.011913933
196	0x3cd71ff8	0.026260361
197	0xbd13da11	-0.036096636
198	0xbd34391b	-0.043999773
199	0xbd6f1da6	-0.058377884
200	0x3d950927	0.07277136
201	0x3cb3e3e4	0.021959253
202	0xbd4a83b6	-0.049442016
203	0xbc8f30b4	-0.017479278
204	0x3d82daa9	0.06389362
205	0x3cacb9b0	0.021084636
206	0xbd5d523f	-0.054033514
207	0xbd9175ca	-0.071025446
208	0xbd88f2ab	-0.0668691
209	0x3daca027	0.08428984
210	0x3ce11084	0.027473696
211	0x3d920837	0.07130473
212	0x3d8617a5	0.065474786
213	0xbcd46916	-0.025929015
214	0xbcd02584	-0.025408514
215	0xbd46a6db	-0.04849897
216	0xbbb47ef0	-0.005508296
217	0xbd843ef4	-0.0645732
218	0xbcd862a2	-0.02641422
219	0xbd312ad0	-0.04325372
220	0xbd08a97d	-0.03336476
221	0xbc97b67c	-0.018519633
222	0xbd2fa2a5	-0.04287972
223	0x3d871d23	0.06597354
224	0xbd9f1af2	-0.07768811
225	0xbd9e5166	-0.07730369
226	0xbb519300	-0.0031978488
227	0xbc0c4c90	-0.008563176
228	0xbd0d25be	-0.034459822
229	0x3bfd2120	0.007724896
230	0xbd826738	-0.06367344
231	0xbd052cf7	-0.032513585
232	0x3ca9c8ec	0.02072569
233	0xbbad2fb0	-0.005285226
234	0x3cc8344c	0.024439
235	0xbd6cd312	-0.05781848
236	0xbca146bc	-0.01968705
237	0xbdb34a2a	-0.0875438
238	0x3cd41360	0.025888145
239	0x3d8eb3e1	0.06967903
240	0x3da2c9e1	0.079486616
241	0xbd3e44ff	-0.04645252
242	0xbc25a518	-0.010110162
243	0x3d6c434a	0.05768136
244	0xbce98d76	-0.028509837
245	0xbd027c2a	-0.031856693
246	0x3d83e7fb	0.06440731
247	0xbce79818	-0.028270766
248	0xbca31dec	-0.019911729
249	0xbd88f3ca	-0.06687124
250	0xbc8c7c38	-0.017149076
251	0xbd5697f7	-0.05239102
252	0x3d892d17	0.06698053
253	0x3d321d86	0.043485187
254	0x3c209bb0	0.009802744
255	0x3d094370	0.03351158

critic.0.bias f4 [128]
0	0xbd923517	-0.07139032
1	0x3d0462bc	0.032320723
2	0x3e047a6b	0.12937324
3	0x3d6d0b0a	0.057871856
4	0xbdab9c05	-0.08379368
5	0xbc85cf4c	-0.016334198
6	0x3d81cebf	0.06338262
7	0x3e113acb	0.14182584
8	0x3dd936cf	0.10606157
9	0xbce0a06e	-0.027420249
10	0xbd96ef95	-0.073699154
11	0x3da3f70f	0.08006107
12	0x3d5baafd	0.053629864
13	0x3e0ef37c	0.1396007
14	0x3d66f4cb	0.056385797
15	0x3deccc17	0.115623645
16	0x3d9cba99	0.07652778
17	0xbd904f70	-0.070464015
18	0x3d6cbd4b	0.05779771
19	0xbce950d9	-0.028480934
20	0x3d06d369	0.03291646
21	0x3e25ff93	0.16210775
22	0x3c6dfe97	0.014526031
23	0x3d79bcbd	0.06097101
24	0xbd9a2ab7	-0.075276785
25	0x3d5d0710	0.053961813
26	0xbd288c91	-0.04114968
27	0xbcac29af	-0.02101597
28	0xbd588b66	-0.052867316
29	0x3d777d41	0.060422186
30	0xbd737e1d	-0.059446443
31	0x3df5fb51	0.120108254
32	0x3e0b309b	0.1359276
33	0xbe1a8a01	-0.15091707
34	0x3dc150fb	0.09439274
35	0x3c93e986	0.018055689
36	0x3d140121	0.03613389
37	0xbe071ac2	-0.13193801
38	0x3d129884	0.03578998
39	0xbdb251b9	-0.087069936
40	0xbd183e6e	-0.037168913
41	0xbd5043ee	-0.050846033
42	0x3e1e0be4	0.15434223
43	0x3d6e8c00	0.058238983
44	0x3d87c662	0.066296354
45	0xbc96a092	-0.018387113
46	0xbd69d2fc	-0.057085976
47	0xbdf24568	-0.118296444
48	0xbd54c003	-0.05194093
49	0x3d9f141b	0.07767507
50	0xbd4c61a8	-0.04989782
51	0x3e10d4cd	0.14143677
52	0xbdd57948	-0.10423523
53	0xbd4d9f8b	-0.05020098
54	0xbce1d6d5	-0.02756826
55	0x3ddf4d80	0.10903454
56	0xbce7b029	-0.028282242
57	0x3d24471c	0.040106878
58	0x3ccfcf3c	0.025367372
59	0xbd6a94bf	-0.05727076
60	0xbcd4ce21	-0.025977196
61	0xbc87ad0a	-0.016562004
62	0x3db2ed05	0.08736614
63	0xbdcad060	-0.099030256
64	0xbdbf1bb2	-0.09331454
65	0xbce74ba3	-0.028234309
66	0x3d91cf79	0.071196504
67	0x3e2c7995	0.16843255
68	0x3e0cbbc0	0.13743496
69	0x3cb9895f	0.022648511
70	0x3d5786cf	0.052618798
71	0x3e0363de	0.12831065
72	0x3ccc5ea6	0.024947476
73	0x3e2901b0	0.1650455
74	0x3c74e5e2	0.014947386
75	0xbd827251	-0.063694604
76	0x3d85756c	0.06516537
77	0x3e06e198	0.13171995
78	0xbd3af92d	-0.04564779
79	0x3d844c25	0.06459836
80	0x3c07256f	0.008248671
81	0xbd82526b	-0.06363376
82	0x3d83da70	0.06438148
83	0x3de4885a	0.111588195
84	0xbadd5d08	-0.0016888687
85	0x3d72eafd	0.059306134
86	0x39893ef8	0.00026177592
87	0x3e1dccb4	0.1541012
88	0x3d8b3a17	0.06798189
89	0x3dc2280e	0.09480296
90	0x3d2ff94a	0.04296235
91	0x3e0ae9eb	0.13565795
92	0x3e03f8e2	0.1288791
93	0xbcf92749	-0.03041424
94	0x3d39d4e0	0.04536903
95	0x3d729d00	0.059231758
96	0xbcdf2e0d	-0.027243638
97	0x3e2ae754	0.16689807
98	0x3cc2a73e	0.023761388
99	0x3df19700	0.11796379
100	0x3d5418f1	0.0517816
101	0x3dc7ba06	0.09752278
102	0x3e12934e	0.14314005
103	0x3d22bcd5	0.039730866
104	0x3d4b6591	0.04965741
105	0x3d5e01c9	0.05420092
106	0x3e47bac1	0.19504835
107	0x3c2c50f0	0.010517344
108	0xbe2632ba	-0.16230288
109	0x3de5cab0	0.112203
110	0xbd95fea7	-0.07323962
111	0xbaedd3a0	-0.0018144734
112	0xbe2f966d	-0.17147227
113	0x3c8bcef6	0.01706646
114	0xbe009cf8	-0.12559879
115	0xbe4149f8	-0.18875873
116	0x3c8a9ceb	0.016920527
117	0x3ddd8713	0.10816779
118	0x3e0fcd9e	0.1404328
119	0x3d6dd6d4	0.058066204
120	0xbd8e1778	-0.0693807
121	0x3e300d65	0.1719261
122	0x3df2132e	0.118200645
123	0xbe11e3b2	-0.14247015
124	0xbcecbbd3	-0.028898155
125	0x3d72fddb	0.059324127
126	0xbce3c579	-0.027804123
127	0x3e2ab2ec	0.16669816

critic.2.weight f4 [1, 128]
0	0xbd079117	-0.033097353
1	0xbcd121cc	-0.02552881
2	0x3e265a44	0.16245371
3	0x3dfc8a1b	0.12331029
4	0xbd18a7c1	-0.037269358
5	0xbd74f766	-0.05980625
6	0xbd27ebb3	-0.040996265
7	0x3ddb4715	0.10706917
8	0x3d83c957	0.06434887
9	0xbda9f55a	-0.0829875
10	0x3d5e0495	0.05420359
11	0x3e0133e7	0.12617455
12	0xbd00182b	-0.03127305
13	0x3d79aafc	0.06095408
14	0x3d390866	0.045174025
15	0x3dc2bcb1	0.09508646
16	0x3da7e76b	0.08198436
17	0xbe2069fe	-0.15665433
18	0x3d9d4d8e	0.07680808
19	0xbd74aa22	-0.059732564
20	0x3de27b7e	0.110587105
21	0x3d8f9e1c	0.07012579
22	0x3d85a29e	0.065251574
23	0xbbdda7b7	-0.006764378
24	0xbda66d66	-0.08126335
25	0xbda566c2	-0.0807624
26	0xbd9696bd	-0.0735297
27	0xbbf4ea4e	-0.0074742204
28	0xbd96772e	-0.073469505
29	0x3d931bbb	0.071830235
30	0xbde4f44f	-0.11179411
31	0x3e193b36	0.14963993
32	0x3dd5444c	0.10413417
33	0xbddc34ac	-0.10752234
34	0x3d32bc86	0.04363682
35	0xbd854df0	-0.06509006
36	0x3dffbc76	0.12487118
37	0xbdd516f9	-0.10404772
38	0xbd99df1e	-0.07513259
39	0xbd9400ee	-0.0722674
40	0xbd8ca704	-0.06867793
41	0xbd390f12	-0.045180388
42	0x3da4c55b	0.08045455
43	0x3de6e428	0.11273986
44	0x3dcb48e8	0.09926015
45	0x3b0fc145	0.0021935266
46	0xbe016319	-0.12635459
47	0xbde1988a	-0.11015423
48	0x3c9d297d	0.019184822
49	0x3dc4a928	0.096025765
50	0xbe0ba3f1	-0.13636757
51	0x3e0f4451	0.13990904
52	0xbda59ddb	-0.08086749
53	0xbd0d214a	-0.034455575
54	0xbdb85f60	-0.09002566
55	0x3da37868	0.0798195
56	0xbe357c32	-0.17723158
57	0xbda9a451	-0.08283294
58	0xbd40cbba	-0.04706929
59	0xbdeff012	-0.11715712
60	0xbd71f659	-0.059072826
61	0xbe10dfd2	-0.1414788
62	0x3d8fff73	0.07031145
63	0xbdf2314d	-0.1182581
64	0xbd4729b5	-0.04862376
65	0xbdba8cb0	-0.09108865
66	0x3d2b7bda	0.04186616
67	0x3d7ac429	0.06122223
68	0x3df5d86f	0.12004172
69	0x3de5580d	0.11198435
70	0x3d8b891b	0.0681326
71	0x3da281ef	0.07934939
72	0xbb9ae8c5	-0.0047274553
73	0x3e061d75	0.13097174
74	0xbca69f62	-0.020339672
75	0xbc7f596c	-0.015585285
76	0x3dede076	0.11615078
77	0x3e151760	0.14559698
78	0xbddd70ff	-0.10812568
79	0xbd8cf381	-0.06882382
80	0xbcf5c738	-0.030002221
81	0xbd5c7919	-0.053826425
82	0x3df7bc3f	0.12096452
83	0x3e0ab871	0.13546921
84	0xbd240ba5	-0.040050168
85	0x3d8b7039	0.06808514
86	0x399b414d	0.00029612557
87	0x3de0c10e	0.10974322
88	0x3e1007b8	0.14065444
89	0x3e046d86	0.12932405
90	0x3ddefb4a	0.10887773
91	0x3d8d9bf4	0.06914511
92	0x3dadd470	0.08487785
93	0xbd170648	-0.036871225
94	0xbc0b6e7d	-0.008510229
95	0x3da77c37	0.08177989
96	0xbdcde314	-0.10053077
97	0x3dd27746	0.10276656
98	0x3e0c628c	0.13709468
99	0x3e21dfbd	0.15808006
100	0xb8acc79b	-8.2387785e-05
101	0x3d928298	0.07153815
102	0x3de50cb0	0.111840606
103	0x3d3d08d2	0.04615099
104	0x3e0ae266	0.13562927
105	0x3e0d3618	0.13790166
106	0x3da84bb3	0.082175635
107	0xbbaea935	-0.0053302296
108	0xbdfb143b	-0.12259718
109	0x3d6c975d	0.05776154
110	0xbc094e1b	-0.008380438
111	0xbd79f6d6	-0.061026417
112	0xbdfc83f9	-0.12329859
113	0x3db39f29	0.08770592
114	0xbe0e1e7e	-0.1387882
115	0xbdf5aa09	-0.11995322
116	0xbd07c3a6	-0.03314557
117	0x3da236ef	0.07920634
118	0x3da1465f	0.0787475
119	0x3e15e43c	0.14637846
120	0xbe05490e	-0.1301615
121	0x3d45bb82	0.048274525
122	0x3d543cb9	0.051815722
123	0xbdd36513	-0.10322013
124	0xbd63bbfb	-0.055599194
125	0xbda01863	-0.078171514
126	0xbddcccad	-0.10781226
127	0x3de43188	0.1114226
