models/ppo/Catan/ppo_catan_model_update250.pth (torch, 145076 bytes, 9 tensors)

shared.0.weight f4 [128, 10]
0.1463812 0.161057 0.13950287 -0.09694056 0.17866033 0.008210246 0.33714017 -0.21401866
0.39358094 -0.016122283 0.14907019 -0.1301025 -0.16444744 0.2689792 0.13064653 0.20148855
-0.18532081 -0.0733645 -0.1290966 0.046460833 -0.033061933 -0.15776914 0.20599118 0.05665371
-0.13288847 0.032283254 0.347171 0.23749793 0.16340436 -0.016172059 -0.28307196 0.2199432
0.08491016 -0.055327218 0.16890639 0.3308891 0.20114991 0.0016008125 0.24178758 -0.24009646
-0.21507418 -0.30444065 -0.10514065 -0.2640477 0.1424371 0.104877725 0.1518637 0.18732792
-0.27761328 0.07942378 0.06907201 -0.12048113 -0.07391392 0.016648117 -0.21203712 -0.19334044
-0.13412432 0.20380253 0.23442423 0.025475025 0.27886134 0.30238956 0.017573632 -0.18456018
-0.049440943 0.035854008 -0.25822937 0.43280998 0.0054058526 -0.1332187 0.3358492 -0.24026878
-0.15216938 -0.056700483 0.107553594 -0.17779368 -0.22494398 -0.15874918 0.1306114 0.098145604
0.2359794 -0.28462207 0.23503599 0.015256412 -0.17192744 0.3390644 -0.11183975 -0.3364394
-0.24046491 0.0018214352 0.2480602 0.29509977 -0.08254182 -0.03569361 -0.021709112 0.027993022
0.17664438 0.091037005 0.022204855 0.2285588 0.20955786 -0.20901318 -0.044442873 0.059985824
0.058483683 0.22492222 0.09240396 0.22830343 0.007250785 0.23795098 0.08555088 -0.11833045
-0.06292456 -0.026466405 0.05010884 0.060221694 -0.12969485 0.08784945 -0.3767956 0.043219775
0.068485335 0.12012053 -0.078758165 -0.17440622 0.1363496 0.17945309 -0.2017655 -0.33117127
-0.2239905 0.19299524 0.24833566 0.13066019 0.21952426 0.21862721 -0.1096946 0.26740462
-0.012456189 0.12297193 -0.033272468 0.15841918 0.2826875 -0.016143903 0.10875406 0.022561854
0.056749273 -0.014079439 0.19660728 -0.30678475 0.05759022 -0.1779225 -0.10986377 -0.060412485
0.2330258 0.063593216 0.23110336 0.06406126 -0.21267778 0.2776483 0.26758188 0.22087047
0.29726928 -0.19832237 0.31778908 -0.03526547 0.06626439 0.014007937 0.26998165 0.0013548958
0.22419994 -0.10653283 0.18228567 -0.0968241 -0.22474577 0.056459717 0.05437105 0.05549747
-0.23397246 -0.12797351 -0.09603789 -0.02170532 0.06342295 0.116109654 0.032690056 0.2461066
-0.18161559 0.37464267 -0.21206914 -0.22982933 -0.1542962 -0.02334422 0.022182228 0.2637014
-0.21152602 -0.1166544 0.1252618 0.095257215 -0.28071433 -0.16297527 0.19022948 0.22062531
-0.040212672 0.2651857 0.089682594 0.020690203 -0.26101407 0.0071001914 -0.26801708 -0.30837545
-0.0015161237 0.021115782 -0.2682524 0.11483795 0.29913762 0.16139914 0.051965255 0.05908644
-0.06309915 -0.13440509 -0.06326941 0.20645827 0.23967987 -0.23615752 0.17777431 0.19526082
0.23960845 -0.017753903 -0.019909203 0.026551 -0.106200434 -0.03832921 0.015605741 0.15227112
0.035754815 -0.14589393 0.3119753 -0.13029861 -0.07807843 -0.075959995 0.18526393 -0.23784631
-0.24094021 0.028117403 0.0057830005 -0.20565245 -0.0836803 -0.11372778 0.25041753 -0.3186147
-0.08753987 0.06649725 -0.20807005 -0.120658554 -0.05769959 0.10517474 -0.17631663 -0.25680608
00000000: f4e4 153e 20ec 243e d7d9 0e3e c688 c6bd
00000010: bcf2 363e 4584 063c a39d ac3e b527 5bbe
00000020: 7183 c93e e112 84bc dba5 183e 9739 05be
00000030: e964 28be a4b7 893e 34c8 053e 0453 4e3e
00000040: bdc4 3dbe 2140 96bd e631 04be b74d 3e3d
00000050: f36b 07bd 3c8e 21be 5aef 523e b80d 683d
00000060: ea13 08be 723b 043d 66c0 b13e a832 733e
00000070: 7953 273e 447b 84bc cfee 90be ca38 613e
00000080: 61e5 ad3d cb9e 62bd ccf5 2c3e 4c6a a93e
00000090: 3efa 4d3e 5bd2 d13a 2a97 773e d9db 75be
000000a0: 683c 5cbe a5df 9bbe fb53 d7bd 4331 87be
000000b0: 08db 113e 22ca d63d 2882 1b3e e4d2 3f3e
000000c0: 5423 8ebe efa8 a23d a075 8d3d d0be f6bd
000000d0: 2e60 97bd a261 883c 4220 59be 09fb 45be
000000e0: e357 09be 9cb1 503e e80c 703e 00b1 d03c
000000f0: eac6 8e3e ced2 9a3e 94f6 8f3c 58fd 3cbe
00000100: 9682 4abd a7db 123d a436 84be 4599 dd3e
00000110: 9423 b13b 7c6a 08be 6df4 ab3e 0509 76be
00000120: 4ad2 1bbe c43e 68bd 0f45 dc3d 8c0f 36be
00000130: b757 66be 258f 22be ffbe 053e 9000 c93d
00000140: 95a4 713e fcb9 91be 46ad 703e 08f6 793c
00000150: bf0d 30be d999 ad3e 3d0c e5bd c941 acbe
00000160: 6f3c 76be 39bd ee3a 7e03 7e3e 5117 973e
00000170: b00b a9bd 7633 12bd 4fd7 b1bc 9f51 e53c
00000180: 44e2 343e 9c71 ba3d f5e6 b53c 510b 6a3e
00000190: 5696 563e 8d07 56be bb09 36bd b2b3 753d
000001a0: 968c 6f3d 0352 663e 4a3e bd3d 60c8 693e
000001b0: fe97 ed3b 6ca9 733e 4d35 af3d 3c57 f2bd
000001c0: 97de 80bd 13d0 d8bc ed3e 4d3d 06ab 763d
000001d0: bace 04be 6aea b33d 5aeb c0be 3807 313d
000001e0: 0a42 8c3d c101 f63d f64b a1bd 8b97 32be
000001f0: 3b9f 0b3e 8dc2 373e 9d9b 4ebe 488f a9be
00000200: c45d 65be 8ba0 453e b44b 7e3e c9cb 053e
00000210: f8ca 603e d0df 5f3e 90a7 e0bd 42e9 883e
00000220: 0b15 4cbc b5d8 fb3d b648 08bd a338 223e
00000230: 6abc 903e 3840 84bc 73ba de3d a3d3 b83c
00000240: ed71 683d 73ad 66bc 6b53 493e e412 9dbe
00000250: b9e3 6b3d 5131 36be 4200 e1bd 1573 77bd
00000260: 519e 6e3e 293d 823d 5ca6 6c3e 8d32 833d
00000270: 34c8 59be eb27 8e3e 7e00 893e de2b 623e
00000280: ae33 983e 0515 4bbe 40b5 a23e 8772 10bd
00000290: a0b5 873d 8c81 653c 093b 8a3e c296 b13a
000002a0: ab94 653e e22d dabd 18a9 3a3e b74b c6bd
000002b0: c123 66be 4e42 673d 2eb4 5e3d 5151 633d
000002c0: 7a96 6fbe 7d0b 03be 83af c4bd 5bcf b1bc
000002d0: e4e3 813d e6ca ed3d 02e6 053d 5e03 7c3e
000002e0: 70f9 39be 2ad1 bf3e a728 59be 6158 6bbe
000002f0: d3ff 1dbe 613c bfbc 81b7 b53c df03 873e
00000300: 479a 58be 81e8 eebd a144 003e 3716 c33d
00000310: cab9 8fbe fde2 26be 84cb 423e 9aeb 613e
00000320: 0bb6 24bd 6cc6 873e 82ab b73d 807e a93c
00000330: a3a3 85be b9a8 e83b 8939 89be 63e3 9dbe
00000340: abb8 c6ba 01fb ac3c 6158 89be 2930 eb3d
00000350: 9128 993e d145 253e 85d9 543d 9f04 723d
00000360: 213a 81bd 7da1 09be 6493 81bd cc69 533e
00000370: a46e 753e 47d3 71be 780a 363e 74f2 473e
00000380: eb5b 753e a270 91bc a018 a3bc 7c81 d93c
00000390: 9d7f d9bd 17ff 1cbd 39af 7f3c f6ec 1b3e
000003a0: a473 123d 3865 15be 3abb 9f3e 006d 05be
000003b0: 95e7 9fbd ea90 9bbd d4b5 3d3e fc8d 73be
000003c0: 08b9 76be 7856 e63c 537f bd3b 8e96 52be
000003d0: 9460 abbd 1cea e8bd ba36 803e 7721 a3be
000003e0: 1a48 b3bd b62f 883d 5110 55be d51b f7bd
000003f0: 6856 6cbd db65 d73d 598c 34be 167c 83be

shared.0.bias f4 [128]
-0.38908225 -0.14685696 0.47553506 -0.08375037 -0.09238551 -0.24488783 0.25377116 -0.114341795
0.20815991 0.19666234 0.07891475 0.47772157 0.014278769 -0.23241296 0.019329121 -0.08300126
-0.060329087 0.17271774 -0.29929006 0.1966882 0.08565448 0.3808055 0.28762847 -0.070852056
0.20563851 -0.045520887 -0.18215658 -0.23227397 -0.25518617 0.18977758 -0.079488896 -0.12989835
-0.21024102 -0.15209468 0.27790737 0.17864887 0.42498866 -0.15480319 0.3683372 -0.02273915
-0.15956041 -0.12461502 0.4181195 0.0818042 0.22689566 -0.28950348 0.1219045 -0.1313995
-0.10015668 0.06984997 0.11257267 -0.17665863 0.20775725 -0.22077066 -0.2933797 0.03205558
0.06437301 0.19735068 0.41317183 0.03536019 0.3247747 -0.049456973 0.19949178 0.4286581
-0.073454104 -0.027613357 0.24659865 -0.24199644 -0.10847777 0.2473305 0.11895949 0.034229323
0.16584107 -0.29154992 -0.2106192 -0.073834695 -0.10583591 -0.18314059 0.33731237 -0.31001848
-0.2131619 0.3772342 0.11628169 0.26906267 0.09233177 0.021862388 -0.09009488 0.35109314
-0.10234282 -0.117692426 -0.2275472 -0.16210382 0.11093216 0.3822756 -0.20448288 -0.05262478
-0.33466813 -0.30895668 -0.30619168 -0.048592962 -0.10464806 -0.06646787 0.4160494 -0.2973082
-0.19836994 0.11478955 -0.3332521 0.17687789 0.43325302 0.07991983 0.1689864 0.008033763
0.40732422 -0.26248184 0.18117923 0.17275567 -0.12366695 -0.3377651 -0.1396994 0.13030733
-0.064689785 0.25069538 0.05122824 -0.0045425515 0.28407368 -0.1299542 -0.11666465 0.05992914
00000000: ca35 c7be ac61 16be 5579 f33e 5085 abbd
00000010: 9d34 bdbd e0c3 7abe 4bee 813e 082c eabd
00000020: df27 553e da61 493e 0e9e a13d ec97 f43e
00000030: 7ff1 693c aafd 6dbe 1b58 9e3c 91fc a9bd
00000040: a21b 77bd ebdc 303e 8c3c 99be a268 493e
00000050: 9e6b af3d f0f8 c23e 0a44 933e e21a 91bd
00000060: e792 523e 1c74 3abd 4187 3abe 3ad9 6dbe
00000070: c3a7 82be 0e55 423e 13cb a2bd 1304 05be
00000080: 6c49 57be b5be 1bbe e049 8e3e bbef 363e
00000090: 1d98 d93e ba84 1ebe b296 bc3e 7447 babc
000000a0: ce63 23be 2936 ffbd c213 d63e f688 a73d
000000b0: 5657 683e cd39 94be 11a9 f93d 978d 06be
000000c0: f21e cdbd 800d 8f3d 808c e63d 00e6 34be
000000d0: 51be 543e b411 62be dd35 96be b64c 033d
000000e0: ffd5 833d 4c16 4a3e 428b d33e d9d5 103d
000000f0: df48 a63e 6593 4abd 9347 4c3e 1379 db3e
00000100: 1b6f 96bd 6835 e2bc 5b84 7c3e eacd 77be
00000110: 9829 debd 3544 7d3e 08a1 f33d 0c34 0c3d
00000120: 3ed2 293e 0846 95be 8fac 57be a536 97bd
00000130: 7fc0 d8bd 3589 3bbe 35b4 ac3e beba 9ebe
00000140: 1d47 5abe d724 c13e 1825 ee3d 95c2 893e
00000150: 7018 bd3d c018 b33c aa83 b8bd 7bc2 b33e
00000160: 1d99 d1bd ba08 f1bd 2202 69be 8bfe 25be
00000170: 6630 e33d a1b9 c33e f663 51be 158d 57bd
00000180: 9f59 abbe 922f 9ebe 28c5 9cbe 6a09 47bd
00000190: b951 d6bd 4e20 88bd 6d04 d53e c838 98be
000001a0: 7d21 4bbe c916 eb3d 05a0 aabe 7a1f 353e
000001b0: 57d3 dd3e 02ad a33d c50a 2d3e 0ba0 033c
000001c0: cd8c d03e 0564 86be 0c87 393e dde6 303e
000001d0: 1945 fdbd 8cef acbe 5c0d 0fbe 496f 053e
000001e0: 147c 84bd 255b 803e b4d4 513d afd9 94bb
000001f0: 1b72 913e b712 05be e0ed eebd 4278 753d

actor.0.weight f4 [128, 128]
-0.046501886 -0.014920262 -0.013966653 -0.04167235 -0.060044046 0.04322728 -0.05803444 0.064605564
0.04856127 0.046303097 -0.0076687206 -0.06888669 0.08343102 -0.08035716 0.077896714 0.016379394
0.052346494 0.07245522 0.0718135 0.076833725 0.0650173 0.05330568 0.016389884 -0.027083
0.035260137 0.043157477 0.091024265 -0.050787278 -0.041649718 -0.055644955 0.046884906 0.028539501
0.0073709334 -0.01631504 0.044779345 0.07555417 -0.014576211 0.08731716 -0.06790834 -0.08499308
-0.049367297 -0.08042263 -0.00066764816 0.0660728 0.029554142 -0.03279617 -0.025132624 0.004090251
-0.0147847235 -0.030168401 0.06045068 0.037932858 0.035455458 -0.07959205 -0.029029436 0.051475525
0.03791369 0.051979367 -0.07960292 -0.054771718 0.05570717 0.01269623 -0.04448427 -0.08312872
-0.04499368 0.08582353 0.048390277 0.0007597853 0.014015018 0.035918284 -0.06513414 0.06895288
0.051794425 0.010629375 0.05140271 -0.00512954 -0.024202967 0.009391124 -0.09387085 0.085913286
0.036563084 -0.050048828 -0.054107748 -0.07724839 -0.012352669 0.06914992 0.043380354 0.048356347
0.09173361 -0.069155484 0.016479973 0.052918106 -0.0019455515 -0.05549079 -0.079448745 0.0481689
-0.07772795 -0.058391687 0.03273114 0.036212523 0.027771246 0.0036136934 0.08395172 -0.05579088
-0.011753088 0.04516503 -0.0031820508 0.03841887 0.06191805 -0.025459953 -0.011846959 0.077518456
-0.009352269 0.072695665 -0.056004718 0.060674783 -0.06892432 0.06533643 0.09459854 -0.029248426
0.06954605 0.045101676 -0.006361329 0.10120962 -0.028558662 -0.0010553123 -0.038911395 0.06571663
0.020503022 0.023089498 0.004718676 0.04731489 -0.043062877 -0.0011405498 -0.059981275 -0.06194968
0.032483786 -0.04420274 -0.06760989 -0.020759828 0.012694001 -0.0045508817 -0.050143495 -0.06656995
-0.07361613 0.07337167 0.017960317 -0.03171765 -0.041755557 0.020904489 -0.047291175 0.01335679
-0.0536614 0.085886635 0.020726576 -0.051956475 0.035800584 -0.023509026 0.014612637 0.017446369
-0.030383725 0.0056313425 -0.024363272 0.05085229 -0.05185606 -0.003552854 -0.017701536 -0.033896644
0.0013939142 0.069308825 0.045177422 -0.008927174 -0.032238744 -0.000120677054 -0.06588788 -0.04181747
-0.08372021 -0.043037083 -0.008189872 0.06482508 0.0027360395 0.05186484 0.0012701675 0.006628953
-0.0063656047 0.026039913 0.023236178 0.04483152 0.022831306 0.06604885 -0.007434778 0.023488142
0.02877494 0.0018082336 0.049293272 -0.029524889 0.010522731 0.0032428503 -0.07847613 -0.067033276
-0.0172 0.043052994 -0.021734558 0.048654906 -0.051254645 -0.08459508 -0.032185778 -0.051287066
-0.01930102 -0.036376692 -0.029347736 -0.071874686 -0.07397733 -0.0029301941 -0.07294965 0.025019035
-0.056463163 -0.00638707 0.06833217 -0.031191364 0.0022722706 0.07069204 0.029863246 -0.019521654
-0.06220997 0.081474625 -0.029040936 0.035450757 -0.044202045 0.005611293 0.037677117 0.01386898
-0.03807129 0.057810046 -0.06978945 -0.014725484 -0.006513424 -0.076876566 0.06629308 -0.060000286
0.06357538 -0.008607924 0.018344939 -0.06651872 0.0396251 -0.08614442 -0.01459261 -0.05027221
0.027230203 -0.0764137 0.0785295 -0.05538766 -0.063703835 -0.036725458 -0.009496167 0.042637922
00000000: c378 3ebd 1d74 74bc 63d4 64bc a0b0 2abd
00000010: bff0 75bd 170f 313d 85b5 6dbd ec4f 843d
00000020: 2fe8 463d 51a8 3d3d e449 fbbb 7714 8dbd
00000030: e2dd aa3d 4b92 a4bd 5088 9f3d 142e 863c
00000040: 4769 563d 6763 943d f512 933d 005b 9d3d
00000050: ca27 853d 0f57 5a3d 1444 863c 2bdd ddbc
00000060: ef6c 103d e5c5 303d ee6a ba3d 5206 50bd
00000070: e598 2abd f7eb 63bd 630a 403d accb e93c
00000080: df87 f13b 1ea7 85bc 8c6a 373d 25bc 9a3d
00000090: 0fd1 6ebc 57d3 b23d 8713 8bbd da10 aebd
000000a0: 5d35 4abd 9fb4 a4bd 1c05 2fba 2d51 873d
000000b0: 871b f23c 4755 06bd efe2 cdbc 8307 863b
000000c0: a03b 72bc b923 f7bc 229b 773d 7c5f 1b3d
000000d0: be39 113d 2801 a3bd 24cf edbc 00d8 523d
000000e0: 634b 1b3d 51e8 543d db06 a3bd 4f58 60bd
000000f0: 342d 643d d903 503c 2335 36bd 643f aabd
00000100: 4b4b 38bd 3fc4 af3d e234 463d 542c 473a
00000110: 3f9f 653c 0d1f 133d 0c65 85bd 2b37 8d3d
00000120: 6426 543d d526 2e3c a68b 523d b315 a8bb
00000130: 4d45 c6bc 3bdd 193c 5c3f c0bd 4ef3 af3d
00000140: 2cc3 153d 0000 4dbd 16a0 5dbd 6734 9ebd
00000150: d962 4abc 799e 8d3d 99af 313d 4e11 463d
00000160: d5de bb3d 64a1 8dbd 0201 873c a8c0 583d
00000170: e001 ffba 504a 63bd 06b6 a2bd c14c 453d
00000180: d52f 9fbd 1f2c 6fbd 1611 063d 9553 143d
00000190: 8680 e33c b7d3 6c3b e1ee ab3d fa84 64bd
000001a0: 0690 40bc f7fe 383d f489 50bb 1b5d 1d3d
000001b0: c89d 7d3d 6491 d0bc bf19 42bc ffc1 9e3d
000001c0: 423a 19bc 77e1 943d 3465 65bd 1f86 783d
000001d0: 3228 8dbd 1bcf 853d e1bc c13d 659a efbc
000001e0: 296e 8e3d 89bc 383d b272 d0bb fd46 cf3d
000001f0: dbf3 e9bc 6852 8aba 8e61 1fbd 7196 863d
00000200: f4f5 a73c 3026 bd3c 209f 9a3b 42cd 413d
00000210: b362 30bd 807e 95ba edae 75bd f3be 7dbd
00000220: b80d 053d ef0d 35bd 0e77 8abd 8410 aabc
00000230: 80fa 4f3c 901f 95bb 4463 4dbd d355 88bd
00000240: 0ec4 96bd e343 963d 8421 933c 5eea 01bd
00000250: e007 2bbd e43f ab3c 64b4 41bd 70d6 5a3c
00000260: 0ecc 5bbd 55e5 af3d c8ca a93c 50d0 54bd
00000270: a2a3 123d 0096 c0bc d869 6f3c b0eb 8e3c
00000280: 4ae7 f8bc 2087 b83b 7c95 c7bc 7e4a 503d
00000290: 0567 54bd 00d7 68bb d002 91bc 35d7 0abd
000002a0: 00b4 b63a c9f1 8d3d f60b 393d 4843 12bc
000002b0: c60c 04bd 0014 fdb8 3af0 86bd cc48 2bbd
000002c0: 8075 abbd a747 30bd d02e 06bc 03c3 843d
000002d0: 204f 333b 3a70 543d c07b a63a b037 d93b
000002e0: 9096 d0bb a851 d53c cc59 be3c 42a1 373d
000002f0: b808 bb3c 9f44 873d 709f f3bb 346a c03c
00000300: 6cb9 eb3c 4002 ed3a bee7 493d 2ede f1bc
00000310: 8867 2c3c 0086 543b 18b8 a0bd be48 89bd
00000320: 04e7 8cbc 5658 303d ac0c b2bc 5e4a 473d
00000330: 64f0 51bd 2f40 adbd 3cd5 03bd 6312 52bd
00000340: 2c1d 9ebc baff 14bd aa6a f0bc 0933 93bd
00000350: 6d81 97bd 8008 40bb a066 95bd b8f4 cc3c
00000360: eb45 67bd a04a d1bb bdf1 8b3d 0885 ffbc
00000370: 60ea 143b fdc6 903d c4a3 f43c e0eb 9fbc
00000380: e2cf 7ebd 2bdc a63d 42e7 edbc d034 113d
00000390: 340d 35bd f0de b73b 5253 1a3d b83a 633c
000003a0: a4f0 1bbd 3aca 6c3d c5ed 8ebd 2843 71bc
000003b0: 906e d5bb 7671 9dbd abc4 873d dcc2 75bd
000003c0: cf33 823d 4008 0dbc 2048 963c f73a 88bd
000003d0: ee4d 223d 7c6c b0bd d815 6fbc 3cea 4dbd
000003e0: e011 df3c c97e 9cbd 13d4 a03d 2cde 62bd
000003f0: 2877 82bd 6f6d 16bd d095 1bbc 1aa5 2e3d

actor.0.bias f4 [128]
-0.06433949 0.068553545 0.074101895 0.064811 -0.023728717 0.065823615 0.010253276 -0.042261947
-0.028109133 0.010255059 0.04264757 0.031552684 0.059490737 0.03529268 -0.0038312087 0.080034465
-0.08007951 -0.02236453 0.00914966 -0.06981517 -0.035423096 0.039745875 -0.028927447 0.015614249
-0.089480124 -0.053496066 0.065609 -0.036219094 0.05466601 0.06824619 -0.07628646 -0.014721595
0.0053627645 -0.023972394 -0.06554413 0.01893578 -0.07397854 -0.017194936 -0.053502243 0.009956312
-0.08502735 -0.06831242 -0.048178747 0.06597927 0.08412807 0.04814557 0.029547626 -0.026438475
-0.03934264 0.048909046 0.04793592 -0.0021586486 -0.025179684 -0.062409922 0.026386948 0.046592813
0.052483827 0.096293874 0.0557432 0.0647805 -0.021717513 0.009864344 0.06558454 -0.034626223
0.054273654 0.049726423 0.0953405 0.05473178 0.019321365 -0.047013216 -0.035780046 0.034094203
-0.020999629 0.093860455 -0.03756454 -0.011572049 -0.049522776 0.002841316 0.007886501 0.016705882
0.041025236 -0.098263666 -0.039360646 0.0479948 0.014917351 -0.017724954 0.013362187 -0.02267542
-0.053458396 0.08001586 -0.08020605 -0.0053579896 0.034256037 -0.081155054 0.06128206 0.0039543053
-0.0029242719 -0.010870038 0.020160956 0.098968916 -0.023511924 -0.048924837 0.062876746 0.04290823
0.019512203 0.044708293 0.045243982 -0.019578721 -0.012302373 0.07971481 0.054158546 -0.023559717
0.098228894 0.022211168 0.03204627 -0.01696536 0.0017189394 0.006440232 0.070992865 0.0026833517
0.06607149 -0.0046014534 0.051047496 0.052119903 -0.054698 -0.00033112417 0.045010027 0.028950162
00000000: 6cc4 83bd cd65 8c3d bcc2 973d a1bb 843d
00000010: ba62 c2bc 88ce 863d 5bfd 273c dd1a 2dbd
00000020: 2045 e6bc d604 283c 38af 2e3d 633d 013d
00000030: 8fac 733d 0f8f 103d 0415 7bbb 1ce9 a33d
00000040: ba00 a4bd d235 b7bc 75e8 153c 41fb 8ebd
00000050: cf17 11bd 92cc 223d 41f9 ecbc e8d2 7f3c
00000060: 5b41 b7bd b11e 5bbd 035e 863d 795a 14bd
00000070: 77e9 5f3d a9c4 8b3d 133c 9cbd d832 71bc
00000080: 21ba af3b c161 c4bc 003c 86bd 351f 9b3c
00000090: 1082 97bd 65dc 8cbc 2b25 5bbd cd1f 233c
000000a0: d222 aebd 62e7 8bbd 1457 45bd 2420 873d
000000b0: 564b ac3d 4a34 453d dd0d f23c 8095 d8bc
000000c0: c025 21bd da54 483d 7558 443d 1d78 0dbb
000000d0: a045 cebc 8ca1 7fbd 7129 d83c 1bd8 3e3d
000000e0: 48f9 563d b935 c53d fb52 643d a4ab 843d
000000f0: ede8 b1bc 0f9e 213c 3051 863d 3ad4 0dbd
00000100: 0d4e 5e3d efad 4b3d e141 c33d 6e2e 603d
00000110: d747 9e3c ee90 40bd 198e 12bd 5da6 0b3d
00000120: 6a07 acbc e939 c03d 46dd 19bd b198 3dbc
00000130: 65d8 4abd 5f35 3a3b 6236 013c c6da 883c
00000140: 140a 283d 763e c9bd a138 21bd 3296 443d
00000150: e867 743c ec33 91bc 13ed 5a3c cdc1 b9bc
00000160: 31f7 5abd 5bdf a33d 1243 a4bd 1392 afbb
00000170: 0f50 0c3d 9f34 a6bd e602 7b3d 1e93 813b
00000180: 24a5 3fbb 3e18 32bc 9728 a53c 37b0 ca3d
00000190: 149c c0bc 6965 48bd 86c5 803d 8ac0 2f3d
000001a0: 0ed8 9f3c 0b20 373d c151 393d 8e63 a0bc
000001b0: e48f 49bc 8541 a33d 5ad5 5d3d 4f00 c1bc
000001c0: 3b2c c93d 32f4 b53c f342 033d f0fa 8abc
000001d0: 094e e13a 9508 d33b b564 913d 2cdb 2f3b
000001e0: 7d50 873d cac7 96bb 2e17 513d ae7b 553d
000001f0: 030b 60bd bc9a adb9 6f5c 383d e428 ed3c

actor.2.weight f4 [5, 128]
-0.087870955 -0.071090356 -0.09987689 0.009738511 -0.037776418 -0.0031609742 0.03276146 0.041611206
-0.032847036 0.016054012 0.04653009 -0.0016448402 -0.022224156 -0.08022325 -0.018289711 -0.08303841
0.058630284 -0.029618338 -0.035324823 0.047081232 0.07220943 -0.0050539603 -0.025479196 -0.06413847
0.07479837 0.0500068 0.027633622 -0.07896797 0.04775512 0.0269761 -0.07542247 -0.043333773
0.02954528 -0.018827729 0.034304157 -0.049745824 -0.056357577 -0.082513936 -0.019378997 -0.06349659
-0.083965614 0.04127106 0.061092727 0.0029941194 -0.10144327 -0.051950008 -0.028258184 0.06551089
0.03083075 -0.07849396 -0.044417843 -0.12109248 -0.06414083 0.04333401 -0.012034771 -0.04778921
0.020191945 -0.110571265 0.040121 0.010093223 -0.09940181 0.052412823 -0.05263554 0.047409866
0.014498081 -0.025567744 -0.09821967 -0.044871397 0.019310763 -0.01869621 -0.09833914 -0.066740006
-0.06352734 -0.005877534 -0.09073943 0.0582202 -0.044073597 -0.08828006 -0.012890898 0.013411674
-0.0056034154 0.017893193 -0.005742241 -0.104083024 -0.032071296 0.063514605 -0.024129786 -0.11356045
-0.07533714 0.027131163 -0.049274866 -0.032552123 -0.07301476 0.035438355 0.035881676 -0.03467637
0.01860413 -0.023170555 0.03516291 -0.018721875 0.0457797 -0.04554287 0.052508775 -0.03598521
-0.05480585 -0.05741505 -0.10323267 0.07230474 0.02131894 -0.062454063 -0.020713784 0.0027497457
-0.00017173095 0.023946762 -0.08065324 -0.0031890576 -0.08198113 0.033830434 0.07537226 -0.08154012
-0.09763725 -0.012023231 0.014037363 0.071929954 -0.07972463 -0.014563926 -0.11990188 -0.11274363
-0.0009988878 -0.0859571 0.08684785 -0.0115321735 0.09847053 0.07399668 0.055593394 -0.030578291
0.10320795 -0.053790174 -0.004957093 -0.06271648 0.073808774 0.06468272 -0.038027026 0.036695797
-0.044287726 -0.04899892 0.059736222 0.070002116 -0.042922176 -0.039662812 -0.015659776 -0.068133004
-0.082593985 -0.034782644 0.002465777 0.026240109 -0.089857 0.015902368 -0.0044749584 0.016258169
-0.04643407 0.07966299 0.019201418 0.006642019 -0.012871916 -0.09246783 -0.016004205 -0.057090446
0.07613513 0.061355595 0.076935865 -0.012072073 0.043134686 -0.0813823 0.050833516 -0.03721218
0.088084094 0.03396493 0.07292039 -0.004998315 0.004320625 0.011671568 -0.06804733 0.04345467
-0.00084750826 -0.0457345 0.030725863 -0.060569208 0.032030065 0.018905709 0.08874599 0.060857948
0.044005275 -0.066872925 0.00014877068 -0.036640532 -0.037195824 -0.019948486 0.060616612 -0.0008861989
-0.017649673 0.0095792385 0.061032254 -0.0014696834 -0.050001252 -0.0029981774 0.07704161 -0.08603248
0.025438188 0.051988564 0.007487475 0.09446532 -0.0788401 0.0056539145 -0.055527337 -0.036555406
0.01909351 0.022781787 -0.008088691 -0.00941887 -0.071712084 0.044486746 -0.011786198 -0.07350221
0.06414597 0.0072335163 0.0629227 0.07966745 0.09552466 0.052579317 -0.085886665 -0.004421855
-0.085509874 0.008322938 0.0471244 -0.06704084 0.02874717 0.025230598 0.0007882416 0.02186826
-0.022444597 0.07296499 0.025098555 0.042014368 0.04998834 -0.08495613 -0.07881464 0.043991935
-0.028587205 0.051849853 -0.039986692 -0.040250696 -0.026942488 -0.024148772 0.079131246 -0.05217407
00000000: b0f5 b3bd d297 91bd 418c ccbd 478e 1f3c
00000010: 72bb 1abd 5928 4fbb e130 063d 8370 2a3d
00000020: 9d8a 06bd b483 833c 5696 3e3d ae97 d7ba
00000030: 6f0f b6bc 164c a4bd 4ed4 95bc 0b10 aabd
00000040: 4f26 703d 28a2 f2bc c3b0 10bd 40d8 403d
00000050: 8ae2 933d b19b a5bb bfb9 d0bc 085b 83bd
00000060: e32f 993d eed3 4c3d e85f e23c f6b9 a1bd
00000070: df9a 433d fbfc dc3c 1977 9abd c17e 31bd
00000080: f108 f23c 9c3c 9abc 8482 0c3d 47c2 4bbd
00000090: 34d7 66bd 11fd a8bd b4c0 9ebc 800a 82bd
000000a0: 2af6 abbd d80b 293d 5e3c 7a3d fd38 443b
000000b0: 7dc1 cfbd 88c9 54bd b57d e7bc 932a 863d
000000c0: c590 fc3c 71c1 a0bd 7cef 35bd 56ff f7bd
000000d0: 445c 83bd 017f 313d 7d2d 45bc 9ebe 43bd
000000e0: 9469 a53c 3073 e2bd eb55 243d 0c5e 253c
000000f0: 2d93 cbbd d4ae 563d 5d98 57bd d930 423d
00000100: 5c89 6d3c 7273 d1bc 6527 c9bd 12cb 37bd
00000110: 9b31 9e3c cb28 99bc 0866 c9bd fcae 88bd
00000120: 9f1a 82bd 5498 c0bb 98d5 b9bd 4e78 6e3d
00000130: 8486 34bd 2dcc b4bd 5834 53bc a3bc 5b3c
00000140: db9c b7bb bf94 923c 6929 bcbb 7b29 d5bd
00000150: 315d 03bd f213 823d d4ab c5bc 6292 e8bd
00000160: 5c4a 9abd 2c42 de3c 71d4 49bd 6055 05bd
00000170: c388 95bd cf27 113d aaf8 123d cf08 0ebd
00000180: b067 983c 2dd0 bdbc fc06 103d 9e5e 99bc
00000190: 7f83 3b3d 298b 3abd 7113 573d 3a65 13bd
000001a0: 197c 60bd 0b2c 6bbd a66b d3bd 8214 943d
000001b0: 0fa5 ae3c d5cf 7fbd f4af a9bc 1435 343b
000001c0: ad12 34b9 002c c43c 872d a5bd 82ff 50bb
000001d0: b9e5 a7bd c891 0a3d c55c 9a3d 82fe a6bd
000001e0: 0af6 c7bd 16fd 44bc f8fc 653c 0350 933d
000001f0: ab46 a3bd 889d 6ebc 1e8f f5bd 22e6 e6bd
00000200: 1ded 82ba 470a b0bd 49dd b13d 71f1 3cbc
00000210: ebaa c93d 928b 973d e6b5 633d 537f fabc
00000220: b15e d33d 1653 5cbd 1c6f a2bb 7f71 80bd
00000230: 0e29 973d 6078 843d 3ac2 1bbd 554e 163d
00000240: 0c67 35bd 17b3 48bd f8ad 743d 455d 8f3d
00000250: 2acf 2fbd 7975 22bd ee48 80bc 5189 8bbd
00000260: 0927 a9bd 3f78 0ebd e098 213b 7ff5 d63c
00000270: f206 b8bd af45 823c aca2 92bb da2f 853c
00000280: a731 3ebd 5a26 a33d 4b4c 9d3c 4ba5 d93b
00000290: bbe4 52bc c65f bdbd 401b 83bc acd7 69bd
000002a0: bcec 9b3d 0150 7b3d 8d90 9d3d f2c9 45bc
000002b0: ffad 303d c3ab a6bd ce36 503d cd6b 18bd
000002c0: 6f65 b43d cf1e 0b3d 4957 953d e8c8 a3bb
000002d0: 0894 8d3b 1b3a 3f3c 665c 8bbd 86fd 313d
000002e0: 512b 5eba 1954 3bbd ceb4 fb3c 6b17 78bd
000002f0: f531 033d 25e0 9a3c 75c0 b53d 2f46 793d
00000300: e03e 343d acf4 88bd 53ff 1b39 6214 16bd
00000310: a65a 18bd 026b a3bc 2049 783d cd4f 68ba
00000320: 0c96 90bc 3df2 1c3c f5fc 793d 64a2 c0ba
00000330: 1dce 4cbd 127d 44bb fec7 9d3d cc31 b0bd
00000340: bf63 d03c f6f1 543d 7e59 f53b 0977 c13d
00000350: eb76 a1bd 7944 b93b a270 63bd 1fbb 15bd
00000360: fe69 9c3c dfa0 ba3c 6e86 04bc 9b51 1abc
00000370: c9dd 92bd bc37 363d e61a 41bc 5488 96bd
00000380: f65e 833d 2207 ed3b 9edd 803d b028 a33d
00000390: 6fa2 c33d 695d 573d 59e5 afbd 35e5 90bb
000003a0: cd1f afbd ef5c 083c 8405 413d b54c 89bd
000003b0: 2f7f eb3c 66b0 ce3c 00a2 4e3a 1125 b33c
000003c0: bbdd b7bc ab6e 953d 7c9b cd3c 4217 2c3d
000003d0: 93c0 4c3d 7bfd adbd 9269 a1bd e330 343d
000003e0: b72f eabc 8360 543d 16c9 23bd eadd 24bd
000003f0: 7eb6 dcbc a5d3 c5bc 900f a23d 7ab4 55bd

actor.2.bias f4 [5]
-0.10315204 0.08106772 -0.0025876167 0.0043137604 0.025045909
00000000: 6041 d3bd d506 a63d 0195 29bb 725a 8d3b
00000010: 142d cd3c

critic.0.weight f4 [128, 128]
0.111341625 0.013753277 -0.09121083 -0.048456237 -0.010151142 0.010116374 -0.023484604 0.039231803
-0.08834674 0.050624393 0.022967687 0.011466917 0.030061819 0.0024592504 0.016269198 0.07696183
-0.056272637 -0.09884159 0.023181621 -0.03879577 0.06345767 -0.06928221 0.06558768 0.08185644
-0.117481984 0.0520503 0.06358819 -0.09408071 -0.052692905 -0.023681179 -0.041442417 0.013616319
0.02720887 0.047003776 0.02159258 -0.0141565325 0.011033682 -0.038207736 0.016578872 -0.09520546
-0.029114112 -0.07702451 0.035061106 -0.07074202 -0.014075103 0.10803384 0.0005353718 -0.007982591
-0.06861402 0.107670605 -0.008558362 0.016900878 0.037557732 0.09555763 -0.092942104 0.027654389
0.053927284 -0.07891869 0.07040599 0.05181663 0.06352939 -0.026004655 -0.011360638 -0.083655216
-0.1017769 0.046133284 -0.040454242 0.046556562 0.14634995 -0.03109641 -0.03678125 0.0015256505
-0.02330665 -0.018449623 -0.057202164 -0.07867443 0.036734767 -0.07819475 0.06291787 -0.02416075
-0.060323212 0.01772973 -0.008020293 -0.09216888 0.073619865 0.08278211 0.05423483 0.050822392
0.02465811 0.083001025 -0.06887495 0.00588801 0.04834764 -0.05294308 0.04555432 0.07481677
-0.030963859 0.10303591 0.020937726 -0.059919428 0.060294442 -0.067516916 -0.066787064 -0.058553677
-0.018051809 0.09053153 0.08019263 0.06779769 0.033319563 -0.024792008 0.0023773015 -0.0705288
-0.070614405 0.062703975 -0.030550707 0.05585122 -0.117150284 -0.019061605 0.07448619 -0.036477685
-0.0199359 -0.057370894 0.012484369 -0.052216366 -0.09229801 -0.031307403 -0.014695339 0.07635462
0.078463726 -0.054921377 0.02128382 0.06579118 -0.0868733 -0.08274 0.022010736 -0.05286128
0.017624207 -0.0604716 -0.054310955 -0.0009300858 0.08538047 -0.08109411 -0.017208539 -0.069685444
-0.0066949874 -0.038523093 0.014642596 -0.008794889 -0.0684938 0.044508792 0.04529666 -0.04423079
0.082303844 -0.08693169 -0.01271379 -0.06633562 -0.0009101182 -0.031540055 0.053058513 0.07297257
-0.039583962 0.046299107 -0.036589544 -0.042153075 -0.043096744 -0.060566347 -0.0050814375 -0.020549648
-0.076115444 0.04095217 -0.063502096 0.027587019 0.06442555 0.08538953 -0.052497018 -0.016105995
0.07379838 -0.046000503 -0.04162608 -0.019064747 -0.055733662 -0.051886648 0.063873015 -0.06766969
0.056640707 -0.008452825 0.04867921 0.0372188 -0.085218176 -0.047987167 -0.04429497 -0.037961107
-0.055813193 -0.066658124 0.079910986 0.011913933 0.026260361 -0.036096636 -0.043999773 -0.058377884
0.07277136 0.021959253 -0.049442016 -0.017479278 0.06389362 0.021084636 -0.054033514 -0.071025446
-0.0668691 0.08428984 0.027473696 0.07130473 0.065474786 -0.025929015 -0.025408514 -0.04849897
-0.005508296 -0.0645732 -0.02641422 -0.04325372 -0.03336476 -0.018519633 -0.04287972 0.06597354
-0.07768811 -0.07730369 -0.0031978488 -0.008563176 -0.034459822 0.007724896 -0.06367344 -0.032513585
0.02072569 -0.005285226 0.024439 -0.05781848 -0.01968705 -0.0875438 0.025888145 0.06967903
0.079486616 -0.04645252 -0.010110162 0.05768136 -0.028509837 -0.031856693 0.06440731 -0.028270766
-0.019911729 -0.06687124 -0.017149076 -0.05239102 0.06698053 0.043485187 0.009802744 0.03351158
00000000: 1407 e43d 6d55 613c becc babd 0c7a 46bd
00000010: fa50 26bc 26bf 253c c962 c0bc 87b1 203d
00000020: 23ef b4bd 865b 4f3d bb26 bc3c bcdf 3b3c
00000030: 3444 f63c 602b 213b fb46 853c 2a9e 9d3d
00000040: 237e 66bd 766d cabd 62e7 bd3c 50e8 1ebd
00000050: 18f6 813d d5e3 8dbd d552 863d 59a4 a73d
00000060: 659a f0bd b232 553d 863a 823d 63ad c0bd
00000070: 84d4 57bd 08ff c1bc 86bf 29bd fb16 5f3c
00000080: 23e5 de3c 0887 403d ece2 b03c cdf0 67bc
00000090: 9ec6 343c b77f 1cbd 6ad0 873c 15fb c2bd
000000a0: b880 eebc 07bf 9dbd 3c9c 0f3d 31e1 90bd
000000b0: 439b 66bc d940 dd3d 3158 0c3a 6ac9 02bc
000000c0: 8285 8cbd 6882 dc3d 5f38 0cbc b673 8a3c
000000d0: 23d6 193d b8b3 c33d 6e58 bebd 758b e23c
000000e0: dbe2 5c3d 1fa0 a1bd 0431 903d ad3d 543d
000000f0: b21b 823d b707 d5bc f821 3abc 6d53 abbd
00000100: 6870 d0bd 41f6 3c3d 59b3 25bd 18b2 3e3d
00000110: c3dc 153e e6bd febc f0a7 16bd 56f8 c73a
00000120: 96ed bebc aa23 97bc d14c 6abd 0f20 a1bd
00000130: 3277 163d 9224 a0bd 16db 803d c4ec c5bc
00000140: 7915 77bd f03d 913c 8c67 03bc 0ac3 bcbd
00000150: 03c6 963d ab89 a93d 5725 5e3d 242b 503d
00000160: ceff c93c 71fc a93d 4f0e 8dbd 35f0 c03b
00000170: 2d08 463d d8da 58bd 2b97 3a3d 8939 993d
00000180: eba7 fdbc 7e04 d33d 9885 ab3c 136e 75bd
00000190: 4ef7 763d 4f46 8abd a8c7 88bd fbd5 6fbd
000001a0: 63e1 93bc 9868 b93d 093c a43d 84d9 8a3d
000001b0: 187a 083d 9c18 cbbc 80cc 1b3b 6771 90bd
000001c0: 499e 90bd f16a 803d 7a45 fabc 40c4 643d
000001d0: 7dec efbd 1527 9cbc 378c 983d a069 15bd
000001e0: 9d50 a3bc befd 6abd 3d8b 4c3c d4e0 55bd
000001f0: bd06 bdbd 313c 00bd b8c4 70bc d05f 9c3d
00000200: 97b1 a03d 3df5 60bd 685b ae3c 87bd 863d
00000210: a1ea b1bd 9773 a9bd dc4f b43c 1285 58bd
00000220: a460 903c 12b1 77bd 2a75 5ebd 00d1 73ba
00000230: f5db ae3d ab14 a6bd ecf8 8cbc 3eb7 8ebd
00000240: a061 dbbb 64ca 1dbd 80e7 6f3c 7018 10bc
00000250: 7a46 8cbd da4e 363d fe88 393d 582b 35bd
00000260: eb8e a83d 3e09 b2bd 804d 50bc f8da 87bd
00000270: 0095 6eba 2530 01bd e253 593d a572 953d
00000280: cb22 22bd 22a4 3d3d ebde 15bd b4a8 2cbd
00000290: 3686 30bd 6b14 78bd 3082 a6bb bc57 a8bc
000002a0: 6ae2 9bbd 76bd 273d 630d 82bd 2cfe e13c
000002b0: 8bf1 833d b5e0 ae3d 1d07 57bd b8f0 83bc
000002c0: 9b23 973d 066b 3cbd 1c80 2abd ac2d 9cbc
000002d0: fb48 64bd 1887 54bd dbcf 823d 6896 8abd
000002e0: 1600 683d b87d 0abc da63 473d be72 183d
000002f0: de86 aebd 318e 44bd a46e 35bd 1b7d 1bbd
00000300: 609c 64bd 0e84 88bd 5fa8 a33d a832 433c
00000310: f81f d73c 11da 13bd 1b39 34bd a61d 6fbd
00000320: 2709 953d e4e3 b33c b683 4abd b430 8fbc
00000330: a9da 823d b0b9 ac3c 3f52 5dbd ca75 91bd
00000340: abf2 88bd 27a0 ac3d 8410 e13c 3708 923d
00000350: a517 863d 1669 d4bc 8425 d0bc dba6 46bd
00000360: f07e b4bb f43e 84bd a262 d8bc d02a 31bd
00000370: 7da9 08bd 7cb6 97bc a5a2 2fbd 231d 873d
00000380: f21a 9fbd 6651 9ebd 0093 51bb 904c 0cbc
00000390: be25 0dbd 2021 fd3b 3867 82bd f72c 05bd
000003a0: ecc8 a93c b02f adbb 4c34 c83c 12d3 6cbd
000003b0: bc46 a1bc 2a4a b3bd 6013 d43c e1b3 8e3d
000003c0: e1c9 a23d ff44 3ebd 18a5 25bc 4a43 6c3d
000003d0: 768d e9bc 2a7c 02bd fbe7 833d 1898 e7bc
000003e0: ec1d a3bc caf3 88bd 387c 8cbc f797 56bd
000003f0: 172d 893d 861d 323d b09b 203c 7043 093d

critic.0.bias f4 [128]
-0.07513291 0.032320723 0.13310523 0.060723145 -0.08379368 -0.019260399 0.0635318 0.1453199
0.10936947 -0.03622572 -0.073699154 0.082930245 0.05367591 0.14366804 0.05934609 0.119553275
0.07986638 -0.07722399 0.061721954 -0.028480934 0.03417842 0.16596706 0.017976023 0.06097101
-0.085928865 0.053961813 -0.041269403 -0.02101597 -0.060703278 0.06402877 -0.06564068 0.12371068
0.13916361 -0.15865953 0.09836334 0.017799184 0.039303467 -0.13866095 0.037773076 -0.09112099
-0.037168913 -0.050846033 0.15725271 0.061901443 0.068974815 -0.018387113 -0.06451782 -0.1229035
-0.05194093 0.08032977 -0.055488013 0.1443562 -0.10879717 -0.05020098 -0.033767857 0.11027474
-0.032405566 0.040106878 0.025367372 -0.063253336 -0.025977196 -0.020920217 0.09197162 -0.10556206
-0.09331454 -0.033424422 0.07468321 0.17202844 0.14091094 0.0263238 0.056576323 0.13151644
0.025013465 0.16780113 0.014947386 -0.063694604 0.0683215 0.13115345 -0.05230284 0.06459836
0.008267428 -0.06363376 0.06694509 0.114540756 -0.0016888687 0.0637958 0.00020349126 0.15738824
0.0707518 0.09656681 0.04589641 0.13979332 0.13173634 -0.03041424 0.04536903 0.062475733
-0.033171542 0.17022187 0.027377263 0.12120813 0.051771995 0.10102858 0.14634876 0.044065505
0.052300554 0.0562052 0.19691315 0.010517344 -0.16720553 0.11636152 -0.07323962 -0.0018144734
-0.17544022 0.020537645 -0.13131107 -0.19608472 0.016099293 0.11130441 0.14331597 0.06130863
-0.075202174 0.17634678 0.12262378 -0.1471437 -0.028898155 0.058121115 -0.034057733 0.1705087
00000000: 48df 99bd bc62 043d bd4c 083e d5b8 783d
00000010: 059c abbd fcc7 9dbc f61c 823d bdce 143e
00000020: 1afd df3d 6c61 14bd 95ef 96bd 55d7 a93d
00000030: 45db 5b3d b71d 133e e314 733d 59d8 f43d
00000040: fc90 a33d 9c27 9ebd 29d0 7c3d d950 e9bc
00000050: acfe 0b3d 45f3 293e 7442 933c bdbc 793d
00000060: 79fb afbd 1007 5d3d 1b0a 29bd af29 acbc
00000070: 00a4 78bd 8421 833d 9f6e 86bd 065c fd3d
00000080: e880 0e3e a577 22be b872 c93d 98cf 913c
00000090: acfc 203d 23fd 0dbe f1b7 1a3d a49d babd
000000a0: 6e3e 18bd ee43 50bd db06 213e 5e8c 7d3d
000000b0: ab42 8d3d 92a0 96bc eb21 84bd d5b4 fbbd
000000c0: 03c0 54bd ef83 a43d 6647 63bd 1dd2 133e
000000d0: 0dd1 debd 8b9f 4dbd 2a50 0abd b9d7 e13d
000000e0: b3bb 04bd 1c47 243d 3ccf cf3c f78a 81bd
000000f0: 21ce d4bc e060 abbc 9e5b bc3d ec30 d8bd
00000100: b21b bfbd 0ce8 08bd 83f3 983d 3928 303e
00000110: f54a 103e 03a5 d73c 93bc 673d 3fac 063e
00000120: 0ae9 cc3c 0fd4 2b3e e2e5 743c 5172 82bd
00000130: 25ec 8b3d 174d 063e 813b 56bd 254c 843d
00000140: 1b74 073c 6b52 82bd 821a 893d 5894 ea3d
00000150: 085d ddba 5fa7 823d 4560 5539 622a 213e
00000160: 52e6 903d d2c4 c53d e0fd 3b3d fb25 0f3e
00000170: e4e5 063e 4927 f9bc e0d4 393d 8ee6 7f3d
00000180: e2de 07bd a44e 2e3e 4846 e03c f83b f83d
00000190: df0e 543d 12e8 ce3d 73dc 153e 087e 343d
000001a0: 1b39 563d 6c37 663d 9aa3 493e f050 2c3c
000001b0: ed37 2bbe f34e ee3d a7fe 95bd a0d3 edba
000001c0: 9aa6 33be 903e a83c 6976 06be 6fca 48be
000001d0: aae2 833c 91f3 e33d 6cc1 123e c21e 7b3d
000001e0: 9903 9abd 4094 343e 2d22 fb3d d7ac 16be
000001f0: d3bb ecbc 6810 6e3d 1f80 0bbd d599 2e3e

critic.2.weight f4 [1, 128]
-0.029652556 -0.02552881 0.16051327 0.1221341 -0.037269358 -0.05472379 -0.040997703 0.105105735
0.062084235 -0.07549229 0.05420359 0.12512778 -0.03128152 0.058571003 0.045001995 0.093092605
0.08128322 -0.15037495 0.07559762 -0.059732564 0.10877005 0.06945479 0.06336005 -0.006764378
-0.07621853 -0.0807624 -0.07349927 -0.0074742204 -0.06701024 0.07004598 -0.1073083 0.14629702
0.10356291 -0.10303867 0.042838458 -0.06492091 0.12350547 -0.09943552 -0.07846302 -0.065731116
-0.06867793 -0.045180388 0.080223426 0.109728 0.0988386 0.0021935266 -0.12078328 -0.10600919
0.019184822 0.09633496 -0.1335455 0.13782664 -0.07683919 -0.034455575 -0.08479005 0.07954686
-0.17221905 -0.08283294 -0.04706929 -0.11369223 -0.059072826 -0.13572764 0.069303304 -0.114584975
-0.04862376 -0.08485909 0.041170567 0.06005676 0.11802008 0.108715296 0.067319036 0.07900224
-0.004732157 0.13034174 -0.020339672 -0.015585285 0.11456363 0.14430209 -0.10250991 -0.06882382
-0.029978931 -0.053826425 0.12138059 0.13416597 -0.040050168 0.066044115 -4.4366006e-05 0.108978964
0.13801849 0.1285553 0.10782067 0.06759309 0.08448322 -0.036871225 -0.008510229 0.08111861
-0.093232006 0.09976327 0.13576676 0.15632059 0.0008549458 0.070863664 0.110527314 0.04499939
0.13575336 0.13568345 0.07964108 -0.0053302296 -0.11898018 0.056738414 -0.008380438 -0.061026417
-0.119421706 0.084892064 -0.13306865 -0.11611409 -0.03268909 0.07808586 0.07993095 0.14439823
-0.12541503 0.047208875 0.050867237 -0.098283246 -0.055599194 -0.0778958 -0.10149553 0.110634044
00000000: ebe9 f2bc cc21 d1bc 975d 243e 7121 fa3d
00000010: c1a7 18bd 0e26 60bd 35ed 27bd ad41 d73d
00000020: 0a4c 7e3d b49b 9abd 9504 5e3d 7f21 003e
00000030: 0d21 00bd 26e8 6f3d 0354 383d 56a7 be3d
00000040: d177 a63d e4fb 19be edd2 9a3d 22aa 74bd
00000050: d5c2 de3d 503e 8e3d eac2 813d b7a7 ddbb
00000060: 7618 9cbd c266 a5bd c986 96bd 4eea f4bb
00000070: aa3c 89bd 4474 8f3d 74c4 dbbd e3ce 153e
00000080: ca18 d43d f005 d3bd 6177 2f3d 41f5 84bd
00000090: 70f0 fc3d daa4 cbbd 38b1 a0bd 099e 86bd
000000a0: 04a7 8cbd 120f 39bd 2e4c a43d 13b9 e03d
000000b0: e46b ca3d 45c1 0f3b 395d f7bd 591b d9bd
000000c0: 7d29 9d3c 434b c53d 27c0 08be 6d22 0d3e
000000d0: de5d 9dbd 4a21 0dbd 68a6 adbd 77e9 a23d
000000e0: 315a 30be 51a4 a9bd bacb 40bd 79d7 e8bd
000000f0: 59f6 71bd 30fc 0abe e4ee 8d3d 87ab eabd
00000100: b529 47bd 9aca adbd 78a2 283d 14fe 753d
00000110: 83b4 f13d 20a6 de3d 90de 893d edcb a13d
00000120: 3610 9bbb 4e78 053e 629f a6bc 6c59 7fbc
00000130: 56a0 ea3d edc3 133e b7f0 d1bd 81f3 8cbd
00000140: 6096 f5bc 1979 5cbd 6396 f83d ce62 093e
00000150: a50b 24bd 2342 873d a315 3ab8 5d30 df3d
00000160: b854 0d3e 00a4 033e 15d1 dc3d 3f6e 8a3d
00000170: 8a05 ad3d 4806 17bd 7d6e 0bbc 8421 a63d
00000180: 6cf0 bebd af50 cc3d 7106 0b3e 8112 203e
00000190: 711e 603a f820 913d 255c e23d 4851 383d
000001a0: ee02 0b3e 9af0 0a3e dd1a a33d 35a9 aebb
000001b0: e1ab f3bd 8a66 683d 1b4e 09bc d6f6 79bd
000001c0: 5e93 f4bd e4db ad3d 2643 08be 39cd edbd
000001d0: ffe4 05bd 7beb 9f3d d7b2 a33d 21dd 133e
000001e0: cc6c 00be 185e 413d 2a5a 503d ba48 c9bd
000001f0: fbbb 63bd d587 9fbd e3dc cfbd 1a94 e23d
