models/ppo/Catan/ppo_catan_model_final.pth (torch, 144956 bytes, 9 tensors)

shared.0.weight f4 [128, 10]
0.14290425 0.1558205 0.1335306 -0.10701094 0.17178173 0.003754717 0.34245172 -0.22912271
0.4308886 -0.015224154 0.13913701 -0.14205138 -0.17491274 0.26524052 0.11961729 0.18574111
-0.19842005 -0.08475096 -0.12220257 0.029077776 -0.028495096 -0.14375244 0.20490731 0.04918846
-0.120701365 0.036689352 0.34199208 0.24104898 0.12595676 -0.016703717 -0.2924216 0.21060584
0.08205171 -0.057085313 0.16576362 0.32934213 0.19114533 -0.011986344 0.25211167 -0.24533676
-0.21851668 -0.30380538 -0.11529782 -0.2766846 0.13623731 0.09034755 0.14371753 0.17934677
-0.2784326 0.065036975 0.059711542 -0.12247159 -0.07437831 0.011356591 -0.21659209 -0.19790727
-0.14343868 0.19821171 0.23401353 0.017229654 0.27671865 0.30526215 0.020755373 -0.18054499
-0.047792595 0.038652316 -0.26460978 0.43883088 -0.028011406 -0.1351696 0.34648582 -0.22023636
-0.13942586 -0.028838854 0.113263994 -0.15624706 -0.20645648 -0.13961893 0.16603002 0.12305947
0.23190303 -0.30975533 0.22417267 0.017654315 -0.17014988 0.3378148 -0.1301927 -0.3445225
-0.21030898 -0.0066816504 0.24008434 0.29125056 -0.08493138 -0.042293604 -0.02434886 0.020626536
0.17415668 0.08175882 0.0061193937 0.22080514 0.20310119 -0.20597506 -0.0451316 0.052079454
0.056709945 0.21814607 0.09084027 0.22560449 -0.009540522 0.23163517 0.08307794 -0.10356655
-0.052925363 -0.030716283 0.05511966 0.057169802 -0.1300034 0.09396709 -0.41722897 0.04035911
0.07162152 0.11490412 -0.073896475 -0.16950695 0.1333746 0.17725204 -0.19500414 -0.33778942
-0.19482417 0.19565171 0.23785901 0.1120128 0.2123015 0.22108757 -0.119141534 0.2545167
-0.012537888 0.102437966 -0.02309418 0.14963397 0.28367853 -0.011516557 0.11339351 0.019391734
0.05980299 0.0024090405 0.20404877 -0.31528088 0.0870684 -0.16222568 -0.113430955 -0.059629362
0.22924197 0.053053785 0.22792123 0.055245034 -0.2171957 0.27375978 0.25604263 0.21159495
0.2905636 -0.20218587 0.30779734 -0.035934214 0.0644962 0.012079592 0.27776867 -0.006558606
0.2272805 -0.10286597 0.16252498 -0.10940713 -0.23163278 0.061966814 0.045252096 0.031107217
-0.23080349 -0.14530173 -0.09605333 -0.039634828 0.07020274 0.11553694 0.031941973 0.25154063
-0.16809902 0.37671027 -0.22276492 -0.23212919 -0.11767205 -0.026113119 0.020128803 0.24210636
-0.22308849 -0.12556992 0.11458788 0.06295896 -0.27793744 -0.17963439 0.19542359 0.20108736
-0.03714829 0.26788998 0.078287736 0.03711417 -0.24042715 0.0013752015 -0.27866772 -0.31642643
0.0036062186 0.0131287165 -0.27807835 0.111341864 0.29262644 0.15040267 0.04419754 0.044963416
-0.06820734 -0.1403186 -0.07289455 0.19308722 0.2350243 -0.23260045 0.17922446 0.18616104
0.24009448 -0.025494715 -0.021626398 0.026713157 -0.12847021 -0.045468226 -0.011938562 0.13900489
0.041221783 -0.14678001 0.29925483 -0.13465594 -0.09359593 -0.10722278 0.18889433 -0.24908803
-0.2175241 0.0097010825 0.025964577 -0.17809878 -0.08202675 -0.1222209 0.28436315 -0.3029963
-0.07958071 0.09101743 -0.21381015 -0.113968976 -0.066326566 0.10302429 -0.17974287 -0.26287997
00000000: 7e55 123e 698f 1f3e 3fbc 083e 8d28 dbbd
00000010: 8de7 2f3e b311 763b d555 af3e 259f 6abe
00000020: 6e9d dc3e bb6e 79bc ef79 0e3e eb75 11be
00000030: 531c 33be 9bcd 873e e9f9 f43d eb32 3e3e
00000040: a02e 4bbe e991 adbd 5745 fabd 8434 ee3c
00000050: 8c6e e9bc d733 13be 39d3 513e d779 493d
00000060: 4732 f7bd 9347 163d 9619 af3e 8bd5 763e
00000070: cffa 003e 3cd6 88bc 49b8 95be 0fa9 573e
00000080: ba0a a83d 4ad2 69bd f0bd 293e 889f a83e
00000090: 9abb 433e 5f62 44bc c814 813e 8f39 7bbe
000000a0: d6c2 5fbe 618c 9bbe 4321 ecbd 9ba9 8dbe
000000b0: cb81 0b3e 2308 b93d b02a 133e aea6 373e
000000c0: b88e 8ebe 1b32 853d 1794 743d 63d2 fabd
000000d0: a853 98bd ff10 3a3c 51ca 5dbe 34a8 4abe
000000e0: 97e1 12be 03f8 4a3e 3ea1 6f3e 3425 8d3c
000000f0: 11ae 8d3e 524b 9c3e 2c07 aa3c c9e0 38be
00000100: 2bc2 43bd e451 1e3d ef7a 87be 71ae e03e
00000110: 2d78 e5bc e669 0abe 9766 b13e a485 61be
00000120: a7c5 0ebe 763f ecbc f4f6 e73d 3bff 1fbe
00000130: 5469 53be 44f8 0ebe c603 2a3e 9a06 fc3d
00000140: fd77 6d3e 4098 9ebe 858d 653e c89f 903c
00000150: c53b 2ebe 10f6 ac3e 3c51 05be 4165 b0be
00000160: 3d5b 57be bff1 dabb abd8 753e cb1e 953e
00000170: 81f0 adbd 0f3c 2dbd 4377 c7bc fbf8 a83c
00000180: 2156 323e 2b71 a73d 3285 c83b be1a 623e
00000190: c2f9 4f3e 20eb 52be eadb 38bd 4451 553d
000001a0: b048 683d af61 5f3e 770a ba3d dd04 673e
000001b0: d94f 1cbc c531 6d3e c424 aa3d b31a d4bd
000001c0: 44c8 58bd b7a0 fbbc 27c5 613d e22a 6a3d
000001d0: 9c1f 05be d171 c03d 099f d5be 984f 253d
000001e0: 4eae 923d da52 eb3d 0957 97bd 3b93 2dbe
000001f0: 5a93 083e 8f81 353e 2aaf 47be bcf2 acbe
00000200: fd7f 47be ec58 483e 5091 733e f866 e53d
00000210: 9065 593e c864 623e 7a00 f4bd 0350 823e
00000220: b76b 4dbc ffca d13d 0130 bdbc a639 193e
00000230: 503e 913e f1af 3cbc db3a e83d 6adb 9e3c
00000240: fbf3 743d fee0 1d3b 29f2 503e 7f6c a1be
00000250: eb50 b23d 7d1e 26be 7d4e e8bd eb3d 74bd
00000260: 68be 6a3e ed4e 593d 2f64 693e 9e48 623d
00000270: 8d68 5ebe 3e2a 8c3e 0518 833e 59ac 583e
00000280: c1c4 943e d009 4fbe 9d97 9d3e c12f 13bd
00000290: 9516 843d 7be9 453c b237 8e3e 93e9 d6bb
000002a0: 38bc 683e 65ab d2bd f36c 263e d810 e0bd
000002b0: 2531 6dbe ead0 7d3d 435a 393d 90d4 fe3c
000002c0: c057 6cbe fac9 14be 9cb7 c4bd 2158 22bd
000002d0: 74c6 8f3d a29e ec3d 96d5 023d efc9 803e
000002e0: 2622 2cbe 2be0 c03e 7d1c 64be 46b3 6dbe
000002f0: 0bfe f0bd 2eeb d5bc 29e5 a43c bbea 773e
00000300: 4f71 64be 6795 00be 0dad ea3d a1f0 803d
00000310: d14d 8ebe 14f2 37be 1f1d 483e d8e9 4d3e
00000320: ce28 18bd e028 893e 5255 a03d 0705 183d
00000330: 8932 76be 1b40 b43a 89ad 8ebe a502 a2be
00000340: 4f56 6c3b d419 573c 4960 8ebe 3407 e43d
00000350: 22d3 953e 2803 1a3e 7b08 353d 8f2b 383d
00000360: 4ab0 8bbd aeaf 0fbe bd49 95bd a8b8 453e
00000370: 36aa 703e d02e 6ebe 9e86 373e 00a1 3e3e
00000380: 54db 753e 4bda d0bc d829 b1bc 8dd5 da3c
00000390: b28d 03be e43c 3abd f599 43bc 4c57 0e3e
000003a0: 2cd8 283d 804d 16be ee37 993e 3fe3 09be
000003b0: 39af bfbd 9e97 dbbd 846d 413e ef10 7fbe
000003c0: a3be 5ebe 4af1 1e3c aab3 d43c 875f 36be
000003d0: a4fd a7bd f44e fabd 0c98 913e 5522 9bbe
000003e0: 36fb a2bd 5967 ba3d 0cf1 5abe 9168 e9bd
000003f0: 39d6 87bd 66fe d23d 840e 38be 3498 86be

shared.0.bias f4 [128]
-0.43723157 -0.17184792 0.5172116 -0.12542516 -0.100392886 -0.252376 0.29779384 -0.11462681
0.17827405 0.22173502 0.10449882 0.5221345 -0.01999755 -0.2820744 -0.007499768 -0.0645898
-0.08198585 0.15862937 -0.332836 0.18026182 0.062741764 0.39775914 0.31827495 -0.11224645
0.2161739 -0.052689005 -0.21396184 -0.25236872 -0.2674935 0.18977758 -0.057210896 -0.14451037
-0.20852797 -0.15067431 0.31708583 0.17040111 0.4584373 -0.17609665 0.40119714 -0.0044976627
-0.13104762 -0.16431722 0.44984058 0.109684 0.22036445 -0.31882802 0.084915884 -0.15157081
-0.10015668 0.047466308 0.096432626 -0.21751894 0.24328417 -0.23682193 -0.30369198 0.062625885
0.04059531 0.2274938 0.44942984 0.02432902 0.36115548 -0.029258518 0.17730707 0.46739438
-0.07058025 -0.047700442 0.22772208 -0.28409362 -0.14485973 0.28269893 0.098783165 0.07041457
0.21034068 -0.3081193 -0.24999008 -0.028532032 -0.14861903 -0.21297851 0.38324013 -0.31062227
-0.24436785 0.41702354 0.08433728 0.30528578 0.054949593 -0.016252782 -0.066411294 0.38627547
-0.079070546 -0.1519784 -0.23037292 -0.1541229 0.13745636 0.4280386 -0.23635902 -0.0691166
-0.35330924 -0.34017718 -0.3310872 -0.02462893 -0.13474447 -0.1131497 0.4581093 -0.33902252
-0.1984683 0.10720899 -0.3838806 0.17761394 0.4493228 0.1128733 0.16474673 0.008789768
0.44448492 -0.26248184 0.20468959 0.21198706 -0.14630325 -0.36057782 -0.15119244 0.16524923
-0.08561038 0.23140001 0.018850282 0.00058556354 0.31476212 -0.14897238 -0.12938337 0.0898015
00000000: d1dc dfbe e7f8 2fbe fb67 043f 746f 00be
00000010: c99a cdbd 6d37 81be 6f78 983e 76c1 eabd
00000020: 798d 363e 810e 633e 7a03 d63d 9baa 053f
00000030: e7d1 a3bc 0e6c 90be 9dc0 f5bb a847 84bd
00000040: 33e8 a7bd bd6f 223e 7b69 aabe 8e96 383e
00000050: c17e 803d 16a7 cb3e eff4 a23e 77e1 e5bd
00000060: b15c 5d3e 6dd0 57bd d018 5bbe 7936 81be
00000070: e8f4 88be 0e55 423e f955 6abd 87fa 13be
00000080: 5b88 55be 5e4a 1abe 1359 a23e a17d 2e3e
00000090: 4bb8 ea3e ae52 34be b669 cd3e 2161 93bb
000000a0: 5931 06be c642 28be 8151 e63e 01a2 e03d
000000b0: 38a7 613e 6d3d a3be 61e8 ad3d 6135 1bbe
000000c0: f21e cdbd 086c 423d 787e c53d 49bd 5ebe
000000d0: 7c1f 793e 7381 72be 847d 9bbe 0042 803d
000000e0: 4547 263d 22f4 683e ab1b e63e a74d c73c
000000f0: 5fe9 b83e 8faf efbc fc8f 353e 514e ef3e
00000100: 618c 90bd 8a61 43bd fa2f 693e b874 91be
00000110: 1c56 14be eabd 903e d44e ca3d 8435 903d
00000120: 8c63 573e d0c1 9dbe 66fd 7fbe 02bc e9bc
00000130: 962f 18be 0a17 5abe 0d38 c43e e209 9fbe
00000140: 913b 7abe 1c84 d53e 06b9 ac3d 6b4e 9c3e
00000150: d312 613d 8e24 85bc a502 88bd e6c5 c53e
00000160: bdef a1bd 3aa0 1bbe e1e6 6bbe 65d2 1dbe
00000170: 5cc1 0c3e e027 db3e 1908 72be 018d 8dbd
00000180: f3e4 b4be b42b aebe 4384 a9be 9cc2 c9bc
00000190: 74fa 09be 08bb e7bd 4d8d ea3e 5c94 adbe
000001a0: 463b 4bbe 6390 db3d ff8b c4be 6ee0 353e
000001b0: a30d e63e 1e2a e73d 5eb3 283e f602 103c
000001c0: 8793 e33e 0564 86be 269a 513e 2313 593e
000001d0: 85d0 15be a89d b8be 31d2 1abe 1837 293e
000001e0: 7f54 afbd 20f4 6c3e e86b 9a3c 8180 193a
000001f0: 8028 a13e 378c 18be 137d 04be d9e9 b73d

actor.0.weight f4 [128, 128]
-0.054731578 -0.01679929 -0.016755272 -0.04322312 -0.056235377 0.04208486 -0.061493333 0.050795566
0.051752698 0.043865424 -0.008713665 -0.06898337 0.08538372 -0.081893876 0.064990535 0.014744487
0.048709337 0.06680965 0.07424453 0.0769003 0.06632265 0.05095644 0.010260791 -0.02676247
0.031380475 0.034210235 0.09132968 -0.046319395 -0.04978092 -0.055644955 0.0425934 0.032789834
-0.003731792 -0.018298188 0.040310632 0.08617589 -0.014177444 0.08760868 -0.071984775 -0.087491795
-0.06335117 -0.0819789 -0.005287084 0.051637813 0.029838454 -0.032955516 -0.026940998 -0.006102587
-0.0147847235 -0.036155034 0.061881617 0.038561355 0.030373994 -0.08651868 -0.025368078 0.046534434
0.03741351 0.048010647 -0.08051801 -0.06766448 0.050571814 0.011223793 -0.04422959 -0.088771544
-0.04144446 0.08466677 0.04386908 -0.003219189 0.016087722 0.03547738 -0.06718697 0.06409526
0.0509765 0.010322634 0.0501339 -0.007917856 -0.026774125 0.012383342 -0.099335656 0.086327255
0.033951964 -0.05649726 -0.052871972 -0.08216709 -0.011291033 0.06537145 0.04292056 0.04621323
0.08527671 -0.067496955 0.01264057 0.05247474 -0.007467085 -0.059547175 -0.07896455 0.04844
-0.081562504 -0.056046754 0.037991136 0.03390057 0.016419536 0.00220223 0.085730635 -0.05756548
-0.012558376 0.04141321 -0.0067025386 0.036827017 0.06798393 -0.031402685 -0.011846899 0.073506005
-0.021704746 0.072695665 -0.057470266 0.06217595 -0.06892432 0.064330064 0.08937337 -0.03367625
0.07687517 0.04062307 -0.007901878 0.10665395 -0.027853968 -0.0007264732 -0.043421645 0.058575522
0.020503022 0.023089498 0.004718676 0.04731489 -0.043062877 -0.0011405498 -0.059981275 -0.06194968
0.032483786 -0.04420274 -0.06760989 -0.020759828 0.012694001 -0.0045508817 -0.050143495 -0.06656995
-0.07361613 0.07337167 0.017960317 -0.03171765 -0.041755557 0.020904489 -0.047291175 0.01335679
-0.0536614 0.085886635 0.020726576 -0.051956475 0.035800584 -0.023509026 0.014612637 0.017446369
-0.030383725 0.0056313425 -0.024363272 0.05085229 -0.05185606 -0.003552854 -0.017701536 -0.033896644
0.0013939142 0.069308825 0.045177422 -0.008927174 -0.032238744 -0.000120677054 -0.06588788 -0.04181747
-0.08372021 -0.043037083 -0.008189872 0.06482508 0.0027360395 0.05186484 0.0012701675 0.006628953
-0.0063656047 0.026039913 0.023236178 0.04483152 0.022831306 0.06604885 -0.007434778 0.023488142
0.02877494 0.0018082336 0.049293272 -0.029524889 0.010522731 0.0032428503 -0.07847613 -0.067033276
-0.0172 0.043052994 -0.021734558 0.048654906 -0.051254645 -0.08459508 -0.032185778 -0.051287066
-0.01930102 -0.036376692 -0.029347736 -0.071874686 -0.07397733 -0.0029301941 -0.07294965 0.025019035
-0.056463163 -0.00638707 0.06833217 -0.031191364 0.0022722706 0.07069204 0.029863246 -0.019521654
-0.06220997 0.081474625 -0.029040936 0.035450757 -0.044202045 0.005611293 0.037677117 0.01386898
-0.03807129 0.057810046 -0.06978945 -0.014725484 -0.006513424 -0.076876566 0.06629308 -0.060000286
0.06357538 -0.008607924 0.018344939 -0.06651872 0.0396251 -0.08614442 -0.01459261 -0.05027221
0.027230203 -0.0764137 0.0785295 -0.05538766 -0.063703835 -0.036725458 -0.009496167 0.042637922
00000000: 382e 60bd aa9e 89bc 5a42 89bc ba0a 31bd
00000010: 1157 66bd 2d61 2c3d 6fe0 7bbd 030f 503d
00000020: a3fa 533d 3bac 333d c3c3 0ebc 2747 8dbd
00000030: a9dd ae3d fab7 a7bd c219 853d dc92 713c
00000040: 7183 473d 7fd3 883d 840d 983d e87d 9d3d
00000050: 2bd4 873d b3b7 503d e01c 283c f83c dbbc
00000060: d088 003d 0820 0c3d 0e0b bb3d 68b9 3dbd
00000070: 14e7 4bbd f7eb 63bd 6b76 2e3d a24e 063d
00000080: 1591 74bb 15e6 95bc c31c 253d fc7c b03d
00000090: 8348 68bc 2e6c b33d c16c 93bd e62e b3bd
000000a0: 42be 81bd 8ee4 a7bd 463f adbb 2c82 533d
000000b0: c66f f43c 5dfc 06bd 5eb3 dcbc 36f8 c7bb
000000c0: a03b 72bc 4d17 14bd 9477 7d3d 83f2 1d3d
000000d0: e2d2 f83c b530 b1bd b7d0 cfbc e49a 3e3d
000000e0: e93e 193d d0a6 443d a0e6 a4bd ad93 8abd
000000f0: 6424 4f3d 00e4 373c 162a 35bd dbcd b5bd
00000100: abc1 29bd c665 ad3d 10b0 333d 07f9 52bb
00000110: 66ca 833c bb50 113d 5299 89bd 6044 833d
00000120: bccc 503d 4420 293c 3459 4d3d e5b9 01bc
00000130: 6955 dbbc 80e3 4a3c 7e70 cbbd 58cc b03d
00000140: 3711 0b3d ac69 67bd 4890 58bd 3847 a8bd
00000150: 06fe 38bc 77e1 853d 78cd 2f3d 154a 3d3d
00000160: 8ea5 ae3d d83b 8abd 651a 4f3c c1ef 563d
00000170: 73ae f4bb bde7 73bd 2ab8 a1bd 0569 463d
00000180: 3e0a a7bd 4891 65bd 989c 1b3d 53db 0a3d
00000190: 4382 863c 4a53 103b 8b93 af3d c8c9 6bbd
000001a0: a6c1 4dbc e6a0 293d f8a0 dbbb edd7 163d
000001b0: 293b 8b3d 1aa0 00bd 7f19 42bc 518a 963d
000001c0: 27ce b1bc 77e1 943d f165 6bbd 35ac 7e3d
000001d0: 3228 8dbd 7bbf 833d 6309 b73d 1cf0 09bd
000001e0: bb70 9d3d 6064 263d e176 01bc 636d da3d
000001f0: 012e e4bc cb70 3eba e5da 31bd e3ec 6f3d
00000200: f4f5 a73c 3026 bd3c 209f 9a3b 42cd 413d
00000210: b362 30bd 807e 95ba edae 75bd f3be 7dbd
00000220: b80d 053d ef0d 35bd 0e77 8abd 8410 aabc
00000230: 80fa 4f3c 901f 95bb 4463 4dbd d355 88bd
00000240: 0ec4 96bd e343 963d 8421 933c 5eea 01bd
00000250: e007 2bbd e43f ab3c 64b4 41bd 70d6 5a3c
00000260: 0ecc 5bbd 55e5 af3d c8ca a93c 50d0 54bd
00000270: a2a3 123d 0096 c0bc d869 6f3c b0eb 8e3c
00000280: 4ae7 f8bc 2087 b83b 7c95 c7bc 7e4a 503d
00000290: 0567 54bd 00d7 68bb d002 91bc 35d7 0abd
000002a0: 00b4 b63a c9f1 8d3d f60b 393d 4843 12bc
000002b0: c60c 04bd 0014 fdb8 3af0 86bd cc48 2bbd
000002c0: 8075 abbd a747 30bd d02e 06bc 03c3 843d
000002d0: 204f 333b 3a70 543d c07b a63a b037 d93b
000002e0: 9096 d0bb a851 d53c cc59 be3c 42a1 373d
000002f0: b808 bb3c 9f44 873d 709f f3bb 346a c03c
00000300: 6cb9 eb3c 4002 ed3a bee7 493d 2ede f1bc
00000310: 8867 2c3c 0086 543b 18b8 a0bd be48 89bd
00000320: 04e7 8cbc 5658 303d ac0c b2bc 5e4a 473d
00000330: 64f0 51bd 2f40 adbd 3cd5 03bd 6312 52bd
00000340: 2c1d 9ebc baff 14bd aa6a f0bc 0933 93bd
00000350: 6d81 97bd 8008 40bb a066 95bd b8f4 cc3c
00000360: eb45 67bd a04a d1bb bdf1 8b3d 0885 ffbc
00000370: 60ea 143b fdc6 903d c4a3 f43c e0eb 9fbc
00000380: e2cf 7ebd 2bdc a63d 42e7 edbc d034 113d
00000390: 340d 35bd f0de b73b 5253 1a3d b83a 633c
000003a0: a4f0 1bbd 3aca 6c3d c5ed 8ebd 2843 71bc
000003b0: 906e d5bb 7671 9dbd abc4 873d dcc2 75bd
000003c0: cf33 823d 4008 0dbc 2048 963c f73a 88bd
000003d0: ee4d 223d 7c6c b0bd d815 6fbc 3cea 4dbd
000003e0: e011 df3c c97e 9cbd 13d4 a03d 2cde 62bd
000003f0: 2877 82bd 6f6d 16bd d095 1bbc 1aa5 2e3d

actor.0.bias f4 [128]
-0.06666837 0.068553545 0.08072491 0.06099371 -0.0303861 0.065823615 0.0100980345 -0.042238474
-0.023306085 0.009951772 0.04893617 0.029961314 0.058050875 0.03529268 -0.0038312087 0.068955824
-0.07508879 -0.022781828 0.020616636 -0.070845686 -0.035788495 0.039745875 -0.033359945 0.015614249
-0.09285064 -0.053496066 0.065609 -0.026840445 0.058505587 0.06496715 -0.07626243 -0.015591836
0.0053627645 -0.03299041 -0.06638985 0.020640107 -0.061104927 -0.017256828 -0.053502243 0.017571133
-0.0888568 -0.06831748 -0.048178747 0.063906 0.09494873 0.040945344 0.029998215 -0.027524976
-0.04535294 0.04565363 0.055530883 0.005129398 -0.018167444 -0.062409922 0.03114222 0.03939661
0.07932258 0.101169966 0.054405943 0.06177559 -0.032706555 0.008142203 0.06558454 -0.037402306
0.064466715 0.049521755 0.10617734 0.05473178 0.01911285 -0.047013216 -0.04299826 0.04409586
-0.020332504 0.10005245 -0.03756454 -0.011572049 -0.049522776 -0.0011984858 0.0031142037 0.021178726
0.05150879 -0.09955541 -0.04365896 0.051577702 0.018519755 -0.018006971 0.017145451 -0.012454201
-0.048328295 0.09049698 -0.08190516 0.0048130765 0.03761403 -0.08123612 0.06791396 0.004037172
-0.0029242719 -0.015649782 0.022678703 0.10539333 -0.031008193 -0.051601313 0.056826163 0.042372417
0.019299252 0.04155382 0.042217802 -0.020607684 -0.0137611395 0.08831817 0.054158546 -0.015497445
0.11101917 0.043731097 0.02200815 -0.01696536 0.013166675 0.012077454 0.07000977 -0.0005526499
0.085058466 -0.0046014534 0.051208988 0.044469357 -0.056729924 -0.0009792177 0.043216646 0.035020918
00000000: 6d89 88bd cd65 8c3d 1a53 a53d 8ad4 793d
00000010: 45ec f8bc 88ce 863d 3a72 253c 4002 2dbd
00000020: 67ec bebc c20c 233c 4b71 483d 6e71 f53c
00000030: c1c6 6d3d 0f8f 103d 0415 7bbb b638 8d3d
00000040: 27c8 99bd f5a0 babc 38e4 a83c 8b17 91bd
00000050: f596 12bd 92cc 223d 70a4 08bd e8d2 7f3c
00000060: 7a28 bebd b11e 5bbd 035e 863d 7ee0 dbbc
00000070: 8ea3 6f3d 7f0d 853d 7a2f 9cbd e674 7fbc
00000080: 21ba af3b f420 07bd 67f7 87bd 7115 a93c
00000090: 2949 7abd 315e 8dbc 2b25 5bbd 56f1 8f3c
000000a0: 8efa b5bd 09ea 8bbd 1457 45bd 26e1 823d
000000b0: 7b74 c23d 4eb6 273d d1be f53c 0f7c e1bc
000000c0: 01c4 39bd 4dff 3a3d 5a74 633d 8214 a83b
000000d0: e4d3 94bc 8ca1 7fbd f81d ff3c 575e 213d
000000e0: e073 a23d 3332 cf3d c4d8 5e3d 6708 7d3d
000000f0: 4ff7 05bd e066 053c 3051 863d 2933 19bd
00000100: 2007 843d 53d7 4a3d 8173 d93d 6e2e 603d
00000110: 8d92 9c3c ee90 40bd f21e 30bd dc9d 343d
00000120: 5a90 a6bc 4de8 cc3d 46dd 19bd b198 3dbc
00000130: 65d8 4abd 8316 9dba ab17 4c3b 027f ad3c
00000140: e2fa 523d b5e3 cbbd bdd3 32bd 2443 533d
00000150: beb6 973c 5b83 93bc 9e74 8c3c b40c 4cbc
00000160: e4f3 45bd 7b56 b93d e4bd a7bd 03b7 9d3b
00000170: 2b11 1a3d 1f5f a6bd 7916 8b3d 414a 843b
00000180: 24a5 3fbb f933 80bc b0c8 b93c 75d8 d73d
00000190: e504 febc e65b 53bd 8dc2 683d b38e 2d3d
000001a0: 7719 9e3c 5734 2a3d 93ec 2c3d 72d1 a8bc
000001b0: 6776 61bc 28e0 b43d 5ad5 5d3d ffe8 7dbc
000001c0: 055e e33d 611f 333d 704a b43c f0fa 8abc
000001d0: 0ab9 573c 83e0 453c 4861 8f3d b5df 10ba
000001e0: 2233 ae3d cac7 96bb 84c0 513d 8025 363d
000001f0: a35d 68bd 1859 80ba f003 313d 1872 0f3d

actor.2.weight f4 [5, 128]
-0.08743326 -0.071090356 -0.104625724 0.011892279 -0.05361892 -0.0031609742 0.03349674 0.04161122
-0.047979772 0.017756518 0.048502862 0.0034163294 -0.022169651 -0.08022325 -0.018289711 -0.09088717
0.054316662 -0.029558271 -0.04440157 0.04708114 0.072208904 -0.0050539603 -0.034959827 -0.06413847
0.073306344 0.0500068 0.027633622 -0.08811015 0.044249635 0.02691074 -0.075429514 -0.04333371
0.02954528 -0.026433706 0.03430435 -0.048185054 -0.06897665 -0.08693821 -0.019378997 -0.057128746
-0.087026045 0.04127106 0.061092727 0.0027045591 -0.1130858 -0.044934865 -0.028260432 0.06550622
0.029013751 -0.08598015 -0.05416098 -0.13075207 -0.07120531 0.04333401 -0.009909911 -0.040850993
0.00091899495 -0.11730459 0.04004422 0.012192309 -0.104564406 0.05799205 -0.05263554 0.04741072
0.004222112 -0.025567623 -0.10904623 -0.044871397 0.01854876 -0.01869621 -0.10701929 -0.077477254
-0.063524105 -0.010472671 -0.09073943 0.0582202 -0.044073597 -0.09796645 -0.018578049 0.016267324
-0.010461178 0.017943768 -0.005718765 -0.11867378 -0.043412533 0.06393383 -0.021141337 -0.123598985
-0.08554459 0.023495305 -0.049276527 -0.03954701 -0.07676064 0.03543836 0.02311587 -0.034609433
0.01860413 -0.025751539 0.0280695 -0.028198663 0.028952815 -0.055907503 0.058095258 -0.03598545
-0.05480706 -0.06366059 -0.11390803 0.07230481 0.01355469 -0.06925173 -0.020713784 0.00014817006
-0.008593222 -0.03599726 -0.08849199 -0.0031890576 -0.09212825 0.03590596 0.0751332 -0.08962316
-0.11197244 -0.012023231 0.021535821 0.073078275 -0.079847656 -0.014384717 -0.13175088 -0.11537576
0.0030136306 -0.0859571 0.0766185 -0.020794278 0.090662345 0.07399668 0.051775917 -0.030594192
0.099896014 -0.056403276 -0.00112128 -0.07531899 0.06911794 0.06468272 -0.038027026 0.03893315
-0.055836868 -0.04904502 0.056540523 0.070030525 -0.042786535 -0.039662812 -0.02163425 -0.068133004
-0.08339172 -0.034782644 0.002465777 0.025094625 -0.08853317 0.017289175 -0.005281102 0.015775442
-0.04643407 0.074483834 0.018763253 -0.004021588 -0.033495698 -0.10532631 -0.016004205 -0.06724794
0.06950603 0.061280813 0.076935865 -0.0119424 0.04022366 -0.089287184 0.05105634 -0.03750018
0.0767605 0.025232684 0.071645916 -0.009363738 0.0004508202 0.011671568 -0.070767686 0.03940669
-0.020281734 -0.04173338 0.03158657 -0.060680505 0.033443853 -0.007972216 0.08874599 0.060115136
0.041369803 -0.06686234 2.2778115e-05 -0.036640532 -0.044280108 -0.019948486 0.060317054 -0.002791748
-0.01793589 0.0123151485 0.061032254 -0.0014696834 -0.050001252 -0.0054983906 0.08141847 -0.09147577
0.00848989 0.049495336 0.016208362 0.0963508 -0.092279054 0.00050845684 -0.05805465 -0.033934154
0.018109009 0.028897261 -0.008001273 -0.014040393 -0.08035962 0.044370577 -0.004269231 -0.074157715
0.06414597 0.015162537 0.062351145 0.07300795 0.09005905 0.057576384 -0.05755033 -0.0045027095
-0.085634746 0.010642027 0.03962372 -0.06700043 0.0211619 0.02911076 0.0007882416 0.026345907
-0.031309396 0.07771632 0.022310881 0.042014368 0.047485687 -0.094402514 -0.07972038 0.043221015
-0.040336486 0.051849853 -0.0626216 -0.040430605 -0.025252866 -0.02249766 0.07305114 -0.06236882
00000000: 3610 b3bd d297 91bd 0346 d6bd d5d7 423c
00000010: 839f 5bbd 5928 4fbb e133 093d 8770 2a3d
00000020: 7086 44bd 1e76 913c f0aa 463d 7fe4 5f3b
00000030: 219d b5bc 164c a4bd 4ed4 95bc 0d23 babd
00000040: 267b 5e3d 3024 f2bc 6cde 35bd 27d8 403d
00000050: 43e2 933d b19b a5bb 0932 0fbd 085b 83bd
00000060: a321 963d eed3 4c3d e85f e23c 1873 b4bd
00000070: 1b3f 353d ea73 dc3c ca7a 9abd b07e 31bd
00000080: f108 f23c 808b d8bc b882 0c3d b15d 45bd
00000090: a143 8dbd a90c b2bd b4c0 9ebc d5ff 69bd
000000a0: b63a b2bd d80b 293d 5e3c 7a3d f93e 313b
000000b0: 8799 e7bd 9f0d 38bd 6c82 e7bc 2028 863d
000000c0: 3fae ed3c 5c16 b0bd e7d7 5dbd dfe3 05be
000000d0: 17d4 91bd 017f 313d 2e5d 22bc 5f53 27bd
000000e0: b5e8 703a 643d f0bd 6805 243d 40c2 473c
000000f0: dd25 d6bd 1289 6d3d 5d98 57bd be31 423d
00000100: a459 8a3b 3173 d1bc a153 dfbd 12cb 37bd
00000110: 92f3 973c cb28 99bc ee2c dbbd 65ac 9ebd
00000120: ed18 82bd 9195 2bbc 98d5 b9bd 4e78 6e3d
00000130: 8486 34bd a2a2 c8bd fe30 98bc 0d43 853c
00000140: 5c65 2bbc cffe 923c 7a64 bbbb 3d0b f3bd
00000150: 57d1 31bd bdef 823d 9930 adbc 7721 fdbd
00000160: 0132 afbd 3a79 c03c 2fd6 49bd 0cfc 21bd
00000170: af34 9dbd d027 113d 7e5d bd3c 9fc2 0dbd
00000180: b067 983c e4f4 d2bc 02f2 e53c e200 e7bc
00000190: 742e ed3c 44ff 64bd 4bf5 6d3d 7b65 13bd
000001a0: 5e7d 60bd 7c60 82bd 9d48 e9bd 8b14 943d
000001b0: 7e14 5e3c dad3 8dbd f4af a9bc 195e 1b39
000001c0: 96ca 0cbc dd71 13bd 4a3b b5bd 82ff 50bb
000001d0: bcad bcbd 2112 133d 6fdf 993d 598c b7bd
000001e0: ce51 e5bd 16fd 44bc e46b b03c 10aa 953d
000001f0: 2b87 a3bd e0ad 6bbc b4e9 06be 204a ecbd
00000200: 5580 453b 470a b0bd 29ea 9c3d c358 aabc
00000210: 2ead b93d 928b 973d fc12 543d aca0 fabc
00000220: 4896 cc3d 1f07 67bd eaf7 92ba d840 9abd
00000230: b58d 8d3d 6078 843d 3ac2 1bbd 5e78 1f3d
00000240: 33b5 64bd 6ee3 48bd 0997 673d 2a6c 8f3d
00000250: ef40 2fbd 7975 22bd 503a b1bc 5189 8bbd
00000260: 47c9 aabd 3f78 0ebd e098 213b 3e93 cd3c
00000270: e150 b5bd 07a2 8d3c 180d adbb 803b 813c
00000280: a731 3ebd fb8a 983d 65b5 993c 86c7 83bb
00000290: c932 09bd 52b5 d7bd 401b 83bc 4ab9 89bd
000002a0: 2d59 8e3d 9701 7b3d 8d90 9d3d 0eaa 43bc
000002b0: 91c1 243d 33dc b6bd 7420 513d ca99 19bd
000002c0: 9c34 9d3d c6b4 ce3c 18bb 923d 5d6a 19bc
000002d0: 105c ec39 1b3a 3f3c a6ee 90bd e968 213d
000002e0: e125 a6bc 9ff0 2abd eb60 013d 1f8c 78bd
000002f0: 6cfc 083d e69d 02bc 75c0 b53d 4a3b 763d
00000300: 6273 293d 1fef 88bd a113 bf37 6214 16bd
00000310: 0f5f 35bd 026b a3bc 040f 773d c2f5 36bb
00000320: 4aee 92bc 7ac5 493c f5fc 793d 64a2 c0ba
00000330: 1dce 4cbd d82b b4bb babe a63d a657 bbbd
00000340: 2e19 0b3c 9fbb 4a3d 66c7 843c 9153 c53d
00000350: cdfc bcbd f649 053a b6ca 6dbd 8afe 0abd
00000360: 5859 943c f3b9 ec3c c517 03bc ad09 66bc
00000370: 9693 a4bd ecbd 353d e8e4 8bbb 00e0 97bd
00000380: f65e 833d 4a6c 783c ea63 7f3d 3185 953d
00000390: e170 b83d 37d5 6b3d e5b9 6bbd 778b 93bb
000003a0: 4561 afbd e55b 2e3c 7b4c 223d 8537 89bd
000003b0: b95b ad3c b079 ee3c 00a2 4e3a 5fd3 d73c
000003c0: 483e 00bd bc29 9f3d 4fc5 b63c 4217 2c3d
000003d0: 5a80 423d 1b56 c1bd 7044 a3bd 8508 313d
000003e0: df37 25bd 8360 543d c13f 80bd 909a 25bd
000003f0: 19df cebc 034d b8bc d69b 953d 7376 7fbd

actor.2.bias f4 [5]
-0.111944534 0.07482108 -0.006229103 -0.0013349322 0.03634169
00000000: 2d43 e5bd cb3b 993d 811d ccbb e4f8 aeba
00000010: 06db 143d

critic.0.weight f4 [128, 128]
0.1255676 0.012599922 -0.09394012 -0.04453343 -0.0093865115 0.01121121 -0.026712019 0.028964022
-0.0899309 0.05051805 0.021429209 -0.005001298 0.030986821 0.0064544724 0.017933803 0.079168215
-0.049583472 -0.10690421 0.026322916 -0.043002635 0.06332068 -0.067450285 0.065173924 0.07277838
-0.14022176 0.053057246 0.060787078 -0.09281263 -0.055828795 -0.023681179 -0.043146953 0.0023871888
0.043707483 0.050663825 0.02249923 -0.03469425 0.005850985 -0.043931205 0.014497357 -0.09401556
-0.042476196 -0.07331676 0.030906891 -0.07830759 -0.023510078 0.116948575 -0.0021438305 -0.0062556975
-0.06861402 0.11352722 -9.870167e-05 0.027041247 0.038570438 0.09790362 -0.12365324 0.018583268
0.05654236 -0.07730141 0.062593676 0.062170252 0.06385118 -0.022767734 -0.014602393 -0.08601474
-0.09606014 0.045563888 -0.024020137 0.056014534 0.1509852 -0.03669687 -0.041917726 0.005709306
-0.029486379 -0.016302332 -0.06157201 -0.07560755 0.04083947 -0.07997583 0.049176924 -0.024018137
-0.034644604 0.012817693 -0.005706636 -0.0948468 0.07701022 0.08059381 0.05295592 0.04643082
0.019796334 0.08970142 -0.067470856 0.0090986425 0.058127988 -0.052639678 0.04978037 0.062926196
-0.036206674 0.114753924 0.022712965 -0.05629888 0.06307871 -0.058164228 -0.07059089 -0.053371996
-0.025991026 0.085296795 0.083946995 0.06941373 0.021555651 -0.017400455 0.0028443094 -0.080935754
-0.07226841 0.062703975 -0.036703333 0.050348703 -0.10245273 -0.010071095 0.07806215 -0.038573638
-0.025724683 -0.04887433 0.012919499 -0.03955475 -0.09375577 -0.030391155 -0.003576369 0.074096166
0.078463726 -0.054921377 0.02128382 0.06579118 -0.0868733 -0.08274 0.022010736 -0.05286128
0.017624207 -0.0604716 -0.054310955 -0.0009300858 0.08538047 -0.08109411 -0.017208539 -0.069685444
-0.0066949874 -0.038523093 0.014642596 -0.008794889 -0.0684938 0.044508792 0.04529666 -0.04423079
0.082303844 -0.08693169 -0.01271379 -0.06633562 -0.0009101182 -0.031540055 0.053058513 0.07297257
-0.039583962 0.046299107 -0.036589544 -0.042153075 -0.043096744 -0.060566347 -0.0050814375 -0.020549648
-0.076115444 0.04095217 -0.063502096 0.027587019 0.06442555 0.08538953 -0.052497018 -0.016105995
0.07379838 -0.046000503 -0.04162608 -0.019064747 -0.055733662 -0.051886648 0.063873015 -0.06766969
0.056640707 -0.008452825 0.04867921 0.0372188 -0.085218176 -0.047987167 -0.04429497 -0.037961107
-0.055813193 -0.066658124 0.079910986 0.011913933 0.026260361 -0.036096636 -0.043999773 -0.058377884
0.07277136 0.021959253 -0.049442016 -0.017479278 0.06389362 0.021084636 -0.054033514 -0.071025446
-0.0668691 0.08428984 0.027473696 0.07130473 0.065474786 -0.025929015 -0.025408514 -0.04849897
-0.005508296 -0.0645732 -0.02641422 -0.04325372 -0.03336476 -0.018519633 -0.04287972 0.06597354
-0.07768811 -0.07730369 -0.0031978488 -0.008563176 -0.034459822 0.007724896 -0.06367344 -0.032513585
0.02072569 -0.005285226 0.024439 -0.05781848 -0.01968705 -0.0875438 0.025888145 0.06967903
0.079486616 -0.04645252 -0.010110162 0.05768136 -0.028509837 -0.031856693 0.06440731 -0.028270766
-0.019911729 -0.06687124 -0.017149076 -0.05239102 0.06698053 0.043485187 0.009802744 0.03351158
00000000: cb94 003e e76f 4e3c ad63 c0bd b068 36bd
00000010: e2c9 19bc 39af 373c 2ad3 dabc f545 ed3c
00000020: b12d b8bd 04ec 4e3d 4f8c af3c eee1 a3bb
00000030: 13d8 fd3c 0a80 d33b e9e9 923c f222 a23d
00000040: 0a18 4bbd 98f0 dabd 28a3 d73c 8823 30bd
00000050: 46ae 813d 6023 8abd e879 853d d50c 953d
00000060: 4b96 0fbe 8e52 593d dffb 783d 8c14 bebd
00000070: bcac 64bd 08ff c1bc dcba 30bd 6272 1c3b
00000080: 9e06 333d df84 4f3d 4e50 b83c 8f1b 0ebd
00000090: 9fb9 bf3b 35f1 33bd 5386 6d3c 3b8b c0bd
000000a0: 85fb 2dbd 1927 96bd 7330 fd3c bb5f a0bd
000000b0: 3598 c0bc bc82 ef3d 827f 0cbb 98fc ccbb
000000c0: 8285 8cbd f680 e83d 0efe ceb8 9b85 dd3c
000000d0: 09fc 1d3d b181 c83d e93d fdbd f03b 983c
000000e0: f698 673d 3450 9ebd 1d31 803d 3ca6 7e3d
000000f0: 68c4 823d 6683 babc e03e 6fbc 7f28 b0bd
00000100: 2ebb c4bd 33a1 3a3d e1c5 c4bc 7f6f 653d
00000110: dd9b 1a3e 754f 16bd ecb1 2bbd 2115 bb3b
00000120: 6b8d f1bc 788c 85bc ef32 7cbd 22d8 9abd
00000130: 4a47 273d 5eca a3bd be6d 493d afc1 c4bc
00000140: 80e7 0dbd 4d01 523c bbfe babb 0a3f c2bd
00000150: 89b7 9d3d 5e0e a53d 4fe8 583d 3e2e 3e3d
00000160: ec2b a23c 61b5 b73d 292e 8abd 7912 153c
00000170: 9d17 6e3d b49c 57bd 80e6 4b3d 73df 803d
00000180: 734d 14bd 1b04 eb3d 8a10 ba3c a899 66bd
00000190: 692f 813d 9d3d 6ebd f591 90bd 989c 5abd
000001a0: 22eb d4bc 16b0 ae3d 67ec ab3d c928 8e3d
000001b0: 7a95 b03c 668b 8ebc 9867 3a3b a5c1 a5bd
000001c0: 7601 94bd f16a 803d 3c56 16bd 713a 4e3d
000001d0: bdd2 d1bd 3c01 25bc 0cdf 9f3d 64ff 1dbd
000001e0: 92bc d2bc 7330 48bd 4eac 533c 2904 22bd
000001f0: 0603 c0bd dff6 f8bc 8461 6abb bbbf 973d
00000200: 97b1 a03d 3df5 60bd 685b ae3c 87bd 863d
00000210: a1ea b1bd 9773 a9bd dc4f b43c 1285 58bd
00000220: a460 903c 12b1 77bd 2a75 5ebd 00d1 73ba
00000230: f5db ae3d ab14 a6bd ecf8 8cbc 3eb7 8ebd
00000240: a061 dbbb 64ca 1dbd 80e7 6f3c 7018 10bc
00000250: 7a46 8cbd da4e 363d fe88 393d 582b 35bd
00000260: eb8e a83d 3e09 b2bd 804d 50bc f8da 87bd
00000270: 0095 6eba 2530 01bd e253 593d a572 953d
00000280: cb22 22bd 22a4 3d3d ebde 15bd b4a8 2cbd
00000290: 3686 30bd 6b14 78bd 3082 a6bb bc57 a8bc
000002a0: 6ae2 9bbd 76bd 273d 630d 82bd 2cfe e13c
000002b0: 8bf1 833d b5e0 ae3d 1d07 57bd b8f0 83bc
000002c0: 9b23 973d 066b 3cbd 1c80 2abd ac2d 9cbc
000002d0: fb48 64bd 1887 54bd dbcf 823d 6896 8abd
000002e0: 1600 683d b87d 0abc da63 473d be72 183d
000002f0: de86 aebd 318e 44bd a46e 35bd 1b7d 1bbd
00000300: 609c 64bd 0e84 88bd 5fa8 a33d a832 433c
00000310: f81f d73c 11da 13bd 1b39 34bd a61d 6fbd
00000320: 2709 953d e4e3 b33c b683 4abd b430 8fbc
00000330: a9da 823d b0b9 ac3c 3f52 5dbd ca75 91bd
00000340: abf2 88bd 27a0 ac3d 8410 e13c 3708 923d
00000350: a517 863d 1669 d4bc 8425 d0bc dba6 46bd
00000360: f07e b4bb f43e 84bd a262 d8bc d02a 31bd
00000370: 7da9 08bd 7cb6 97bc a5a2 2fbd 231d 873d
00000380: f21a 9fbd 6651 9ebd 0093 51bb 904c 0cbc
00000390: be25 0dbd 2021 fd3b 3867 82bd f72c 05bd
000003a0: ecc8 a93c b02f adbb 4c34 c83c 12d3 6cbd
000003b0: bc46 a1bc 2a4a b3bd 6013 d43c e1b3 8e3d
000003c0: e1c9 a23d ff44 3ebd 18a5 25bc 4a43 6c3d
000003d0: 768d e9bc 2a7c 02bd fbe7 833d 1898 e7bc
000003e0: ec1d a3bc caf3 88bd 387c 8cbc f797 56bd
000003f0: 172d 893d 861d 323d b09b 203c 7043 093d

critic.0.bias f4 [128]
-0.09410828 0.032320723 0.15814678 0.08604731 -0.08379368 -0.0485839 0.06334895 0.17404415
0.13777485 -0.058170423 -0.073699154 0.10815521 0.045716833 0.1755236 0.08475408 0.15284719
0.107984595 -0.10699105 0.09267327 -0.028480934 0.08129137 0.19744486 0.046534784 0.06097101
-0.10968653 0.053961813 -0.041278854 -0.02101597 -0.09239857 0.09294263 -0.09608549 0.15324654
0.16545348 -0.18710274 0.1297799 0.017799184 0.06646174 -0.17104974 0.026576301 -0.12493487
-0.037168913 -0.051024526 0.18274893 0.09221515 0.09299123 -0.018760338 -0.09257238 -0.15752631
-0.05194093 0.10424904 -0.07799428 0.17469096 -0.1324858 -0.05020098 -0.06618952 0.15610033
-0.059914023 0.040106878 0.025367372 -0.089966364 -0.025977196 -0.052862275 0.12584463 -0.13586052
-0.09331454 -0.059073955 0.10300729 0.2011217 0.17679213 0.055265483 0.08815469 0.15885156
0.02266645 0.19239542 0.014947386 -0.063694604 0.09535855 0.16679457 -0.0812345 0.06459836
0.007853919 -0.06363376 0.090143606 0.14051762 -0.0016888687 0.09735672 -9.750172e-05 0.18523264
0.09701524 0.12722713 0.071503036 0.17230846 0.15677075 -0.03041424 0.04536903 0.0899858
-0.070269644 0.21699437 0.057404406 0.14926174 0.051648773 0.13000655 0.16876626 0.07789441
0.09810231 0.08959126 0.23266305 0.010517344 -0.1985886 0.14861965 -0.07323962 -0.0018144734
-0.20216729 0.04880753 -0.16157608 -0.2220868 0.015543383 0.13820082 0.19038308 0.088887334
-0.10660014 0.21045814 0.15668696 -0.17849448 -0.028898155 0.053569317 -0.058413506 0.20149377
00000000: d8bb c0bd bc62 043d 3bf1 213e 9239 b03d
00000010: 059c abbd e9ff 46bd 18bd 813d a138 323e
00000020: da14 0d3e 1c44 6ebd 95ef 96bd 7b80 dd3d
00000030: 9341 3b3d 75bc 333e 8c93 ad3d f983 1c3e
00000040: 0727 dd3d 201e dbbd 7ccb bd3d d950 e9bc
00000050: 177c a63d fc2e 4a3e 429b 3e3d bdbc 793d
00000060: 55a3 e0bd 1007 5d3d 0414 29bd af29 acbc
00000070: 763b bdbd b558 be3d 78c8 c4bd a9ec 1c3e
00000080: a36c 293e dc97 3fbe 06e5 043e 98cf 913c
00000090: 181d 883d aa27 2fbe 8bb6 d93c dadd ffbd
000000a0: 6e3e 18bd 18ff 50bd 8922 3b3e 4cdb bc3d
000000b0: 3072 be3d 48af 99bc 9796 bdbd 944e 21be
000000c0: 03c0 54bd 8580 d53d 77bb 9fbd 30e2 323e
000000d0: 5caa 07be 8b9f 4dbd 5f8e 87bd c4d8 1f3e
000000e0: 6868 75bd 1c47 243d 3ccf cf3c 4940 b8bd
000000f0: 21ce d4bc 1d86 58bd 6add 003e 051f 0bbe
00000100: b21b bfbd 88f7 71bd 7cf5 d23d d9f2 4d3e
00000110: ff08 353e 0f5e 623d 728a b43d fca9 223e
00000120: feae b93c 4e03 453e e2e5 743c 5172 82bd
00000130: 584b c33d 32cc 2a3e 465e a6bd 254c 843d
00000140: b9ad 003c 6b52 82bd 369d b83d dae3 0f3e
00000150: 085d ddba f662 c73d d679 ccb8 a0ad 3d3e
00000160: edaf c63d d447 023e 2f70 923d a171 303e
00000170: 8388 203e 4927 f9bc e0d4 393d 7a4a b83d
00000180: 88e9 8fbd c633 5e3e e220 6b3d 12d8 183e
00000190: aa8d 533d 7020 053e 10d1 2c3e 1b87 9f3d
000001a0: dde9 c83d 9f7b b73d 393f 6e3e f050 2c3c
000001b0: cf5a 4bbe c02f 183e a7fe 95bd a0d3 edba
000001c0: f104 4fbe 68ea 473d 3374 25be b96a 63be
000001d0: aca9 7e3c 8484 0d3e c8f3 423e 900a b63d
000001e0: 2d51 dabd 5782 573e 8c72 203e 42c7 36be
000001f0: d3bb ecbc 806b 5b3d 0043 6fbd 6254 4e3e

critic.2.weight f4 [1, 128]
-0.02359307 -0.02552881 0.17205335 0.12544705 -0.037269358 -0.051938947 -0.040864356 0.10669745
0.06476295 -0.07417363 0.05420359 0.12581557 -0.018691773 0.06167434 0.044854034 0.09897954
0.084130764 -0.15233897 0.07697458 -0.059732564 0.1415104 0.074484326 0.060895663 -0.006764378
-0.07681075 -0.0807624 -0.07349269 -0.0074742204 -0.06311647 0.06918758 -0.112674795 0.14938107
0.10568328 -0.105004914 0.04536332 -0.06492091 0.12603122 -0.10407898 -0.09364345 -0.067966625
-0.06867793 -0.04515679 0.0813174 0.12246736 0.09967503 0.002020993 -0.12148253 -0.10743364
0.019184822 0.098284096 -0.13911112 0.156077 -0.07420964 -0.034455575 -0.08400382 0.104416415
-0.1739115 -0.08283294 -0.04706929 -0.11935335 -0.059072826 -0.12854889 0.07117304 -0.12125246
-0.04862376 -0.08529151 0.0414784 0.06052823 0.14091444 0.10687631 0.07078659 0.08084614
-0.0037581627 0.13275954 -0.020339672 -0.015585285 0.116196945 0.16880143 -0.108675115 -0.06882382
-0.029919295 -0.053826425 0.12259016 0.13776885 -0.040050168 0.06808913 -0.00041612345 0.11086966
0.14033388 0.14310585 0.10897316 0.071068734 0.08513548 -0.036871225 -0.008510229 0.08299851
-0.08913454 0.1246627 0.14148502 0.15911432 0.0005315673 0.07248612 0.1198744 0.050588567
0.16842423 0.15370648 0.09406255 -0.0053302296 -0.12193104 0.058053836 -0.008380438 -0.061026417
-0.117725596 0.08384766 -0.13643053 -0.12225008 -0.032467727 0.0794331 0.10300221 0.14651118
-0.1293067 0.05256704 0.05633197 -0.10293295 -0.055599194 -0.07278356 -0.101594314 0.1157801
00000000: 4146 c1bc cc21 d1bc c12e 303e 3175 003e
00000010: c1a7 18bd efbd 54bd 6261 27bd 3184 da3d
00000020: 70a2 843d 58e8 97bd 9504 5e3d ccd5 003e
00000030: 7d1f 99bc 3c9e 7c3d ddb8 373d c9b5 ca3d
00000040: c04c ac3d bffe 1bbe d9a4 9d3d 22aa 74bd
00000050: 1ae8 103e 3d8b 983d bb6d 793d b7a7 ddbb
00000060: f44e 9dbd c266 a5bd 5683 96bd 4eea f4bb
00000070: 3543 81bd 38b2 8d3d 0bc2 e6bd 5af7 183e
00000080: 7a70 d83d d10c d7bd e3ce 393d 41f5 84bd
00000090: 540e 013e 5c27 d5bd 23c8 bfbd 1632 8bbd
000000a0: 04a7 8cbd 54f6 38bd bd89 a63d 2bd0 fa3d
000000b0: 6c22 cc3d a372 043b d5cb f8bd 2b06 dcbd
000000c0: 7d29 9d3c 2c49 c93d 2573 0ebe a6d2 1f3e
000000d0: 39fb 97bd 4a21 0dbd 320a acbd 46d8 d53d
000000e0: db15 32be 51a4 a9bd bacb 40bd 876f f4bd
000000f0: 59f6 71bd 52a2 03be 2cc3 913d 3653 f8bd
00000100: b529 47bd 51ad aebd 41e5 293d 73ec 773d
00000110: e04b 103e f8e1 da3d 8ff8 903d a992 a53d
00000120: 824b 76bb 1ef2 073e 629f a6bc 6c59 7fbc
00000130: aaf8 ed3d 48da 2c3e 0f91 debd 81f3 8cbd
00000140: 4f19 f5bc 1979 5cbd 8d10 fb3d 4713 0d3e
00000150: a50b 24bd 5072 8b3d 252b dab9 a20f e33d
00000160: afb3 0f3e 578a 123e 522d df3d 7c8c 913d
00000170: 835b ae3d 4806 17bd 7d6e 0bbc 1ffb a93d
00000180: 2b8c b6bd 284f ff3d 73e1 103e ddee 223e
00000190: e158 0b3a 9a73 943d b680 f53d f535 4f3d
000001a0: 6777 2c3e 3b65 1d3e dea3 c03d 35a9 aebb
000001b0: fbb6 f9bd dcc9 6d3d 1b4e 09bc d6f6 79bd
000001c0: 1e1a f1bd 52b8 ab3d 72b4 0bbe 405e fabd
000001d0: e1fc 04bd d2ad a23d d3f2 d23d 0707 163e
000001e0: fa68 04be 8950 573d 5abc 663d 83ce d2bd
000001f0: fbbb 63bd 8c0f 95bd ae10 d0bd 1e1e ed3d
