models/ppo/Catan/ppo_catan_model_update450.pth (torch, 145076 bytes, 9 tensors)

shared.0.weight f4 [128, 10]
00000000: 41b0 133e d376 233e be90 0c3e 51ac c8bd
00000010: 874a 353e 6678 0f3c 2184 b03e e5f3 61be
00000020: a0c2 e03e 63e3 2ebc 7466 103e 96a1 11be
00000030: b871 2fbe d151 863e 3fdd f83d 372a 413e
00000040: 7dd5 46be 475b abbd a2a3 f8bd 0224 083d
00000050: 8383 d8bc 5c17 14be 0154 513e cf57 583d
00000060: 4a19 fbbd f3f1 1b3d 2a9a ae3e cfb8 763e
00000070: b0b1 ef3d 2519 85bc 6e76 93be 01ad 593e
00000080: 00ba a83d d56c 6ebd 65ac 2a3e 6784 a63e
00000090: 7866 4e3e f24f 30bc 3021 833e ded1 79be
000000a0: 212a 5bbe 9a16 9cbe 4a01 e3bd ff6e 8cbe
000000b0: d9ff 0e3e 01bb bf3d 6cb7 1c3e 253c 3c3e
000000c0: 201a 8ebe 4b50 913d 6d29 7b3d a1a5 f8bd
000000d0: 843a 99bd e80b 483c 78c3 5dbe ad13 4abe
000000e0: 4d90 10be 0227 4c3e 83ab 6f3e dd45 9a3c
000000f0: e85b 8e3e 46cf 9b3e 36e6 af3c 23e0 34be
00000100: 759a 45bd 65f6 253d 0bd8 87be 5fab e03e
00000110: 571f 12bd a16f 09be a4b4 ae3e cf96 69be
00000120: cbf3 0ebe eadb 0bbd fa09 eb3d 39cc 1ebe
00000130: ef91 5cbe 5b18 13be 7c7c 2c3e 25db f33d
00000140: dc38 6e3e 5939 9bbe cc79 693e c2ce 953c
00000150: d952 28be 9210 ae3e a323 fabd 435a aebe
00000160: 55db 54be 39fe c8ba 0700 783e 888e 953e
00000170: 99a6 aebd fdb4 1ebd 5890 debc bb9f c13c
00000180: 9ea0 2e3e a2fc a83d 53e2 8fb8 f75c 623e
00000190: 2ce4 523e 734c 51be 8e37 38bd 41a5 663d
000001a0: 389d 633d 9751 633e 0ea4 b63d 3c60 683e
000001b0: 0702 74bc 1709 6f3e 062e ad3d e1b8 d4bd
000001c0: 716d 60bd d03b e6bc 0bd6 5f3d eaf5 6f3d
000001d0: 807b 06be 546b bf3d 6018 dabe 3536 263d
000001e0: 130f 8e3d 1d92 eb3d 2790 9dbd 5724 30be
000001f0: 944b 0a3e 4f83 353e 5bf3 48be 44bd acbe
00000200: 2fde 40be 7dce 473e 78c1 733e c07d f03d
00000210: cb35 5d3e 9e85 603e 6eeb ecbd 99f9 823e
00000220: 743f 0abc f3c7 d83d acae 9ebc 5648 1c3e
00000230: 70c2 8f3e 3f4a 15bc a8ed e33d 2986 ce3c
00000240: 8c8a 703d b997 1aba 2b4a 4e3e 794c a1be
00000250: 293d c13d 1ed0 29be 81bb e6bd 598f 76bd
00000260: 8722 6a3e 39d4 643d 7644 683e 4067 6c3d
00000270: 8223 60be 2a64 8c3e 7eab 813e 9098 593e
00000280: d33a 943e 639e 4bbe 0b3d 9f3e 2587 11bd
00000290: 1d08 883d 61e4 4f3c 41c9 8d3e be5a b2bb
000002a0: 8d33 6a3e 5fe8 d2bd b46d 2d3e 70ac dcbd
000002b0: 8ba2 66be 3353 853d cb8a 3f3d c13d 153d
000002c0: d9d6 6bbe c525 0fbe a182 c4bd 5666 10bd
000002d0: b4d1 933d 17e6 ec3d e6ae 043d e0e5 7d3e
000002e0: 47bf 2cbe ea2c bf3e a556 5dbe 738c 6ebe
000002f0: 89ad efbd 709e d3bc d87f 863c c7eb 783e
00000300: abad 65be 9a6a fcbd cd4e e63d d001 903d
00000310: 4c7c 90be a9b5 37be c68f 463e 1182 503e
00000320: 62e7 16bd 77d9 883e aaf8 a63d 6130 f03c
00000330: 0346 75be 80e5 a7bb 062d 8abe e508 a2be
00000340: cdc4 8c3b e445 463c a49a 8fbe 0c05 e03d
00000350: 67bf 943e 06f9 1d3e e109 2e3d a27b 3e3d
00000360: 094d 93bd 00f9 10be 11ba 9cbd 6bce 443e
00000370: b1ba 723e d509 70be 13de 353e dc50 423e
00000380: c956 743e ab5e c6bc 9755 c7bc 3650 d63c
00000390: dccf 0abe 2858 3cbd 827c a8bb 08e2 163e
000003a0: 11f4 2d3d 9691 10be 5117 9b3e 95ab 06be
000003b0: 08e6 b1bd 42a4 cdbd 9cb0 473e 080a 79be
000003c0: c7dd 67be e9fd 903c 83f6 0b3d 84d2 37be
000003d0: 234e 96bd 5a65 01be d2b1 923e 04fe 98be
000003e0: 901e 7ebd e936 b73d c58c 56be e7d5 f4bd
000003f0: cf82 4dbd 2a00 d43d ea21 34be 8452 86be
0.14422704 0.15963297 0.1372709 -0.09798492 0.17704211 0.008756733 0.34475806 -0.22065695
0.43898487 -0.01067433 0.14101583 -0.14221796 -0.17133224 0.26234296 0.12151574 0.1886376
-0.19417377 -0.08367019 -0.121405855 0.033237465 -0.026429897 -0.14462036 0.20442201 0.052818116
-0.12260683 0.038072538 0.34101993 0.24093936 0.11703813 -0.016247341 -0.28801292 0.21257402
0.08238602 -0.05820926 0.16667326 0.3252289 0.20156276 -0.010761248 0.25611258 -0.24396464
-0.2140279 -0.30485994 -0.1108423 -0.27428433 0.13964786 0.0936184 0.15304345 0.18382318
-0.27754307 0.07095393 0.061318804 -0.12140966 -0.07481864 0.01220987 -0.21656597 -0.19734068
-0.14117546 0.19936755 0.2340527 0.018832142 0.27804494 0.30431575 0.021472078 -0.17663626
-0.048243005 0.040518183 -0.26532015 0.43880746 -0.03567442 -0.1342149 0.34122193 -0.22811435
-0.13960187 -0.034145273 0.11476512 -0.15507592 -0.21540044 -0.1436476 0.16844362 0.11907033
0.23263878 -0.3031719 0.22800368 0.018287066 -0.16437854 0.33997017 -0.122138284 -0.3405324
-0.20786794 -0.0015334553 0.2421876 0.29210305 -0.0852787 -0.038746823 -0.027168438 0.023635736
0.17053458 0.08251311 -6.8609275e-05 0.22105776 0.20594853 -0.2043932 -0.044974856 0.056309942
0.055569857 0.22199093 0.0891801 0.2269296 -0.0148930615 0.23343311 0.08456044 -0.10386825
-0.05479187 -0.028104693 0.054647487 0.05858413 -0.13133049 0.09346643 -0.42596722 0.04057904
0.06936469 0.11502478 -0.076935105 -0.17201363 0.13505393 0.17725872 -0.19624083 -0.33738148
-0.18834756 0.19512363 0.23804271 0.11742735 0.21602552 0.21925971 -0.11568342 0.25581053
-0.00843798 0.10585012 -0.0193704 0.15261969 0.28078032 -0.00911194 0.11129314 0.025210457
0.05872588 -0.0005897242 0.2014548 -0.31503657 0.094354935 -0.16583297 -0.11266232 -0.0601953
0.22864734 0.055866454 0.22682366 0.057715654 -0.21888545 0.2742017 0.2532615 0.21249604
0.2895113 -0.19884638 0.3110126 -0.035529274 0.066421725 0.012688727 0.27692607 -0.005442946
0.22871228 -0.102982275 0.1693638 -0.10775077 -0.22522943 0.065100096 0.046763223 0.036435846
-0.23031177 -0.13979252 -0.09595228 -0.035253845 0.07217732 0.11567324 0.03239336 0.24794722
-0.16869842 0.37338954 -0.21615084 -0.23295765 -0.11703021 -0.025832385 0.016418383 0.24308692
-0.2242953 -0.1232502 0.11245499 0.07031596 -0.2821983 -0.17940392 0.19390783 0.20362116
-0.036841758 0.26728413 0.08152898 0.029319944 -0.23952489 -0.005123794 -0.26987475 -0.3164741
0.0042959214 0.012101624 -0.2804767 0.109384626 0.29052278 0.15427026 0.04248989 0.046504624
-0.07192428 -0.14157486 -0.07652677 0.19219367 0.2370403 -0.2344125 0.17760496 0.18976158
0.23861231 -0.024215063 -0.024332805 0.026161294 -0.13555855 -0.04598251 -0.0051417956 0.14734662
0.042469088 -0.14118037 0.30291227 -0.13151391 -0.08686453 -0.10041095 0.19500965 -0.24320233
-0.22643195 0.017699199 0.03417064 -0.17951399 -0.07339122 -0.12636319 0.2865129 -0.298813
-0.062040865 0.0894602 -0.20952137 -0.11954861 -0.050173577 0.10351594 -0.17591062 -0.2623483

shared.0.bias f4 [128]
00000000: 60f1 d8be 0b11 2cbe d0cf 023f 8536 f4bd
00000010: b450 c1bd 0a31 80be f627 953e 2c09 edbd
00000020: c91c 3e3e df41 5d3e af4e ce3d 81ef 033f
00000030: 64c9 7cbc 04bc 8bbe b956 58bb 6fde 8bbd
00000040: 5f40 9fbd aaea 253e 172e a8be 038d 363e
00000050: 3ac3 853d 7f76 c83e 1fd4 9f3e 54f5 d2bd
00000060: d9bd 613e 753b 3bbd 58d8 54be fdb5 80be
00000070: 65e3 88be 0e55 423e d343 78bd 1336 0bbe
00000080: fd7f 51be 8519 1dbe 55df 9d3e b325 2f3e
00000090: 9f0f e83e 66d8 2ebe f19d c93e c121 0abc
000000a0: afd7 03be 105e 22be f90c e23e 6905 da3d
000000b0: f8d9 653e d40c a0be 4d22 bb3d 60fa 18be
000000c0: f21e cdbd 0d31 523d ccf7 d03d cac0 56be
000000d0: 7f0b 713e bdaa 6cbe e34e 9bbe d01d 773d
000000e0: 0307 383d 2e83 633e e174 e23e 828f e43c
000000f0: d357 b53e a82f 0cbd 263c 363e bc5b eb3e
00000100: 5967 8fbd 2cd6 0ebd a6a3 6a3e 5468 8ebe
00000110: a217 0fbe 1e5b 8e3e 6183 d43d 80f3 803d
00000120: 4a30 503e 9d5c 97be 7d03 77be e034 14bd
00000130: e777 11be 180e 55be e6fe be3e 132c 9fbe
00000140: 86ae 74be 34e4 d13e 9b5d b83d 89c1 983e
00000150: 778b 813d 0ff8 3fbc 17ce 91bd dc6f c33e
00000160: 3c66 acbd faed 14be a062 6cbe a9e7 1fbe
00000170: 66b3 063e c19e d63e e0a3 69be 7ba7 66bd
00000180: 21a8 b1be 07a1 aabe e9cf a7be 46d4 f0bc
00000190: 819c 0cbe 2731 d0bd 104c e73e b16a aabe
000001a0: 9bba 49be 3b35 dd3d cd60 bfbe 7d2b 343e
000001b0: d2ac e43e 5644 d93d 7e3a 293e ee90 283c
000001c0: b87c e03e 0564 86be 223f 513e 08c3 513e
000001d0: 8d6b 12be 535b b6be 91a4 17be f4c0 213e
000001e0: 8401 9dbd d8fe 6b3e d051 ca3c 1c0a 18b8
000001f0: 6c26 9e3e 5f50 16be 9611 01be f095 ae3d
-0.42371655 -0.16803376 0.51098347 -0.11924461 -0.09439221 -0.25037414 0.2913205 -0.11574015
0.18565668 0.21607159 0.100736015 0.5153733 -0.015428875 -0.27291882 -0.0033010675 -0.06829535
-0.0777595 0.16202798 -0.32847664 0.17827229 0.06531377 0.39152905 0.31216523 -0.10300699
0.22045077 -0.045711 -0.20785654 -0.25138846 -0.26735988 0.18977758 -0.060611557 -0.13594846
-0.2045898 -0.15341766 0.3083445 0.17104225 0.45324418 -0.17074737 0.39378312 -0.008430899
-0.12875246 -0.15856194 0.44150522 0.10645563 0.2244643 -0.31259787 0.09137402 -0.1493926
-0.10015668 0.05131631 0.102035135 -0.2097198 0.23539542 -0.23112006 -0.30333623 0.060331166
0.044928562 0.2221801 0.44229797 0.027900461 0.35418567 -0.034225136 0.17796382 0.45968425
-0.07002134 -0.03487222 0.2291399 -0.2781397 -0.13973859 0.27803892 0.10376621 0.06296444
0.20330921 -0.29562846 -0.24122424 -0.036183238 -0.14205895 -0.20806158 0.37303847 -0.31088313
-0.238947 0.40994418 0.09002229 0.29835156 0.06325429 -0.011716857 -0.07119387 0.3817128
-0.08417937 -0.14543906 -0.23084497 -0.15615715 0.13154373 0.41917995 -0.2281642 -0.056312066
-0.34698585 -0.3332598 -0.3277581 -0.029398095 -0.13731577 -0.10165625 0.4517522 -0.33284524
-0.1970009 0.108011685 -0.3737854 0.17594714 0.446631 0.10608737 0.16526219 0.01028846
0.43845153 -0.26248184 0.2043424 0.20484555 -0.1429884 -0.3561655 -0.14808871 0.15796262
-0.07666305 0.23046434 0.024697214 -3.624904e-05 0.3088869 -0.14679097 -0.12604365 0.08524692

actor.0.weight f4 [128, 128]
00000000: b5f5 5cbd fa59 89bc ccd0 73bc 3736 36bd
00000010: 77b8 68bd fbd4 2e3d a7ef 77bd 03bc 593d
00000020: 1575 4f3d 0a2f 333d fee7 0bbc b96a 8dbd
00000030: 2171 ad3d 2964 a7bd f090 8d3d ff0a 803c
00000040: 208f 4c3d acd1 8c3d 9b9d 953d 197b 9c3d
00000050: b9d8 753d a4f5 543d e60c 473c b76b e0bc
00000060: 1d75 f93c 3785 203d dce1 bd3d cefb 35bd
00000070: c93b 4bbd f7eb 63bd 58eb 303d 65a4 033d
00000080: 4100 d5ba 10af 92bc 5159 2f3d a037 a83d
00000090: 4515 68bc e91c b13d d8a3 91bd ad1f b2bd
000000a0: 719c 71bd 4912 a8bd 3b3b 0fbb 958a 663d
000000b0: fa0a f13c 8925 07bd dae0 d7bc 8cd3 6bbb
000000c0: a03b 72bc d1a0 04bd 489c 7d3d d560 1a3d
000000d0: 1e29 003d 16da acbd 2e15 e5bc 0c70 543d
000000e0: 51c0 1b3d 29c4 4b3d d611 a4bd 58e2 83bd
000000f0: cd33 573d 1fb0 393c 7395 2ebd e237 b1bd
00000100: 9b46 2ebd 07b3 ac3d 3ef0 363d 3f16 17bb
00000110: 4183 803c efbb 103d 6119 8cbd 1eb4 863d
00000120: 6b4b 513d 6720 293c 57b3 4a3d 9809 0ebc
00000130: baf3 d6bc 9119 413c 7251 c7bd df99 b03d
00000140: 9c2f 013d 0701 59bd aee4 5cbd c119 a8bd
00000150: 04e4 59bc 7b6a 853d 735b 2e3d 9641 3e3d
00000160: 379f b03d 7bba 8abd c229 543c 0653 563d
00000170: a39a c9bb 28a2 71bd 5d8e a2bd a234 413d
00000180: 7a1a a5bd a786 64bd 8c4c 0f3d 0569 0d3d
00000190: 867e a73c 3ad6 313b 41a0 af3d a3c4 6bbd
000001a0: b490 5abc 3aa1 293d 146b ccbb d943 233d
000001b0: ef81 843d 4d47 f5bc 7f19 42bc a73c 963d
000001c0: efbb 7fbc 77e1 943d 117f 6ebd 394f 7d3d
000001d0: 3228 8dbd 136d 843d 23af b43d 16ff 07bd
000001e0: e6b8 9d3d e2c9 363d 7c38 e6bb 1e20 d53d
000001f0: 67ef e2bc cb70 3eba a715 2abd 4180 753d
00000200: f4f5 a73c 3026 bd3c 209f 9a3b 42cd 413d
00000210: b362 30bd 807e 95ba edae 75bd f3be 7dbd
00000220: b80d 053d ef0d 35bd 0e77 8abd 8410 aabc
00000230: 80fa 4f3c 901f 95bb 4463 4dbd d355 88bd
00000240: 0ec4 96bd e343 963d 8421 933c 5eea 01bd
00000250: e007 2bbd e43f ab3c 64b4 41bd 70d6 5a3c
00000260: 0ecc 5bbd 55e5 af3d c8ca a93c 50d0 54bd
00000270: a2a3 123d 0096 c0bc d869 6f3c b0eb 8e3c
00000280: 4ae7 f8bc 2087 b83b 7c95 c7bc 7e4a 503d
00000290: 0567 54bd 00d7 68bb d002 91bc 35d7 0abd
000002a0: 00b4 b63a c9f1 8d3d f60b 393d 4843 12bc
000002b0: c60c 04bd 0014 fdb8 3af0 86bd cc48 2bbd
000002c0: 8075 abbd a747 30bd d02e 06bc 03c3 843d
000002d0: 204f 333b 3a70 543d c07b a63a b037 d93b
000002e0: 9096 d0bb a851 d53c cc59 be3c 42a1 373d
000002f0: b808 bb3c 9f44 873d 709f f3bb 346a c03c
00000300: 6cb9 eb3c 4002 ed3a bee7 493d 2ede f1bc
00000310: 8867 2c3c 0086 543b 18b8 a0bd be48 89bd
00000320: 04e7 8cbc 5658 303d ac0c b2bc 5e4a 473d
00000330: 64f0 51bd 2f40 adbd 3cd5 03bd 6312 52bd
00000340: 2c1d 9ebc baff 14bd aa6a f0bc 0933 93bd
00000350: 6d81 97bd 8008 40bb a066 95bd b8f4 cc3c
00000360: eb45 67bd a04a d1bb bdf1 8b3d 0885 ffbc
00000370: 60ea 143b fdc6 903d c4a3 f43c e0eb 9fbc
00000380: e2cf 7ebd 2bdc a63d 42e7 edbc d034 113d
00000390: 340d 35bd f0de b73b 5253 1a3d b83a 633c
000003a0: a4f0 1bbd 3aca 6c3d c5ed 8ebd 2843 71bc
000003b0: 906e d5bb 7671 9dbd abc4 873d dcc2 75bd
000003c0: cf33 823d 4008 0dbc 2048 963c f73a 88bd
000003d0: ee4d 223d 7c6c b0bd d815 6fbc 3cea 4dbd
000003e0: e011 df3c c97e 9cbd 13d4 a03d 2cde 62bd
000003f0: 2877 82bd 6f6d 16bd d095 1bbc 1aa5 2e3d
-0.053945262 -0.016766537 -0.014881324 -0.044485297 -0.056816544 0.042683583 -0.060531285 0.053157818
0.050648768 0.04374603 -0.008539198 -0.06905121 0.08468843 -0.08173401 0.0691241 0.015630243
0.049941182 0.06875929 0.073054515 0.076406665 0.060021136 0.051992074 0.012149071 -0.027395112
0.030451352 0.039189544 0.09271595 -0.044429593 -0.049617562 -0.055644955 0.04319319 0.0321392
-0.0016250686 -0.017905742 0.04280979 0.082137346 -0.014165227 0.08648092 -0.07111329 -0.08697448
-0.058987085 -0.082066126 -0.0021855372 0.056284506 0.02942418 -0.03299478 -0.026352335 -0.0035984246
-0.0147847235 -0.03237993 0.06191662 0.037690002 0.031289212 -0.08440034 -0.0279642 0.05186467
0.038025204 0.04974762 -0.080112144 -0.06439656 0.052539635 0.011333494 -0.042622995 -0.08653237
-0.042547803 0.08432584 0.044662707 -0.0023054031 0.015687587 0.035335477 -0.06840778 0.065773234
0.051097315 0.010322667 0.049487438 -0.0086692795 -0.026239265 0.011785881 -0.09732331 0.086230986
0.031539544 -0.052979495 -0.053929023 -0.08208037 -0.013298992 0.0651445 0.04256768 0.046449266
0.08624118 -0.067738496 0.012949409 0.05232527 -0.0061524673 -0.058992535 -0.0793731 0.047169335
-0.08061691 -0.055792477 0.03498511 0.034523983 0.020446073 0.0027135746 0.08575488 -0.057560574
-0.013340164 0.041413523 -0.0062383506 0.039859626 0.06470095 -0.029941225 -0.011846899 0.07335787
-0.015608772 0.072695665 -0.05822665 0.06184313 -0.06892432 0.06466117 0.08822467 -0.033202253
0.07701282 0.044626124 -0.0070257764 0.104065165 -0.027702047 -0.0007264732 -0.041524556 0.059936766
0.020503022 0.023089498 0.004718676 0.04731489 -0.043062877 -0.0011405498 -0.059981275 -0.06194968
0.032483786 -0.04420274 -0.06760989 -0.020759828 0.012694001 -0.0045508817 -0.050143495 -0.06656995
-0.07361613 0.07337167 0.017960317 -0.03171765 -0.041755557 0.020904489 -0.047291175 0.01335679
-0.0536614 0.085886635 0.020726576 -0.051956475 0.035800584 -0.023509026 0.014612637 0.017446369
-0.030383725 0.0056313425 -0.024363272 0.05085229 -0.05185606 -0.003552854 -0.017701536 -0.033896644
0.0013939142 0.069308825 0.045177422 -0.008927174 -0.032238744 -0.000120677054 -0.06588788 -0.04181747
-0.08372021 -0.043037083 -0.008189872 0.06482508 0.0027360395 0.05186484 0.0012701675 0.006628953
-0.0063656047 0.026039913 0.023236178 0.04483152 0.022831306 0.06604885 -0.007434778 0.023488142
0.02877494 0.0018082336 0.049293272 -0.029524889 0.010522731 0.0032428503 -0.07847613 -0.067033276
-0.0172 0.043052994 -0.021734558 0.048654906 -0.051254645 -0.08459508 -0.032185778 -0.051287066
-0.01930102 -0.036376692 -0.029347736 -0.071874686 -0.07397733 -0.0029301941 -0.07294965 0.025019035
-0.056463163 -0.00638707 0.06833217 -0.031191364 0.0022722706 0.07069204 0.029863246 -0.019521654
-0.06220997 0.081474625 -0.029040936 0.035450757 -0.044202045 0.005611293 0.037677117 0.01386898
-0.03807129 0.057810046 -0.06978945 -0.014725484 -0.006513424 -0.076876566 0.06629308 -0.060000286
0.06357538 -0.008607924 0.018344939 -0.06651872 0.0396251 -0.08614442 -0.01459261 -0.05027221
0.027230203 -0.0764137 0.0785295 -0.05538766 -0.063703835 -0.036725458 -0.009496167 0.042637922

actor.0.bias f4 [128]
00000000: 5d61 86bd cd65 8c3d 36aa a23d 6ddb 7c3d
00000010: 4b1c dbbc 88ce 863d dad5 3c3c 4002 2dbd
00000020: d830 cfbc ef08 1e3c 49db 493d 135d fb3c
00000030: 26c5 6d3d 0f8f 103d 0415 7bbb de46 943d
00000040: 9ed5 a3bd 847c b5bc e90a 813c dd4f 90bd
00000050: f596 12bd 92cc 223d b2b4 fcbc e8d2 7f3c
00000060: 84e6 c1bd b11e 5bbd 035e 863d 71b5 f7bc
00000070: 14c5 593d df54 853d 10e2 9bbd e674 7fbc
00000080: 21ba af3b dc2a f6bc ddf5 87bd fd1a 8c3c
00000090: 796c 8ebd 8b9b 8ebc 2b25 5bbd 4373 113c
000000a0: 6289 b1bd 40e8 8bbd 1457 45bd 136a 8d3d
000000b0: 7831 bb3d 6db2 243d 76b8 f53c 027b e1bc
000000c0: bb90 31bd 2207 3b3d 58fc 5c3d 1e3d 4a3b
000000d0: 539f a0bc 8ca1 7fbd 0a8c fe3c b951 243d
000000e0: 0c4b 963d 774b cd3d a718 603d 9204 793d
000000f0: b399 e6bc 071d 043c 3051 863d 0e92 1cbd
00000100: 5919 7c3d 53d7 4a3d d2fa d13d 6e2e 603d
00000110: a745 a63c ee90 40bd cf3e 26bd 2d72 253d
00000120: 5ee6 a8bc 7f76 c63d 46dd 19bd b198 3dbc
00000130: 65d8 4abd 159b b939 8fed fa3b c198 b53c
00000140: 54a9 353d bba8 cabd 379c 30bd fc6c 4e3d
00000150: 144f 803c e594 89bc 83ad 853c a0e1 81bc
00000160: b148 53bd d76b b03d 5283 a6bd bcfb dd3a
00000170: 76e5 0f3d 5f83 a6bd 1f60 873d bc09 7f3b
00000180: 24a5 3fbb ae3d 59bc 37e3 c03c 7259 d23d
00000190: 280a dcbc b47a 45bd e29e 673d 53ae 2d3d
000001a0: cbed 9e3c d31c 313d 542e 303d c602 a0bc
000001b0: 368e 34bc 373a ae3d 5ad5 5d3d c2cf 96bc
000001c0: fb1e db3d 903f 343d e66e d03c f0fa 8abc
000001d0: 4dcd 1b3c 5eb8 e43b 201f 8f3d 4eab 6eba
000001e0: 90cd 983d cac7 96bb 8605 2d3d 177c 363d
000001f0: d6e7 6fbd 94ca 07bb 770b 323d 8a50 fe3c
-0.06561539 0.068553545 0.079426214 0.0617327 -0.02674689 0.065823615 0.011525596 -0.042238474
-0.025291845 0.009645685 0.049281392 0.03068403 0.058049344 0.03529268 -0.0038312087 0.07240079
-0.079997286 -0.0221541 0.015752273 -0.07046483 -0.035788495 0.039745875 -0.030847881 0.015614249
-0.094677955 -0.053496066 0.065609 -0.030237885 0.053166464 0.065103285 -0.076114774 -0.015591836
0.0053627645 -0.030049734 -0.066386916 0.017102713 -0.06954283 -0.017408153 -0.053502243 0.008877578
-0.08668782 -0.068314075 -0.048178747 0.06904998 0.09140295 0.040209223 0.029995184 -0.027524475
-0.043350916 0.0456611 0.05395159 0.0030859183 -0.019607222 -0.062409922 0.031072635 0.040117
0.07338533 0.100241594 0.05471101 0.060795374 -0.028149461 0.008063561 0.06558454 -0.038225226
0.06154761 0.049521755 0.10252918 0.05473178 0.020296885 -0.047013216 -0.040587243 0.04039209
-0.02061766 0.0969057 -0.03756454 -0.011572049 -0.049522776 0.00035401495 0.0076577137 0.022167565
0.044350937 -0.09895464 -0.043117728 0.050396904 0.015662707 -0.016794631 0.016318088 -0.015854657
-0.051582996 0.08614319 -0.08130516 0.0016935985 0.03513094 -0.08130526 0.066101305 0.0038915714
-0.0029242719 -0.0132593345 0.023545844 0.102709666 -0.026860312 -0.048212722 0.056548007 0.042402577
0.019400498 0.04324038 0.043012932 -0.019532572 -0.011020234 0.08507197 0.054158546 -0.018409614
0.106992684 0.04400593 0.025443505 -0.01696536 0.009509397 0.006979986 0.069883585 -0.0009104506
0.07461083 -0.0046014534 0.042241596 0.044551935 -0.058570705 -0.0020720111 0.043467965 0.031044263

actor.2.weight f4 [5, 128]
00000000: 231f b2bd d297 91bd 94e1 d9bd 0be4 423c
00000010: cb71 51bd 5928 4fbb 1440 093d 8770 2a3d
00000020: dd4c 34bd 966b 913c 9a5f 533d a6ee 4dba
00000030: 219d b5bc 164c a4bd 4ed4 95bc bcec b2bd
00000040: 87f2 693d 5c1c f2bc c888 25bd 27d8 403d
00000050: 43e2 933d b19b a5bb 2b30 00bd 085b 83bd
00000060: 5d8b 963d eed3 4c3d e85f e23c 4dac acbd
00000070: 6066 3e3d e573 dc3c ca7a 9abd b07e 31bd
00000080: f108 f23c 31cc bdbc b882 0c3d 136a 3dbd
00000090: 2868 82bd e1c8 afbd b4c0 9ebc eb9d 67bd
000000a0: fc09 b2bd d80b 293d 5e3c 7a3d 62d9 493b
000000b0: 7d37 ddbd e213 2bbd c183 e7bc 2028 863d
000000c0: 1df9 013d 9e2d a5bd bf76 4abd ff14 02be
000000d0: ab96 89bd 017f 313d 6c61 26bc e09e 26bd
000000e0: f7bc 763c 80e6 eabd 2d02 243d ede4 403c
000000f0: 1326 d0bd 1c89 6d3d 5d98 57bd 1731 423d
00000100: 5b16 063c 3173 d1bc 2802 d5bd 12cb 37bd
00000110: f5ae 9d3c cb28 99bc c322 d5bd 5daa 93bd
00000120: 7b19 82bd ee85 0cbc 98d5 b9bd 4e78 6e3d
00000130: 8486 34bd 66bc c3bd 4a2f 86bc e643 8f3c
00000140: 9c99 07bc b0fd 923c 0b67 bbbb 5286 e6bd
00000150: 85ce 1ebd da0f 823d d4bb abbc 8ff2 f2bd
00000160: b879 a3bd d0b9 d63c 73d8 49bd eb24 12bd
00000170: c64d 99bd d027 113d 0d2b e93c 38b7 0dbd
00000180: b067 983c 1896 b0bc a381 023d e0b2 c7bc
00000190: f669 0a3d c9ee 5bbd d8f5 6d3d 6865 13bd
000001a0: df7e 60bd a763 76bd e732 dfbd 8214 943d
000001b0: d226 5e3c b2ec 85bd f4af a9bc d8dc 023b
000001c0: dc47 96bb 0501 0ebd ed0e afbd 82ff 50bb
000001d0: ab04 b4bd 331d 133d e9df 993d 6299 b2bd
000001e0: 2257 ccbd 16fd 44bc d9d9 973c 30aa 953d
000001f0: fb07 a1bd ebd5 6bbc 52cb 02be 98c5 e8bd
00000200: fbf9 6139 470a b0bd fe2e af3d f171 abbc
00000210: 29c4 c13d 928b 973d bff3 543d aca0 fabc
00000220: 87f7 cf3d e94e 67bd 1243 f139 51c9 94bd
00000230: 748e 8d3d 6078 843d 3ac2 1bbd cb85 1a3d
00000240: 5e6a 7dbd bd58 49bd 24b7 693d 056f 8f3d
00000250: ef40 2fbd 7975 22bd 0cd9 a3bc 5189 8bbd
00000260: 7d65 a6bd 3f78 0ebd e098 213b d91f d63c
00000270: 1345 b8bd b068 8e3c c8a7 acbb 803b 813c
00000280: a731 3ebd c9e5 9b3d fdb7 993c b7b0 8bbb
00000290: aafb f6bc c9f2 d6bd 401b 83bc f427 6cbd
000002a0: c660 943d e802 7b3d 8d90 9d3d 253a 6fbc
000002b0: 5cc7 2a3d 314e b5bd 0d0b 513d d499 19bd
000002c0: a446 a63d 63af dc3c cd66 953d 4a3a ffbb
000002d0: 108d 7c3a 1b3a 3f3c d5ed a1bd f90a 1e3d
000002e0: 9c85 dfbc 46c0 29bd 530a 013d 9cb6 77bd
000002f0: 7b7f 063d 5542 02bc 75c0 b53d 88ab 6f3d
00000300: dc0d 323d 1fef 88bd e5b1 11b9 6214 16bd
00000310: e1e1 3dbd 026b a3bc f0c2 7b3d 2b52 0bbb
00000320: b88a 90bc 7fa5 4d3c f5fc 793d 64a2 c0ba
00000330: 1dce 4cbd eba9 ccbb 9865 a33d 0548 bfbd
00000340: 2aac 4a3c 2ae3 493d c1b2 863c 8fca c73d
00000350: aa73 b9bd 30d6 193b c68b 70bd 10ca 0bbd
00000360: dd4a 893c aa05 d83c 727a 03bc 914b 4fbc
00000370: f7aa a3bd b3b5 353d 5c1f 01bc 60a8 a2bd
00000380: f65e 833d 7ec8 283c f21c 803d 6627 993d
00000390: ac53 bb3d f389 653d 3ab5 6bbd 826a 93bb
000003a0: c98e afbd 864b 053c b8e3 2c3d 514d 89bd
000003b0: 47cf bf3c 88f3 de3c 00a2 4e3a e496 c73c
000003c0: ce00 04bd c2dd af3d e159 ba3c 4217 2c3d
000003d0: 7080 493d 6a9f b6bd 9f41 a3bd 06fc 353d
000003e0: 5233 1fbd 8360 543d b55d 58bd eb8f 25bd
000003f0: 352f d4bc bfbe aebc fb1c 9b3d 89d8 7ebd
-0.08697345 -0.071090356 -0.10638729 0.01189519 -0.051133912 -0.0031609742 0.033508375 0.04161122
-0.044018615 0.017751496 0.051604845 -0.0007855691 -0.022169651 -0.08022325 -0.018289711 -0.0873656
0.057116058 -0.029554538 -0.040413648 0.04708114 0.072208904 -0.0050539603 -0.031295937 -0.06413847
0.073508 0.0500068 0.027633622 -0.08431301 0.04648435 0.026910732 -0.075429514 -0.04333371
0.02954528 -0.023168655 0.03430435 -0.04624374 -0.063675225 -0.085832365 -0.019378997 -0.056547087
-0.086933106 0.04127106 0.061092727 0.0030799736 -0.10801599 -0.04176701 -0.028261067 0.06550622
0.031731714 -0.080653414 -0.04942965 -0.12703322 -0.06718191 0.04333401 -0.010155063 -0.04067886
0.015059701 -0.11469746 0.040041137 0.01177333 -0.10163512 0.057992086 -0.05263554 0.047410097
0.008184041 -0.025567623 -0.10400802 -0.044871397 0.019248465 -0.01869621 -0.10407021 -0.072102286
-0.06352516 -0.008576853 -0.09073943 0.0582202 -0.044073597 -0.095574185 -0.016379971 0.017488431
-0.008276369 0.017943233 -0.005719071 -0.11256088 -0.03877117 0.0635068 -0.020963587 -0.11862671
-0.079822004 0.02621165 -0.049278688 -0.03567974 -0.07485537 0.03543836 0.028462911 -0.03459856
0.01860413 -0.021555945 0.031861912 -0.024377286 0.03379246 -0.05369452 0.058095783 -0.03598538
-0.054808494 -0.06015363 -0.10898381 0.07230474 0.01355906 -0.06539287 -0.020713784 0.001996806
-0.004586203 -0.03466894 -0.08547769 -0.0031890576 -0.08789953 0.03591652 0.075134106 -0.08720662
-0.09977557 -0.012023231 0.018536495 0.07307851 -0.0786285 -0.014394264 -0.12772873 -0.11365813
0.00021550797 -0.0859571 0.08553885 -0.020928355 0.09461243 0.07399668 0.051990267 -0.030594192
0.10154634 -0.05647174 0.00046017073 -0.072649606 0.069119364 0.06468272 -0.038027026 0.03772525
-0.061869018 -0.049156893 0.057059422 0.07003597 -0.042786535 -0.039662812 -0.020000957 -0.068133004
-0.08124826 -0.034782644 0.002465777 0.026138233 -0.0899755 0.017383903 -0.0052690245 0.015775442
-0.04643407 0.076121874 0.01876449 -0.0042630094 -0.0301493 -0.10495526 -0.016004205 -0.05765529
0.072450206 0.06128207 0.076935865 -0.014601265 0.04169403 -0.088528045 0.05103593 -0.037500218
0.081189424 0.0269391 0.07294998 -0.007788931 0.0009634057 0.011671568 -0.07906691 0.038584683
-0.02728539 -0.041443132 0.031503987 -0.060476884 0.03283642 -0.007950385 0.08874599 0.058513194
0.04347025 -0.06686234 -0.00013894548 -0.036640532 -0.046357993 -0.019948486 0.061465204 -0.0021258693
-0.017644271 0.012551664 0.061032254 -0.0014696834 -0.050001252 -0.0062458417 0.07978362 -0.093399085
0.012370149 0.049288906 0.016442658 0.09755432 -0.09055264 0.0023473613 -0.05872705 -0.03412825
0.01675933 0.026369888 -0.008024799 -0.012652294 -0.07991593 0.044362735 -0.007881012 -0.07942271
0.06414597 0.010301707 0.06255521 0.07478218 0.091468185 0.05603976 -0.057545878 -0.0044987807
-0.08572156 0.008135682 0.042209357 -0.067042 0.023414267 0.027215734 0.0007882416 0.024363942
-0.03222733 0.08587219 0.022747936 0.042014368 0.049194753 -0.089171246 -0.079715006 0.0444298
-0.038867302 0.051849853 -0.05282374 -0.040420454 -0.025901416 -0.02133119 0.07573887 -0.062218223

actor.2.bias f4 [5]
00000000: 7b85 debd 9219 9d3d ce44 92bb 0c94 90ba
00000010: d014 063d
-0.10865303 0.07670893 -0.0044637686 -0.001103045 0.032734692

critic.0.weight f4 [128, 128]
00000000: c1a1 fa3d 9253 503c 36f6 c7bd 0019 38bd
00000010: 6f97 a3bb f380 333c 3d3d eabc 7c84 c43c
00000020: cc5f c5bd 18b1 473d 8283 943c fb5e dfbb
00000030: 618b ea3c f33b 513b 0c5f 263c 6098 9f3d
00000040: 7943 69bd f240 dabd 64f9 b43c 3803 2dbd
00000050: ad1b 863d 0bec 89bd b225 7a3d aec0 983d
00000060: ef2b 05be 9591 5a3d c22d 793d ec2a bebd
00000070: 9a2d 5ebd 08ff c1bc 0025 35bd e596 023b
00000080: e34c 143d 3b90 4e3d c582 a93c 1ada 11bd
00000090: af0d 823b 818f 3ebd 195a 6c3c 3b03 c2bd
000000a0: 70c9 3cbd 85f3 98bd 3040 243d 1868 98bd
000000b0: 2c88 c0bc c1e9 eb3d 19e4 5dbb c87b 34bc
000000c0: 8285 8cbd 333f e83d edc0 94bb 8eb1 bc3c
000000d0: c385 173d 68d1 b43d 685e f7bd e4b4 a93c
000000e0: e657 4f3d 7e79 a1bd 9352 823d fd6c 653d
000000f0: 7453 843d 6dfa d4bc 1c38 96bc 3168 b2bd
00000100: ddff d6bd 7938 353d c8e4 ffbc baac 5d3d
00000110: 170a 193e 36e5 21bd ba93 37bd 95c8 e33a
00000120: a425 01bd aa23 97bc 3de3 7abd 17a9 98bd
00000130: 142f 1f3d de00 a4bd 978b 503d 6ebd c6bc
00000140: df07 20bd b208 353c 881b e3bb 6b05 c6bd
00000150: 8136 963d ccd1 a83d 98a2 603d 4e41 373d
00000160: 964d c63c d0fb a73d 2d14 8cbd 5dbd b63b
00000170: 57b2 603d de71 66bd 3a6a 3a3d 6930 a33d
00000180: da29 18bd 19ff dc3d c024 af3c a829 7bbd
00000190: cc03 6e3d 59ea 7fbd 909c 9bbd f91e 60bd
000001a0: 02a8 ccbc 2ba4 a53d 2392 a73d 8754 8e3d
000001b0: 1569 e03c 1d7e a4bc 7e1e 233b 7efa abbd
000001c0: 3b3b 97bd f16a 803d b063 12bd 1bd4 483d
000001d0: 56e8 d5bd b9e8 8cbc 4990 943d 7593 25bd
000001e0: f3c2 e3bc 8f3b 48bd b9d5 483c 8a5a 4cbd
000001f0: 8de5 c1bd 70f5 00bd d04e 2bbc 7487 983d
00000200: 97b1 a03d 3df5 60bd 685b ae3c 87bd 863d
00000210: a1ea b1bd 9773 a9bd dc4f b43c 1285 58bd
00000220: a460 903c 12b1 77bd 2a75 5ebd 00d1 73ba
00000230: f5db ae3d ab14 a6bd ecf8 8cbc 3eb7 8ebd
00000240: a061 dbbb 64ca 1dbd 80e7 6f3c 7018 10bc
00000250: 7a46 8cbd da4e 363d fe88 393d 582b 35bd
00000260: eb8e a83d 3e09 b2bd 804d 50bc f8da 87bd
00000270: 0095 6eba 2530 01bd e253 593d a572 953d
00000280: cb22 22bd 22a4 3d3d ebde 15bd b4a8 2cbd
00000290: 3686 30bd 6b14 78bd 3082 a6bb bc57 a8bc
000002a0: 6ae2 9bbd 76bd 273d 630d 82bd 2cfe e13c
000002b0: 8bf1 833d b5e0 ae3d 1d07 57bd b8f0 83bc
000002c0: 9b23 973d 066b 3cbd 1c80 2abd ac2d 9cbc
000002d0: fb48 64bd 1887 54bd dbcf 823d 6896 8abd
000002e0: 1600 683d b87d 0abc da63 473d be72 183d
000002f0: de86 aebd 318e 44bd a46e 35bd 1b7d 1bbd
00000300: 609c 64bd 0e84 88bd 5fa8 a33d a832 433c
00000310: f81f d73c 11da 13bd 1b39 34bd a61d 6fbd
00000320: 2709 953d e4e3 b33c b683 4abd b430 8fbc
00000330: a9da 823d b0b9 ac3c 3f52 5dbd ca75 91bd
00000340: abf2 88bd 27a0 ac3d 8410 e13c 3708 923d
00000350: a517 863d 1669 d4bc 8425 d0bc dba6 46bd
00000360: f07e b4bb f43e 84bd a262 d8bc d02a 31bd
00000370: 7da9 08bd 7cb6 97bc a5a2 2fbd 231d 873d
00000380: f21a 9fbd 6651 9ebd 0093 51bb 904c 0cbc
00000390: be25 0dbd 2021 fd3b 3867 82bd f72c 05bd
000003a0: ecc8 a93c b02f adbb 4c34 c83c 12d3 6cbd
000003b0: bc46 a1bc 2a4a b3bd 6013 d43c e1b3 8e3d
000003c0: e1c9 a23d ff44 3ebd 18a5 25bc 4a43 6c3d
000003d0: 768d e9bc 2a7c 02bd fbe7 833d 1898 e7bc
000003e0: ec1d a3bc caf3 88bd 387c 8cbc f797 56bd
000003f0: 172d 893d 861d 323d b09b 203c 7043 093d
0.12237883 0.012715237 -0.09763758 -0.044945717 -0.0049924175 0.010956037 -0.028593654 0.023988955
-0.096374124 0.048752874 0.018129114 -0.0068167425 0.028630914 0.0031926602 0.010154497 0.07792735
-0.056949113 -0.106569186 0.022091575 -0.042239398 0.065482475 -0.06734475 0.061071105 0.07458626
-0.1300504 0.053361494 0.060834654 -0.092855304 -0.054242708 -0.023681179 -0.04422474 0.0019926366
0.036206137 0.050430518 0.020692239 -0.03560839 0.0039689164 -0.046523575 0.014425778 -0.094732724
-0.046090543 -0.07468323 0.040100276 -0.07441729 -0.023502432 0.115191944 -0.003385788 -0.01101584
-0.06861402 0.11340179 -0.0045396 0.023033883 0.0369928 0.088290036 -0.120785534 0.020716138
0.050620936 -0.07884501 0.06363406 0.056012142 0.0646123 -0.025998319 -0.018337302 -0.08711279
-0.10498021 0.04424331 -0.031237021 0.054119803 0.14945255 -0.039525233 -0.044818617 0.0017378504
-0.031530038 -0.018449623 -0.061251868 -0.07454126 0.038863257 -0.08007978 0.050914373 -0.024260249
-0.039070006 0.011049436 -0.006930772 -0.09669002 0.073346145 0.082431406 0.05484256 0.044740014
0.024206918 0.08202326 -0.06839786 0.005576773 0.054857578 -0.056260936 0.04551146 0.07968218
-0.037149288 0.107908435 0.021379828 -0.061319023 0.05810909 -0.06247935 -0.07598221 -0.054717038
-0.024982456 0.08087953 0.0818217 0.06949716 0.027393857 -0.020079667 0.002489 -0.08397387
-0.07384344 0.062703975 -0.0357396 0.049030405 -0.10444705 -0.017200815 0.07254083 -0.04042383
-0.02780292 -0.048884925 0.012257987 -0.049891032 -0.094676115 -0.031484067 -0.010455802 0.07447711
0.078463726 -0.054921377 0.02128382 0.06579118 -0.0868733 -0.08274 0.022010736 -0.05286128
0.017624207 -0.0604716 -0.054310955 -0.0009300858 0.08538047 -0.08109411 -0.017208539 -0.069685444
-0.0066949874 -0.038523093 0.014642596 -0.008794889 -0.0684938 0.044508792 0.04529666 -0.04423079
0.082303844 -0.08693169 -0.01271379 -0.06633562 -0.0009101182 -0.031540055 0.053058513 0.07297257
-0.039583962 0.046299107 -0.036589544 -0.042153075 -0.043096744 -0.060566347 -0.0050814375 -0.020549648
-0.076115444 0.04095217 -0.063502096 0.027587019 0.06442555 0.08538953 -0.052497018 -0.016105995
0.07379838 -0.046000503 -0.04162608 -0.019064747 -0.055733662 -0.051886648 0.063873015 -0.06766969
0.056640707 -0.008452825 0.04867921 0.0372188 -0.085218176 -0.047987167 -0.04429497 -0.037961107
-0.055813193 -0.066658124 0.079910986 0.011913933 0.026260361 -0.036096636 -0.043999773 -0.058377884
0.07277136 0.021959253 -0.049442016 -0.017479278 0.06389362 0.021084636 -0.054033514 -0.071025446
-0.0668691 0.08428984 0.027473696 0.07130473 0.065474786 -0.025929015 -0.025408514 -0.04849897
-0.005508296 -0.0645732 -0.02641422 -0.04325372 -0.03336476 -0.018519633 -0.04287972 0.06597354
-0.07768811 -0.07730369 -0.0031978488 -0.008563176 -0.034459822 0.007724896 -0.06367344 -0.032513585
0.02072569 -0.005285226 0.024439 -0.05781848 -0.01968705 -0.0875438 0.025888145 0.06967903
0.079486616 -0.04645252 -0.010110162 0.05768136 -0.028509837 -0.031856693 0.06440731 -0.028270766
-0.019911729 -0.06687124 -0.017149076 -0.05239102 0.06698053 0.043485187 0.009802744 0.03351158

critic.0.bias f4 [128]
00000000: a8a3 bcbd bc62 043d 7301 1c3e ba9b a53d
00000010: 059c abbd 11f1 38bd 6541 813d 6262 2c3e
00000020: 73b3 073e a6be 6dbd 95ef 96bd 60ed d23d
00000030: 9341 3b3d 1095 2d3e be0d a33d e03b 163e
00000040: 44a6 d13d 4530 dbbd 03aa b13d d950 e9bc
00000050: 5a68 903d c4f0 433e c2fa 273d bdbc 793d
00000060: 3c39 dabd 1007 5d3d 0c3f 29bd af29 acbc
00000070: 8b51 b4bd 17da b23d 5ae3 bebd 632f 173e
00000080: fe67 243e 8eb7 3fbe c578 fd3d 98cf 913c
00000090: b5db 793d 3635 2dbe b937 9b3c 6775 fabd
000000a0: 6e3e 18bd 18ff 50bd b8c4 353e 675c a73d
000000b0: ac45 b43d 1cff 96bc 4244 bdbd d5d1 1ebe
000000c0: 03c0 54bd e351 cb3d f87d 9fbd aae0 293e
000000d0: 458a 04be 8b9f 4dbd cde9 80bd 5b3b 143e
000000e0: 3a1c 6fbd 1c47 243d 3ccf cf3c 0478 b3bd
000000f0: 21ce d4bc 0dcc 4abd 76be f43d d14b 08be
00000100: b21b bfbd dbff 72bd 09a9 c73d be28 483e
00000110: 3261 283e 4f62 4c3d 8b10 a83d 0b0a 1d3e
00000120: 6772 ba3c dad3 3f3e e2e5 743c 5172 82bd
00000130: fc33 b83d 4749 213e e0fc a5bd 254c 843d
00000140: 999a 023c 6b52 82bd 0fae ae3d 0877 0a3e
00000150: 085d ddba 77a4 ba3d a98c 80b8 c5f8 373e
00000160: 3acb bb3d eebf f23d 49c6 873d 0f2f 2a3e
00000170: d647 1b3e 4927 f9bc e0d4 393d 1102 ad3d
00000180: c9b8 84bd f342 513e 0104 533d 0926 133e
00000190: 8e8f 533d 2d95 fe3d 023c 253e 8b7e 923d
000001a0: e684 b03d ecb8 a13d 5fe6 643e f050 2c3c
000001b0: a095 49be af01 123e a7fe 95bd a0d3 edba
000001c0: ceca 4ebe 43f7 303d bacf 23be e79f 63be
000001d0: 192a 7c3c 24fc 073e d44f 363e b5b5 aa3d
000001e0: e67f d3bd eaf3 503e dad3 193e bc82 34be
000001f0: d3bb ecbc 2736 5b3d b50b 6dbd cd26 483e
-0.092109025 0.032320723 0.15234928 0.08086343 -0.08379368 -0.045151774 0.06311301 0.16834405
0.13252048 -0.058043145 -0.073699154 0.10299182 0.045716833 0.16951394 0.079616055 0.14671278
0.10236791 -0.10702566 0.08675005 -0.028480934 0.070511535 0.19134814 0.041010626 0.06097101
-0.10655448 0.053961813 -0.04131989 -0.02101597 -0.088046156 0.087330036 -0.093207076 0.1476417
0.16055295 -0.18722364 0.123765506 0.017799184 0.061000545 -0.1691483 0.01894747 -0.12229424
-0.037168913 -0.051024526 0.17750823 0.08171921 0.08802351 -0.018432193 -0.09241535 -0.15509732
-0.05194093 0.09927728 -0.077876985 0.16589609 -0.1294337 -0.05020098 -0.06294594 0.14475767
-0.05837653 0.040106878 0.025367372 -0.087631255 -0.025977196 -0.049511004 0.1195039 -0.13310172
-0.09331454 -0.059326034 0.09749038 0.19546792 0.16443327 0.049898442 0.0820628 0.15335862
0.02275963 0.18733159 0.014947386 -0.063694604 0.0899429 0.1575061 -0.08104873 0.06459836
0.007971429 -0.06363376 0.08529293 0.1352197 -0.0016888687 0.091134004 -6.1297156e-05 0.17965992
0.09169622 0.11853014 0.06629617 0.16619514 0.15164122 -0.03041424 0.04536903 0.0844766
-0.064805575 0.20435695 0.05151749 0.14369978 0.051650576 0.12430797 0.16136172 0.071530424
0.08619098 0.07896599 0.22353505 0.010517344 -0.19685984 0.14258455 -0.07323962 -0.0018144734
-0.20194551 0.043204557 -0.1599721 -0.22228967 0.015390896 0.13279778 0.1780389 0.08335439
-0.10327129 0.20405546 0.15022221 -0.17627996 -0.028898155 0.05351844 -0.057872493 0.19546051

critic.2.weight f4 [1, 128]
00000000: f0f1 d4bc cc21 d1bc c865 2a3e d853 ff3d
00000010: c1a7 18bd 36ff 49bd c14f 27bd ad02 d73d
00000020: 173c 823d 1c58 97bd 9504 5e3d b358 003e
00000030: 7d1f 99bc 66ff 783d cc55 373d 1f52 c73d
00000040: 9b83 a93d 3440 1abe 03a5 9c3d 22aa 74bd
00000050: 7e6d 063e 3423 953d 8119 7a3d b7a7 ddbb
00000060: 25f8 96bd c266 a5bd e27e 96bd 4eea f4bb
00000070: 4e8a 78bd 44e5 8e3d 81ae dfbd 67b0 173e
00000080: a4ca d63d ce61 d3bd 5a9c 383d 41f5 84bd
00000090: ab44 003e a43e cdbd 1cb2 b3bd ba19 86bd
000000a0: 04a7 8cbd 54f6 38bd e299 a63d 1d3c ef3d
000000b0: 2883 cb3d 665c 0e3b 2816 f5bd 040b d6bd
000000c0: 7d29 9d3c 3fed c73d caa5 0dbe 6e8b 193e
000000d0: 5d0f 97bd 4a21 0dbd cb69 a9bd 3422 c73d
000000e0: b164 2ebe 51a4 a9bd bacb 40bd 207b f0bd
000000f0: 59f6 71bd fc9a 00be 5a63 8e3d b548 f1bd
00000100: b529 47bd de13 abbd 0089 273d b65c 763d
00000110: 5424 093e d979 d83d a6b4 8e3d 6d4c a43d
00000120: db1b 79bb 7659 073e 629f a6bc 6c59 7fbc
00000130: 6819 ee3d ff08 273e aeff d6bd 81f3 8cbd
00000140: 1716 f5bc 1979 5cbd f2a8 f93d 9f2c 0c3e
00000150: a50b 24bd 8f70 893d 8208 b6b7 d91e e23d
00000160: 3ab8 0f3e dff9 0d3e e373 de3d b274 8f3d
00000170: 6a6c ac3d 4806 17bd 7d6e 0bbc d3bc a83d
00000180: bb6f b4bd 7a6a ed3d 9790 0e3e e23a 223e
00000190: 7dc7 0c3a a6cf 923d 155c ec3d d3eb 473d
000001a0: dd0b 233e 6913 173e 6446 b73d 35a9 aebb
000001b0: eda1 f3bd f1dc 6a3d 1b4e 09bc d6f6 79bd
000001c0: f04a efbd c79e ab3d 0532 09be bff3 f3bd
000001d0: 43ce 04bd 6949 a13d 1549 c43d 7507 153e
000001e0: 0bea 01be d50e 523d a0fa 603d b4e1 ccbd
000001f0: fbbb 63bd 0408 95bd b513 cbbd 50ab e83d
-0.025994271 -0.02552881 0.16640389 0.12467164 -0.037269358 -0.049315654 -0.040847544 0.10498557
0.063591175 -0.073898524 0.05420359 0.12533836 -0.018691773 0.060790442 0.044759557 0.0973246
0.08277055 -0.15063554 0.07648661 -0.059732564 0.13127705 0.07282105 0.06105948 -0.006764378
-0.073715486 -0.0807624 -0.0734842 -0.0074742204 -0.060678773 0.06977323 -0.10921956 0.14813386
0.104878694 -0.10321389 0.045070983 -0.06492091 0.12526195 -0.100217134 -0.08774206 -0.06547876
-0.06867793 -0.04515679 0.081348196 0.116813876 0.099371254 0.0021722554 -0.119671166 -0.1045132
0.019184822 0.09762048 -0.13832775 0.14994594 -0.07375977 -0.034455575 -0.082721315 0.097233206
-0.17030598 -0.08283294 -0.04706929 -0.11742234 -0.059072826 -0.12559122 0.069525436 -0.11781446
-0.04862376 -0.08353399 0.040902138 0.06014701 0.13392764 0.105701156 0.0696805 0.080223896
-0.0038010988 0.1321772 -0.020339672 -0.015585285 0.116259396 0.16312025 -0.10497986 -0.06882382
-0.02991776 -0.053826425 0.12190427 0.13688897 -0.040050168 0.06710922 -2.1700052e-05 0.1104104
0.1403512 0.1386485 0.108619474 0.0700468 0.08419116 -0.036871225 -0.008510229 0.0823914
-0.088103734 0.115925744 0.13922344 0.15842775 0.0005370302 0.07168512 0.11541001 0.048808884
0.15922494 0.14753498 0.08948973 -0.0053302296 -0.11896119 0.057339612 -0.008380438 -0.061026417
-0.11684215 0.08379894 -0.13397987 -0.11911725 -0.03242327 0.0787533 0.09584252 0.14553626
-0.12686937 0.051283676 0.054926515 -0.10003987 -0.055599194 -0.072769195 -0.09915868 0.113608
