models/ppo/Catan/ppo_catan_model_update100.pth (torch, 145076 bytes, 9 tensors)

shared.0.weight f4 [128, 10]
0	0x3e17bb61	0.14817573
1	0x3e1f2721	0.1554227
2	0x3e0bbd79	0.13646497
3	0xbdd364f3	-0.10321989
4	0x3e2f1033	0.17096023
5	0xbbbf735f	-0.0058426107
6	0x3eb32bce	0.34994358
7	0xbe4c7669	-0.19967045
8	0x3eb5dbfb	0.35519394
9	0xbca1190b	-0.019665262
10	0x3e1ae015	0.15124543
11	0xbe03b35c	-0.12861389
12	0xbe2a7f37	-0.16650091
13	0x3e8c671f	0.27422425
14	0x3e06afa1	0.13152935
15	0x3e537b18	0.20652425
16	0xbe379676	-0.1792849
17	0xbd915b23	-0.07097461
18	0xbe05c2fd	-0.13062663
19	0x3d59883b	0.053108435
20	0xbd5a7a94	-0.053339556
21	0xbe40bfd3	-0.18823175
22	0x3e53727f	0.20649146
23	0x3d4ea07f	0.05044603
24	0xbe29d2f2	-0.16584376
25	0x3c818c77	0.01581405
26	0x3eaa4768	0.33257604
27	0x3e54da0c	0.20786303
28	0x3e529742	0.20565513
29	0xbd126b3e	-0.035746805
30	0xbe8be01f	-0.27319428
31	0x3e59dc0f	0.21275352
32	0x3db2c16e	0.087283
33	0xbd59a9ff	-0.053140637
34	0x3e30b9ec	0.17258424
35	0x3ea530a9	0.32263687
36	0x3e7235cf	0.23653339
37	0x3c2a4210	0.010391727
38	0x3e6f752e	0.23384544
39	0xbe6a8aba	-0.22904482
40	0xbe5288bd	-0.20559974
41	0xbe9e9e18	-0.3097999
42	0xbda751ee	-0.08169924
43	0xbe8767cf	-0.26446387
44	0x3e1510cd	0.1455719
45	0x3decf58f	0.11570274
46	0x3e155601	0.14583589
47	0x3e407ea5	0.18798311
48	0xbe8cedea	-0.27525264
49	0x3db0cf56	0.08633296
50	0x3d9bee5c	0.07613823
51	0xbdef03ee	-0.116706714
52	0xbd8dbcd8	-0.06920785
53	0x3cc325a3	0.023821658
54	0xbe543631	-0.20723797
55	0xbe418b87	-0.18900882
56	0xbdfb399a	-0.12266846
57	0x3e54bf63	0.20776133
58	0x3e712084	0.2354756
59	0x3d0961fb	0.033540707
60	0x3e8cbf86	0.2748987
61	0x3e9bce70	0.30430937
62	0x3cab8832	0.020938966
63	0xbe501333	-0.20319824
64	0xbd42a0d7	-0.04751667
65	0x3d1005cf	0.03516179
66	0xbe8d5d3a	-0.2761019
67	0x3ed24a85	0.4107248
68	0x3d20ee45	0.03928973
69	0xbe122c47	-0.14274703
70	0x3ea7df9c	0.32787788
71	0xbe68ee55	-0.22747166
72	0xbe37bfcf	-0.17944263
73	0xbd9f20e7	-0.077699475
74	0x3dd0cc6f	0.101952426
75	0xbe40a837	-0.18814169
76	0xbe67718a	-0.22601905
77	0xbe1b5a6e	-0.15171215
78	0x3e017646	0.12642774
79	0x3db90db3	0.09035816
80	0x3e78a8f8	0.24283206
81	0xbe81dbce	-0.2536301
82	0x3e75b251	0.23993804
83	0x3cac3f2c	0.021026216
84	0xbe2d5ff5	-0.16931136
85	0x3eb05383	0.34438714
86	0xbdb46511	-0.088083394
87	0xbe9cc284	-0.30617154
88	0xbe88f3e0	-0.26748562
89	0x3c85e721	0.016345562
90	0x3e80b82a	0.25140506
91	0x3e99b7b4	0.30022967
92	0xbd990c26	-0.0747302
93	0xbd0eb36a	-0.03483907
94	0xbc8d7558	-0.017267868
95	0x3d16524b	0.036699574
96	0x3e293c69	0.16526951
97	0x3db02553	0.08600869
98	0x3cfc6063	0.03080768
99	0x3e6aa2b8	0.22913635
100	0x3e576b6b	0.2103707
101	0xbe573408	-0.21015942
102	0xbd204c42	-0.039135225
103	0x3d8170ae	0.0632032
104	0x3d743875	0.059624154
105	0x3e6e009b	0.23242418
106	0x3da28bb0	0.079367995
107	0x3e5fc4b0	0.21852374
108	0x3c9b02d4	0.018922247
109	0x3e72af1b	0.2369961
110	0x3da5f987	0.08104234
111	0xbe01f138	-0.12689674
112	0xbd5b6af8	-0.05356881
113	0xbcd6cbcc	-0.026220225
114	0x3d5d9bf5	0.05410381
115	0x3d860b31	0.06545103
116	0xbe101cee	-0.14073536
117	0x3d8aaf6b	0.067717396
118	0xbeaf9162	-0.34290606
119	0x3d2b608d	0.041840125
120	0x3d946ee1	0.07247711
121	0x3debce93	0.1151401
122	0xbda94dc0	-0.08266783
123	0xbe355fa7	-0.1771227
124	0x3e091be3	0.13389544
125	0x3e35eee2	0.17766908
126	0xbe3d0d69	-0.18462147
127	0xbe9eb38a	-0.30996352
128	0xbe7fede2	-0.24993089
129	0x3e4c968e	0.19979307
130	0x3e83a441	0.25711253
131	0x3e0942f6	0.1340445
132	0x3e6853d1	0.22688223
133	0x3e647fb7	0.22314344
134	0xbdd79972	-0.10527314
135	0x3e8ae6ab	0.2712911
136	0x3be627ac	0.007023772
137	0x3e0d3d24	0.13792855
138	0xbd266a1e	-0.040628545
139	0x3e2fbe00	0.17162323
140	0x3e8e1c29	0.2775586
141	0xbc3c0a33	-0.011477041
142	0x3de418d2	0.111375466
143	0x3cd8a80a	0.026447315
144	0x3d454f4d	0.04817133
145	0xbd18dea0	-0.037321687
146	0x3e58f894	0.21188575
147	0xbe91ceab	-0.28477988
148	0x3ce183a7	0.027528597
149	0xbe3c9e28	-0.18419707
150	0xbde24257	-0.110478096
151	0xbd6947bb	-0.056953173
152	0x3e76b761	0.24093391
153	0x3d89d34d	0.067297556
154	0x3e6ee27c	0.23328584
155	0x3d8f94ad	0.070107795
156	0xbe60d565	-0.21956404
157	0x3e8a6d5b	0.27036557
158	0x3e8da94b	0.27668223
159	0x3e634f17	0.22198139
160	0x3e9ade2c	0.3024763
161	0xbe44ad95	-0.19206841
162	0x3ea51b36	0.32247323
163	0xbcf7a0f8	-0.030228123
164	0x3d8d191c	0.06889555
165	0x3c60ba7d	0.013716337
166	0x3e9136f9	0.28362253
167	0x3c1584bf	0.009125887
168	0x3e639768	0.22225726
169	0xbdcafe6b	-0.099118076
170	0x3e48d204	0.19611365
171	0xbdbaf374	-0.09128466
172	0xbe5edeea	-0.21764722
173	0x3d6b12cf	0.057390984
174	0x3d80da41	0.06291629
175	0x3d86e600	0.06586838
176	0xbe6a3b03	-0.22874074
177	0xbe01bc21	-0.12669422
178	0xbdc3bcb2	-0.09557475
179	0xbc3f6b95	-0.011683364
180	0x3d616413	0.05502708
181	0x3dd77b66	0.10521583
182	0x3ca319a5	0.01990969
183	0x3e76d4e9	0.24104656
184	0xbe50d210	-0.20392632
185	0x3ebb0b94	0.3653227
186	0xbe4efcbc	-0.20213598
187	0xbe5e5532	-0.21712187
188	0xbe4d3782	-0.20040706
189	0xbcd4e6c9	-0.025988953
190	0x3d0816ef	0.033224996
191	0x3e87a5ac	0.26493585
192	0xbe52d9a4	-0.20590836
193	0xbdee9fa0	-0.1165154
194	0x3e08bde3	0.13353686
195	0x3de1689c	0.11006281
196	0xbe8ba930	-0.27277517
197	0xbe1511c2	-0.14557555
198	0x3e3f3cc2	0.18675521
199	0x3e707f8d	0.23486157
200	0xbd089fbd	-0.033355463
201	0x3e825c3f	0.25461003
202	0x3dcd1c5c	0.10015175
203	0xbbe481dd	-0.0069734887
204	0xbe87f4d0	-0.26553965
205	0x3b076633	0.002066028
206	0xbe7d5cad	-0.24742384
207	0xbe9ddf9d	-0.30834666
208	0xbd20c387	-0.03924897
209	0x3cdee7e9	0.027210193
210	0xbe8a917e	-0.27064127
211	0x3df45daf	0.11931931
212	0x3e9cd2b0	0.30629492
213	0x3e264e0a	0.16240707
214	0x3d5916eb	0.053000372
215	0x3d8564be	0.06513356
216	0xbd88e043	-0.066833995
217	0xbe0cebac	-0.13761777
218	0xbd6d1f60	-0.05789125
219	0x3e56120b	0.2090532
220	0x3e722dd7	0.23650299
221	0xbe7c87d5	-0.24661191
222	0x3e39f961	0.18161537
223	0x3e496c26	0.19670162
224	0x3e756233	0.23963241
225	0xbc8208bb	-0.015873304
226	0xbd0e549f	-0.03474867
227	0x3c555540	0.013020813
228	0xbdbd88b7	-0.09254592
229	0xbd3549d8	-0.044259876
230	0x3cd74b7b	0.02628111
231	0x3e13022b	0.14356296
232	0x3ce70a14	0.028203048
233	0xbdea7ab3	-0.11449184
234	0x3e9cb7fb	0.30609116
235	0xbe250784	-0.16116148
236	0xbd4310b4	-0.04762335
237	0xbd4c05e7	-0.049810316
238	0x3e32fb56	0.1747869
239	0xbe775306	-0.24152765
240	0xbe714fe0	-0.23565626
241	0x3d02752e	0.031850033
242	0x3c5c034d	0.013428521
243	0xbe53896c	-0.20657891
244	0xbd811dbf	-0.06304502
245	0xbde7d6f2	-0.113202944
246	0x3e85097c	0.25983799
247	0xbea08ceb	-0.31357512
248	0xbdc48196	-0.09595029
249	0x3d94a73b	0.07258459
250	0xbe4455ec	-0.19173402
251	0xbdf1635a	-0.11786528
252	0xbd52afda	-0.051437236
253	0x3dfc188d	0.1230937
254	0xbe2675db	-0.16255896
255	0xbe7b7e0f	-0.24559806

shared.0.bias f4 [128]
0	0xbeb2a764	-0.34893334
1	0xbe121280	-0.1426487
2	0x3ed6f3e1	0.4198294
3	0xbd80a72a	-0.06281884
4	0xbdd6b290	-0.10483277
5	0xbe776499	-0.24159469
6	0x3e57c884	0.21072584
7	0xbdc5902c	-0.09646639
8	0x3e830c4a	0.25595313
9	0x3e34c941	0.17654897
10	0x3d597ea5	0.053099293
11	0x3ededbcf	0.43527076
12	0x3d66e21f	0.05636799
13	0xbe5387d8	-0.20657289
14	0x3d5d18b0	0.053978622
15	0xbdd235b3	-0.102641486
16	0xbd42ff55	-0.047606785
17	0x3e305b9a	0.17222443
18	0xbe87827b	-0.26466736
19	0x3e62a47c	0.22133058
20	0x3dc5a2f7	0.09650224
21	0x3ebd5753	0.36980686
22	0x3e852708	0.2600634
23	0xbcedc03b	-0.029022327
24	0x3e58aa03	0.21158604
25	0xbd3b6b68	-0.045756727
26	0xbe07bc45	-0.13255413
27	0xbe7bde13	-0.24596433
28	0xbe6b6c1c	-0.22990459
29	0x3e42550e	0.18977758
30	0xbdd330a6	-0.10312013
31	0xbdfcf204	-0.12350848
32	0xbe54f49e	-0.20796439
33	0xbe202048	-0.15637314
34	0x3e815dc1	0.2526684
35	0x3e4fabf2	0.20280436
36	0x3ec9badc	0.39400375
37	0xbdf1d164	-0.11807516
38	0x3eae6436	0.3406083
39	0xbd1f2001	-0.03884888
40	0xbe3a371d	-0.18185087
41	0xbdb163b0	-0.08661592
42	0x3ec97eee	0.39354652
43	0x3d635a5e	0.055506103
44	0x3e682d5e	0.22673556
45	0xbe859604	-0.26091015
46	0x3e1efe5a	0.15526715
47	0xbda51839	-0.08061261
48	0xbdcd1ef2	-0.10015668
49	0x3dccdba2	0.10002829
50	0x3dff9d25	0.12481145
51	0xbe0aac79	-0.13542356
52	0x3e398550	0.18117261
53	0xbe4b00c8	-0.19824517
54	0xbe8fd848	-0.28094697
55	0x3ceae13e	0.028671857
56	0x3dd11ce7	0.10210591
57	0x3e250090	0.16113496
58	0x3ec17d35	0.37790838
59	0x3d0315d9	0.032003257
60	0x3e947818	0.28997874
61	0xbd8939a9	-0.06700451
62	0x3e7529c8	0.2394172
63	0x3ec6c6f9	0.3882368
64	0xbdd37741	-0.1032548
65	0xbd29a5a6	-0.04141774
66	0x3e86e57c	0.26346958
67	0xbe4a1ca1	-0.19737484
68	0xbd90d16e	-0.070711955
69	0x3e5dd786	0.21664247
70	0x3e1b59dd	0.15170999
71	0x3b78a97b	0.0037942815
72	0x3dcec551	0.10096229
73	0xbe92f1c2	-0.28700072
74	0xbe34a335	-0.17640384
75	0xbdddc6fb	-0.10828968
76	0xbd988c8f	-0.074486844
77	0xbe2e07e0	-0.16995192
78	0x3e940da6	0.28916663
79	0xbe9ed096	-0.31018513
80	0xbe5b6793	-0.21426229
81	0x3eab9a89	0.33516338
82	0x3e1405c3	0.14455323
83	0x3e7128c5	0.23550709
84	0x3dfd1ce6	0.123590276
85	0x3d490a15	0.04908188
86	0xbdeb333c	-0.114843816
87	0x3ea44765	0.3208572
88	0xbe0e174f	-0.13876079
89	0xbda4473b	-0.08021399
90	0xbe6c1392	-0.2305434
91	0xbe320ba9	-0.1738726
92	0x3db5360d	0.088482
93	0x3eafad05	0.3431169
94	0xbe497539	-0.19673623
95	0xbd3745ca	-0.04474429
96	0xbe990401	-0.29885867
97	0xbe8af0e0	-0.27136898
98	0xbe91bda8	-0.2846501
99	0xbd9432d4	-0.07236257
100	0xbd6770b6	-0.056503974
101	0xbcc7af56	-0.024375599
102	0x3ec172f6	0.3778302
103	0xbe82eb36	-0.25570077
104	0xbe53cce7	-0.20683633
105	0x3e00ff2d	0.12597342
106	0xbe99371a	-0.29924852
107	0x3e2d3f6d	0.16918726
108	0x3ecada9d	0.39619914
109	0x3d3e4579	0.046452973
110	0x3e2d36bb	0.1691541
111	0x3d297c9b	0.0413786
112	0x3ebbf14d	0.36707535
113	0xbe866405	-0.26248184
114	0x3e1c5da0	0.1527009
115	0x3e0ae19f	0.1356263
116	0xbdf427ad	-0.1192163
117	0xbe9979e0	-0.29975796
118	0xbdff88df	-0.12477278
119	0x3dcae554	0.09907022
120	0xbd622c50	-0.05521804
121	0x3e8187b5	0.2529885
122	0x3dbc67b0	0.09199464
123	0xbd27c441	-0.040958647
124	0x3e835138	0.25647902
125	0xbdcdd6c8	-0.10050732
126	0xbe00953e	-0.12556931
127	0x3d1034d2	0.035206623

actor.0.weight f4 [128, 128]
0	0xbd228f3c	-0.03968738
1	0xbc47fa69	-0.0122056985
2	0xbc96b40e	-0.018396404
3	0xbd383fca	-0.04498271
4	0xbd777130	-0.06041068
5	0x3d333c17	0.043758478
6	0xbd75f3a1	-0.060046796
7	0x3d932a23	0.07185771
8	0x3d5037a1	0.0508343
9	0x3d3884c7	0.0450485
10	0xbbc79412	-0.0060906494
11	0xbd848da4	-0.06472328
12	0x3dac40ff	0.084108345
13	0xbda53916	-0.08067529
14	0x3db49f24	0.08819416
15	0x3c8c7b65	0.017148683
16	0x3d6de742	0.058081873
17	0x3d9f2f1d	0.07772658
18	0x3d85cb46	0.06532912
19	0x3d99324b	0.07480296
20	0x3d5d821a	0.054079153
21	0x3d4f1e6a	0.050566114
22	0x3cbfc5f8	0.023409829
23	0xbce9fd45	-0.028563151
24	0x3d0b432f	0.03399962
25	0x3d120df3	0.035657834
26	0x3dbf5dab	0.093440376
27	0xbd544a14	-0.05182846
28	0xbd2bd60a	-0.04195217
29	0xbd63ebf7	-0.055644955
30	0x3d407bda	0.046993114
31	0x3cbd4b91	0.023107322
32	0x3b23533b	0.0024921435
33	0xbc932cdf	-0.017965732
34	0x3d52bff2	0.051452585
35	0x3d818145	0.06323484
36	0xbc75ef8e	-0.015010728
37	0x3da73b6e	0.08165632
38	0xbd8bf586	-0.06833939
39	0xbdb065ba	-0.08613153
40	0xbd1bca30	-0.038034618
41	0xbda6bf7d	-0.08141992
42	0xbc82bf28	-0.015960291
43	0x3d8f9458	0.07010716
44	0x3cd43931	0.025906177
45	0xbd0431ef	-0.032274183
46	0xbcc06163	-0.023483938
47	0x3c513169	0.012768128
48	0xbc723ba0	-0.0147847235
49	0xbcdea961	-0.027180376
50	0x3d871a61	0.06596828
51	0x3d0ff1d2	0.035142727
52	0x3d1acc66	0.037792586
53	0xbda2aa68	-0.07942659
54	0xbd3d6961	-0.046243075
55	0x3d7d20c6	0.061798833
56	0x3d3078d2	0.043083973
57	0x3d45d26d	0.04829638
58	0xbda373df	-0.07981085
59	0xbd426795	-0.047462065
60	0x3d5eae5b	0.054365497
61	0x3c4f082f	0.012636228
62	0xbd485582	-0.04890967
63	0xbda0b381	-0.07846738
64	0xbd442b05	-0.04789259
65	0x3da67dea	0.08129485
66	0x3d28e798	0.04123649
67	0x3adbcd3d	0.001676954
68	0x3c3d43ab	0.011551778
69	0x3d15a161	0.036530856
70	0xbd877b9d	-0.06615374
71	0x3d95ac91	0.07308305
72	0x3d00c137	0.031434264
73	0x3c30c5b9	0.010789328
74	0x3d43f37b	0.047839623
75	0xbc1381da	-0.009003127
76	0xbcc34d46	-0.023840558
77	0x3c150dd6	0.009097537
78	0xbdb90601	-0.09034348
79	0x3db04262	0.086064115
80	0x3d4b5b9f	0.049647924
81	0xbd461165	-0.048356432
82	0xbd7e34df	-0.06206214
83	0xbda856e3	-0.08219697
84	0xbc95c719	-0.018283414
85	0x3d84c60a	0.064830855
86	0x3d092290	0.033480227
87	0x3d4e0561	0.0502981
88	0x3da27e6e	0.07934271
89	0xbd85e801	-0.06538392
90	0x3c8d5f47	0.017257346
91	0x3d5b067c	0.05347298
92	0xbb5eca06	-0.0033994927
93	0xbd69e65d	-0.057104457
94	0xbda34c1e	-0.079735026
95	0x3d47eece	0.048811726
96	0xbda2bd7d	-0.07946298
97	0xbd46f671	-0.04857487
98	0x3cbc918c	0.02301862
99	0x3d20aea2	0.039229043
100	0x3d0e8706	0.034796737
101	0x3c0ba0c6	0.008522218
102	0x3dafcc32	0.08583869
103	0xbd644e95	-0.055739004
104	0xbcab09d7	-0.020878715
105	0x3d3c4b49	0.045970235
106	0xbb0ddcfa	-0.0021646605
107	0x3d26ece4	0.04075326
108	0x3d70c5f2	0.058782525
109	0xbcd9287f	-0.026508568
110	0xbc61d1a4	-0.013782892
111	0x3d9a6093	0.07537951
112	0xba461e07	-0.0007557575
113	0x3d94e177	0.072695665
114	0xbd6aef78	-0.05735728
115	0x3d6bb8d3	0.05754931
116	0xbd8ce82a	-0.06880219
117	0x3d8bbed3	0.06823506
118	0x3dbe8773	0.09303179
119	0xbcfc5983	-0.030804401
120	0x3d7db780	0.061942577
121	0x3cc39d1a	0.023878623
122	0xbbd40377	-0.0064701396
123	0x3dbf2ebd	0.093350865
124	0xbcf12bc9	-0.029439824
125	0x36884908	4.061618e-06
126	0xbd373731	-0.04473037
127	0x3d88f598	0.06687468
128	0x3ca7f5f4	0.020503022
129	0x3cbd2630	0.023089498
130	0x3b9a9f20	0.004718676
131	0x3d41cd42	0.04731489
132	0xbd3062b3	-0.043062877
133	0xba957e80	-0.0011405498
134	0xbd75aeed	-0.059981275
135	0xbd7dbef3	-0.06194968
136	0x3d050db8	0.032483786
137	0xbd350def	-0.04420274
138	0xbd8a770e	-0.06760989
139	0xbcaa1084	-0.020759828
140	0x3c4ffa80	0.012694001
141	0xbb951f90	-0.0045508817
142	0xbd4d6344	-0.050143495
143	0xbd8855d3	-0.06656995
144	0xbd96c40e	-0.07361613
145	0x3d9643e3	0.07337167
146	0x3c932184	0.017960317
147	0xbd01ea5e	-0.03171765
148	0xbd2b07e0	-0.041755557
149	0x3cab3fe4	0.020904489
150	0xbd41b464	-0.047291175
151	0x3c5ad670	0.01335679
152	0xbd5bcc0e	-0.0536614
153	0x3dafe555	0.085886635
154	0x3ca9cac8	0.020726576
155	0xbd54d050	-0.051956475
156	0x3d12a3a2	0.035800584
157	0xbcc09600	-0.023509026
158	0x3c6f69d8	0.014612637
159	0x3c8eebb0	0.017446369
160	0xbcf8e74a	-0.030383725
161	0x3bb88720	0.0056313425
162	0xbcc7957c	-0.024363272
163	0x3d504a7e	0.05085229
164	0xbd546705	-0.05185606
165	0xbb68d700	-0.003552854
166	0xbc9102d0	-0.017701536
167	0xbd0ad735	-0.033896644
168	0x3ab6b400	0.0013939142
169	0x3d8df1c9	0.069308825
170	0x3d390bf6	0.045177422
171	0xbc124348	-0.008927174
172	0xbd040cc6	-0.032238744
173	0xb8fd1400	-0.000120677054
174	0xbd86f03a	-0.06588788
175	0xbd2b48cc	-0.04181747
176	0xbdab7580	-0.08372021
177	0xbd3047a7	-0.043037083
178	0xbc062ed0	-0.008189872
179	0x3d84c303	0.06482508
180	0x3b334f20	0.0027360395
181	0x3d54703a	0.05186484
182	0x3aa67bc0	0.0012701675
183	0x3bd937b0	0.006628953
184	0xbbd09690	-0.0063656047
185	0x3cd551a8	0.026039913
186	0x3cbe59cc	0.023236178
187	0x3d37a142	0.04483152
188	0x3cbb08b8	0.022831306
189	0x3d87449f	0.06604885
190	0xbbf39f70	-0.007434778
191	0x3cc06a34	0.023488142
192	0x3cebb96c	0.02877494
193	0x3aed0240	0.0018082336
194	0x3d49e7be	0.049293272
195	0xbcf1de2e	-0.029524889
196	0x3c2c6788	0.010522731
197	0x3b548600	0.0032428503
198	0xbda0b818	-0.07847613
199	0xbd8948be	-0.067033276
200	0xbc8ce704	-0.0172
201	0x3d305856	0.043052994
202	0xbcb20cac	-0.021734558
203	0x3d474a5e	0.048654906
204	0xbd51f064	-0.051254645
205	0xbdad402f	-0.08459508
206	0xbd03d53c	-0.032185778
207	0xbd521263	-0.051287066
208	0xbc9e1d2c	-0.01930102
209	0xbd14ffba	-0.036376692
210	0xbcf06aaa	-0.029347736
211	0xbd933309	-0.071874686
212	0xbd97816d	-0.07397733
213	0xbb400880	-0.0029301941
214	0xbd9566a0	-0.07294965
215	0x3cccf4b8	0.025019035
216	0xbd6745eb	-0.056463163
217	0xbbd14aa0	-0.00638707
218	0x3d8bf1bd	0.06833217
219	0xbcff8508	-0.031191364
220	0x3b14ea60	0.0022722706
221	0x3d90c6fd	0.07069204
222	0x3cf4a3c4	0.029863246
223	0xbc9febe0	-0.019521654
224	0xbd7ecfe2	-0.06220997
225	0x3da6dc2b	0.081474625
226	0xbcede742	-0.029040936
227	0x3d1134d0	0.035450757
228	0xbd350d34	-0.044202045
229	0x3bb7def0	0.005611293
230	0x3d1a5352	0.037677117
231	0x3c633ab8	0.01386898
232	0xbd1bf0a4	-0.03807129
233	0x3d6cca3a	0.057810046
234	0xbd8eedc5	-0.06978945
235	0xbc714328	-0.014725484
236	0xbbd56e90	-0.006513424
237	0xbd9d7176	-0.076876566
238	0x3d87c4ab	0.06629308
239	0xbd75c2dc	-0.060000286
240	0x3d8233cf	0.06357538
241	0xbc0d0840	-0.008607924
242	0x3c964820	0.018344939
243	0xbd883af7	-0.06651872
244	0x3d224dee	0.0396251
245	0xbdb06c7c	-0.08614442
246	0xbc6f15d8	-0.01459261
247	0xbd4dea3c	-0.05027221
248	0x3cdf11e0	0.027230203
249	0xbd9c7ec9	-0.0764137
250	0x3da0d413	0.0785295
251	0xbd62de2c	-0.05538766
252	0xbd827728	-0.063703835
253	0xbd166d6f	-0.036725458
254	0xbc1b95d0	-0.009496167
255	0x3d2ea51a	0.042637922

actor.0.bias f4 [128]
0	0xbd868d23	-0.065698884
1	0x3d8c65cd	0.068553545
2	0x3d9ffe26	0.07812147
3	0x3d895193	0.06705012
4	0xbca9a31c	-0.02070766
5	0x3d86ce88	0.065823615
6	0x3c1d6466	0.009606456
7	0xbd2c6adf	-0.042094108
8	0xbcfc7248	-0.030816212
9	0x3c4cac85	0.012492304
10	0x3d14f31d	0.036364663
11	0x3d138cd7	0.036022987
12	0x3d7369e6	0.059427164
13	0x3d108f0f	0.03529268
14	0xbb499cb3	-0.0030763566
15	0x3da82d69	0.08211786
16	0xbd96ffdb	-0.07373019
17	0xbc9c3136	-0.019066434
18	0x3b04be72	0.0020255116
19	0xbd8ec918	-0.06971949
20	0xbd0bcc3f	-0.03413033
21	0x3d22cc92	0.039745875
22	0xbcd1b844	-0.02560056
23	0x3c7fd2e8	0.015614249
24	0xbdbc44f1	-0.09192837
25	0xbd5b1eb1	-0.053496066
26	0x3d865e03	0.065609
27	0xbd2b987c	-0.041893467
28	0x3d6c38ab	0.05767123
29	0x3d9e41bf	0.07727384
30	0xbd9a1da8	-0.07525188
31	0xbc6dd8f5	-0.014517059
32	0x3bafba21	0.0053627645
33	0xbcaddc48	-0.021223202
34	0xbd6edd2f	-0.058316406
35	0x3bf73dcf	0.00754521
36	0xbd970f42	-0.07375957
37	0xbc8ee8d6	-0.01744501
38	0xbd5a3eae	-0.053282432
39	0x3c432044	0.011909548
40	0xbda60fed	-0.08108506
41	0xbd8ace1a	-0.06777592
42	0xbd455714	-0.048178747
43	0x3d8571dd	0.06515858
44	0x3d9dbda6	0.07702188
45	0x3d233062	0.039841063
46	0x3d010963	0.031503092
47	0xbcb22604	-0.021746643
48	0xbd1447a7	-0.036201145
49	0x3d44d303	0.0480528
50	0x3d2e20a3	0.042511594
51	0xbbc6881c	-0.006058706
52	0xbce6e560	-0.028185546
53	0xbd6ad63b	-0.057333212
54	0x3ce22b59	0.02760856
55	0x3d3df908	0.046380073
56	0x3d59dbe3	0.053188216
57	0x3dc0bfbc	0.094115704
58	0x3d6e33ac	0.058154747
59	0x3d8262ca	0.06366499
60	0xbc999222	-0.01874644
61	0x3c38fb90	0.011290446
62	0x3d865130	0.06558454
63	0xbcdc38e8	-0.026882604
64	0x3d49ae2d	0.049238373
65	0x3d4d6164	0.050141707
66	0x3db49e64	0.08819273
67	0x3d602e6e	0.05473178
68	0x3cbc12a1	0.022958102
69	0xbd4090ee	-0.047013216
70	0xbd0e3deb	-0.03472702
71	0x3cea5156	0.028603237
72	0xbcad54ba	-0.021158565
73	0x3db967c6	0.09052996
74	0xbd19dd46	-0.03756454
75	0xbc23595b	-0.0099700345
76	0xbd4ad865	-0.049522776
77	0x3bd1d1f2	0.0064032013
78	0x3c6c726d	0.014431578
79	0x3c8bafa4	0.017051525
80	0x3d0e8c8a	0.034801997
81	0xbdbb96c0	-0.09159613
82	0xbd1e1b42	-0.038600214
83	0x3d31d622	0.043417104
84	0x3c7c58fd	0.015402076
85	0xbc381328	-0.011235036
86	0x3c18a548	0.00931675
87	0xbce9752f	-0.02849826
88	0xbd6f104f	-0.058365162
89	0x3d9a78f5	0.07542602
90	0xbda1833c	-0.07886359
91	0xbc197039	-0.009365135
92	0x3d0cc979	0.034371827
93	0xbda495cb	-0.08036383
94	0x3d7cf9e5	0.061761755
95	0x3bb2d8f3	0.0054579913
96	0xbb3fa524	-0.0029242719
97	0xbc60855d	-0.013703671
98	0x3c9d569c	0.019206338
99	0x3dc11f43	0.09429791
100	0xbc957b8e	-0.018247392
101	0xbd3f707f	-0.046738144
102	0x3d83de96	0.06438939
103	0x3d3c5baa	0.045985855
104	0x3ca11507	0.019663347
105	0x3d3d7056	0.04624971
106	0x3d346941	0.04404569
107	0xbc96cc6b	-0.018408021
108	0xbbb8670b	-0.005627518
109	0x3d976721	0.07392717
110	0x3d5dd55a	0.054158546
111	0xbced7de6	-0.028990697
112	0x3dbe46c2	0.0929084
113	0x3cb856f3	0.022502398
114	0x3d0f0b74	0.034923032
115	0xbc8afaf0	-0.01696536
116	0xbbb96733	-0.0056580543
117	0x3bcd709b	0.006269527
118	0x3d950b63	0.072775625
119	0xba8fe695	-0.0010978753
120	0x3d7cf8b3	0.061760616
121	0xbb96c7ca	-0.0046014534
122	0x3d220561	0.03955591
123	0x3d513c47	0.051082876
124	0xbd5db3b1	-0.054126445
125	0xbae63c5d	-0.0017565597
126	0x3d3291ca	0.043596067
127	0x3cf17b5f	0.029477773

actor.2.weight f4 [5, 128]
0	0xbdb1891d	-0.086687304
1	0xbd9197d2	-0.071090356
2	0xbda9d358	-0.08292264
3	0x3c280e64	0.010257337
4	0xbcb08c75	-0.02155135
5	0xbb4f2859	-0.0031609742
6	0x3d0630b1	0.03276128
7	0x3d2a7011	0.04161078
8	0xbcb04f62	-0.021522228
9	0x3c80133a	0.015634168
10	0x3d4fa900	0.05069828
11	0x3cc40d80	0.023932219
12	0xbcb60f8b	-0.022224208
13	0xbda44c16	-0.08022325
14	0xbc95cf06	-0.018287193
15	0xbd93d3aa	-0.07218106
16	0x3d80d1c7	0.06290012
17	0xbcf493ff	-0.029855726
18	0xbce43012	-0.027854953
19	0x3d40d840	0.047081232
20	0x3d93de48	0.07220131
21	0xbba59bb1	-0.0050539603
22	0xbc66ad7d	-0.014079449
23	0xbd835b08	-0.06413847
24	0x3da14b38	0.07875675
25	0x3d4cd3ee	0.0500068
26	0x3ce25fe8	0.027633622
27	0xbd8d19e9	-0.068897076
28	0x3d43bc6d	0.04778712
29	0x3d2b1330	0.041766346
30	0xbd9a509b	-0.075349055
31	0xbd3181fb	-0.04333685
32	0x3cf208f1	0.02954528
33	0xbc01409d	-0.00788894
34	0x3d14f0d1	0.036362473
35	0xbcc19e03	-0.023634916
36	0xbd3771a3	-0.044786107
37	0xbd8f2f76	-0.06991474
38	0xbc9d3035	-0.019188026
39	0xbd74ade0	-0.059736133
40	0xbd89881b	-0.06715413
41	0x3d290bcd	0.04127102
42	0x3d7a3c5e	0.061092727
43	0x3c2c965e	0.010533897
44	0xbdb43485	-0.0879908
45	0xbd3ff9d4	-0.046869114
46	0xbce568b4	-0.028004028
47	0x3d84a71a	0.064771846
48	0x3d34af92	0.04411275
49	0xbd8da7a4	-0.069167405
50	0xbcf47aad	-0.029843653
51	0xbdd9e793	-0.106398724
52	0xbd3c765e	-0.04601132
53	0x3d302cd7	0.043011513
54	0xbc3e944f	-0.011632039
55	0xbd2bab2c	-0.04191129
56	0x3ca202ac	0.019776665
57	0xbdcd25b6	-0.100169584
58	0x3d21648e	0.039402537
59	0x3c2d0448	0.010560103
60	0xbdb65302	-0.08902551
61	0x3d56daf2	0.052454896
62	0xbd57985d	-0.05263554
63	0x3d443690	0.047903597
64	0x3cedbdfc	0.029021256
65	0xbcd17825	-0.025569985
66	0xbdb0a936	-0.086260244
67	0xbd37cb12	-0.044871397
68	0x3cc3f2aa	0.023919422
69	0xbc9928cb	-0.01869621
70	0xbdb29260	-0.08719325
71	0xbd684eaf	-0.056715664
72	0xbd821ae4	-0.06352785
73	0x3b41daaa	0.0029579797
74	0xbdb9d598	-0.09073943
75	0x3d6fc4a6	0.058537148
76	0xbd348684	-0.044073597
77	0xbda3ed19	-0.08004207
78	0xbbd152e8	-0.006388057
79	0x3c71794d	0.014738393
80	0x3b74c232	0.0037347195
81	0x3ca07b84	0.019590147
82	0xbbc420e5	-0.0059853666
83	0xbdb8350e	-0.089944944
84	0xbca5ea75	-0.0202534
85	0x3d846069	0.06463701
86	0xbcb738a7	-0.022365881
87	0xbdd62798	-0.10456771
88	0xbd86f8d1	-0.06590427
89	0x3d019a34	0.0316412
90	0xbd513696	-0.051077448
91	0xbcb4ed4f	-0.022085814
92	0xbd871633	-0.06596031
93	0x3d112421	0.035434846
94	0x3d293847	0.041313436
95	0xbd0cb272	-0.034349866
96	0x3c9867b0	0.01860413
97	0xbcadac55	-0.021200338
98	0x3d506091	0.050873343
99	0xbc09bcd0	-0.008406833
100	0x3d7ef2bb	0.062243205
101	0xbd1023d3	-0.035190415
102	0x3d57254d	0.052525807
103	0xbd119065	-0.035538096
104	0xbd60843c	-0.05481361
105	0xbd4809ba	-0.0488374
106	0xbda477d4	-0.08030668
107	0x3d9415c9	0.07230718
108	0x3d176b3d	0.036967505
109	0xbd5bf4b9	-0.053700183
110	0xbca9aff4	-0.020713784
111	0x3c03e1e8	0.008049466
112	0x3c130bda	0.008974994
113	0x3cc42c30	0.023946851
114	0xbd9100b2	-0.07080211
115	0xbb50ff82	-0.0031890576
116	0xbd877d5a	-0.06615706
117	0x3d16fb99	0.036861036
118	0x3d9a14cf	0.075235
119	0xbd8de60f	-0.06928646
120	0xbdc9717a	-0.09836097
121	0xbc44fd16	-0.012023231
122	0x3caad7b1	0.020854803
123	0x3d941058	0.0722968
124	0xbd993d5e	-0.07482408
125	0xbc61ae1c	-0.013774421
126	0xbddc9b93	-0.10771861
127	0xbde13c7c	-0.109978646
128	0xbc1439e1	-0.0090470025
129	0xbdb00a47	-0.0859571
130	0x3da85f70	0.08221328
131	0xbc654374	-0.013993133
132	0x3dcb21cc	0.099185556
133	0x3d978b92	0.07399668
134	0x3d639b4c	0.055568025
135	0xbcf9f3b1	-0.030511709
136	0x3dd51b2c	0.10405573
137	0xbd6c8e58	-0.057752937
138	0xbbc8a664	-0.006123351
139	0xbd888e73	-0.06667795
140	0x3d9755c6	0.07389407
141	0x3d847860	0.06468272
142	0xbd20a75a	-0.0392221
143	0x3d17d924	0.037072316
144	0xbd4f86ef	-0.050665792
145	0xbd4c7bb0	-0.049922645
146	0x3d7b7b37	0.061396804
147	0x3d8f629e	0.070012316
148	0xbd31433f	-0.04327702
149	0xbd227579	-0.039662812
150	0xbc9fe756	-0.01951949
151	0xbd8b8951	-0.068133004
152	0xbdb2387f	-0.08702182
153	0xbd0e783f	-0.034782644
154	0x3b2198e0	0.002465777
155	0x3cbc4dcc	0.022986315
156	0xbdb7ff24	-0.08984211
157	0x3cd4838e	0.025941636
158	0xbb6ca531	-0.0036109204
159	0x3c72c5f6	0.014817705
160	0xbd3e31a7	-0.04643407
161	0x3da44269	0.08020479
162	0x3c9fc92e	0.01950511
163	0xbb1a712d	-0.0023565993
164	0xbc3e8708	-0.011628874
165	0xbdbf1f35	-0.09332124
166	0xbc04e3c8	-0.008110948
167	0xbd80d149	-0.06289918
168	0x3da3d79b	0.08000108
169	0x3d7c49fd	0.061594
170	0x3d9d908d	0.076935865
171	0xbc7e985b	-0.015539254
172	0x3d277c0d	0.04088979
173	0xbdb597d5	-0.0886685
174	0x3d63decf	0.05563241
175	0xbd22f2fe	-0.039782517
176	0x3dbb87cd	0.09156761
177	0x3d1c236d	0.038119722
178	0x3d92930c	0.07156953
179	0xbb71c50d	-0.0036891133
180	0x3b87b507	0.004141453
181	0x3c907e40	0.017638326
182	0xbd8c1da9	-0.06841595
183	0x3d2a577e	0.041587345
184	0x3c02cea9	0.007983842
185	0xbd431277	-0.04762503
186	0x3d0239a3	0.031793248
187	0xbd8b4297	-0.067998104
188	0x3cf28a0b	0.02960684
189	0x3c8c78dd	0.017147476
190	0x3db5c075	0.08874599
191	0x3d69ffa3	0.05712856
192	0x3d3405f8	0.043951005
193	0xbd896ece	-0.067105874
194	0xba7744ee	-0.00094325736
195	0xbd161462	-0.036640532
196	0xbd17569d	-0.036947835
197	0xbca36b02	-0.019948486
198	0x3d774684	0.060369983
199	0xbb6879f1	-0.0035473073
200	0xbc90c441	-0.017671706
201	0x3c10d434	0.008839656
202	0x3d79fcf5	0.061032254
203	0xbaaebdbb	-0.001333169
204	0xbd4cce1d	-0.050001252
205	0xbbb82f53	-0.005620876
206	0x3d99a313	0.07501807
207	0xbdac0854	-0.08400026
208	0x3d11fc32	0.035640903
209	0x3d5ef2b1	0.054430667
210	0x3bbd5ff0	0.005779259
211	0x3dbbea6a	0.0917557
212	0xbda4986c	-0.08036885
213	0x3c159b15	0.009131213
214	0xbd584a66	-0.052805327
215	0xbd267344	-0.04063727
216	0x3c9a1e15	0.018813172
217	0x3cca2f90	0.024680883
218	0xbcb36e65	-0.021903226
219	0xbc270ff5	-0.010196676
220	0xbd992d0f	-0.07479297
221	0x3d3860df	0.04501426
222	0xbbea96c5	-0.0071590864
223	0xbd8dc7f8	-0.06922907
224	0x3d835ef6	0.06414597
225	0x3b4cb534	0.0031235935
226	0x3d7de8ee	0.061989717
227	0x3da82147	0.08209472
228	0x3dbddcc5	0.09270624
229	0x3d7a627b	0.061129075
230	0xbdb0365a	-0.08604117
231	0xba6ba8e4	-0.0008989705
232	0xbdaf0568	-0.08545953
233	0x3bc04430	0.0058675036
234	0x3d51e212	0.051240988
235	0xbd8991b6	-0.06717245
236	0x3d0238b8	0.031792372
237	0x3cc4c441	0.024019362
238	0x3a4ea200	0.0007882416
239	0x3ccccc7a	0.024999846
240	0xbc941bd4	-0.018079676
241	0x3d95a95f	0.073076956
242	0x3cbc144b	0.022958895
243	0x3d2c1742	0.042014368
244	0x3d536aae	0.05161541
245	0xbdac40c5	-0.08410791
246	0xbda325e9	-0.07966215
247	0x3d3e1bc7	0.04641321
248	0xbce721d0	-0.028214365
249	0x3d546083	0.051849853
250	0xbd21d488	-0.039509326
251	0xbd346cd7	-0.04404911
252	0xbd05db56	-0.03267988
253	0xbce6f31e	-0.0281921
254	0x3da46259	0.08026571
255	0xbd5b9036	-0.053604327

actor.2.bias f4 [5]
0	0xbdc53266	-0.09628753
1	0x3da82db3	0.082118414
2	0x395ff159	0.00021356846
3	0x3bf52f08	0.007482413
4	0x3ca037bb	0.019557824

critic.0.weight f4 [128, 128]
0	0x3dac733a	0.08420415
1	0x3c16dbb7	0.009207658
2	0xbd655f21	-0.055998925
3	0xbd923549	-0.071390696
4	0xbb583dc9	-0.0032995811
5	0x3c25794e	0.010099722
6	0xbcdf4644	-0.027255185
7	0x3d004c7d	0.031322945
8	0xbdacfcab	-0.0844663
9	0x3d5831ae	0.052781753
10	0x3cf181bf	0.029480813
11	0x3d191e6d	0.037382532
12	0x3c7803d6	0.015137633
13	0x3b461de0	0.003023021
14	0x3c32bf4f	0.010909869
15	0x3da048f7	0.07826417
16	0xbd55dc2e	-0.052211933
17	0xbdca5752	-0.09879936
18	0xba28b820	-0.0006436128
19	0xbd3340db	-0.043763023
20	0x3c9508fb	0.018192759
21	0xbd869f2d	-0.06573329
22	0x3d951f57	0.07281368
23	0x3d7975af	0.060903247
24	0xbdaf93e4	-0.0857313
25	0x3d51d87b	0.051231842
26	0x3d5d265f	0.05399167
27	0xbd990ad8	-0.074727714
28	0xbd3ef963	-0.046624552
29	0xbcc1ff08	-0.023681179
30	0xbd2466a9	-0.040136967
31	0x3cb280c6	0.02178992
32	0x3d1d3b92	0.03838689
33	0x3d231ea1	0.039824132
34	0x3c64a01a	0.013954187
35	0x3c9af732	0.0189167
36	0x3ca0c63d	0.019625777
37	0xbcc02e41	-0.023459556
38	0x3cc34f24	0.023841448
39	0xbdbedb18	-0.093191326
40	0xbcc19b6e	-0.023633685
41	0xbda49180	-0.080355644
42	0x3c65bbc7	0.01402182
43	0xbd78eacb	-0.06077079
44	0xbc8c63b5	-0.017137388
45	0x3dc00bbe	0.0937724
46	0xbc6e9859	-0.01456269
47	0xbc8e190e	-0.017345931
48	0xbd8c8582	-0.06861402
49	0x3dd2265e	0.10261224
50	0x3c859f72	0.016311381
51	0x3b6693d0	0.0035183318
52	0x3d0d77d1	0.034538094
53	0x3dac4c72	0.08413018
54	0xbd8632ac	-0.06552634
55	0x3cfe005b	0.031006029
56	0x3d543e1f	0.051817056
57	0xbd54d5bc	-0.051961645
58	0x3d9ebb84	0.077506095
59	0x3d53af16	0.051680647
60	0x3d89a41d	0.06720755
61	0xbcd1c51f	-0.02560669
62	0xbb8c8024	-0.0042877365
63	0xbd98fcf2	-0.074701205
64	0xbdc1f2bf	-0.09470128
65	0x3d4d2a4d	0.05008917
66	0xbd475e2e	-0.0486738
67	0x3d08803a	0.03332541
68	0x3dedc7f4	0.11610404
69	0xbccd1af8	-0.025037274
70	0xbd225175	-0.039628465
71	0x3b06d5a4	0.0020574117
72	0x3c450fa1	0.012027652
73	0xbc8394f1	-0.016062232
74	0xbd816af2	-0.06319226
75	0xbdaaa0a5	-0.08331422
76	0x3d098dd9	0.033582542
77	0xbd9d8737	-0.07691806
78	0x3d9967f1	0.074905284
79	0xbcc62db6	-0.024191719
80	0xbd741a37	-0.059595313
81	0x3d2207f0	0.03955835
82	0xbc103a8f	-0.008803024
83	0xbda50035	-0.0805668
84	0x3d8ca070	0.068665385
85	0x3d5496b6	0.05190154
86	0x3d52f0ff	0.051499363
87	0x3d50e46b	0.050999086
88	0x3cae47d1	0.02127448
89	0x3da978a3	0.08274963
90	0xbda55cbc	-0.08074328
91	0x3be05132	0.0068456167
92	0x3d5215bb	0.051290255
93	0xbd341520	-0.04396546
94	0x3d34478e	0.044013552
95	0x3db266c1	0.08711005
96	0xbd176b8e	-0.036967807
97	0x3db86ee9	0.090055294
98	0x3b7848d4	0.0037885206
99	0xbd433643	-0.04765917
100	0x3d5fd6c5	0.05464818
101	0xbd959d9a	-0.07305451
102	0xbd6c4a00	-0.05768776
103	0xbd8b1c89	-0.06792552
104	0xbc18eeed	-0.009334308
105	0x3dc6d36c	0.09708294
106	0x3d9263ce	0.071479425
107	0x3d90425f	0.07043909
108	0x3d893971	0.06700409
109	0xbcc35202	-0.023842815
110	0x3b31d0b8	0.0027132463
111	0xbd5b2598	-0.05350265
112	0xbd4a387d	-0.049370278
113	0x3d806af1	0.062703975
114	0xbd190fcb	-0.037368577
115	0x3d7da8dc	0.061928615
116	0xbd9cdec3	-0.07659676
117	0xbc824ac1	-0.015904786
118	0x3d8876fc	0.066633195
119	0xbcf725cc	-0.03016939
120	0x3c37e56b	0.011224131
121	0xbd736f2b	-0.05943219
122	0x3c440d94	0.011966128
123	0xbd2283d0	-0.039676487
124	0xbdbb4c4c	-0.09145412
125	0xbd114468	-0.035465628
126	0xbb210614	-0.0024570273
127	0x3d8ffa12	0.07030119
128	0x3da0b197	0.078463726
129	0xbd60f53d	-0.054921377
130	0x3cae5b68	0.02128382
131	0x3d86bd87	0.06579118
132	0xbdb1eaa1	-0.0868733
133	0xbda97397	-0.08274
134	0x3cb44fdc	0.022010736
135	0xbd588512	-0.05286128
136	0x3c9060a4	0.017624207
137	0xbd77b112	-0.0604716
138	0xbd5e752a	-0.054310955
139	0xba73d100	-0.0009300858
140	0x3daedbf5	0.08538047
141	0xbda614ab	-0.08109411
142	0xbc8cf8ec	-0.017208539
143	0xbd8eb73e	-0.069685444
144	0xbbdb61a0	-0.0066949874
145	0xbd1dca64	-0.038523093
146	0x3c6fe780	0.014642596
147	0xbc101870	-0.008794889
148	0xbd8c467a	-0.0684938
149	0x3d364eda	0.044508792
150	0x3d3988fe	0.04529666
151	0xbd352b58	-0.04423079
152	0x3da88eeb	0.082303844
153	0xbdb2093e	-0.08693169
154	0xbc504d80	-0.01271379
155	0xbd87daf8	-0.06633562
156	0xba6e9500	-0.0009101182
157	0xbd013025	-0.031540055
158	0x3d5953e2	0.053058513
159	0x3d9572a5	0.07297257
160	0xbd2222cb	-0.039583962
161	0x3d3da422	0.046299107
162	0xbd15deeb	-0.036589544
163	0xbd2ca8b4	-0.042153075
164	0xbd308636	-0.043096744
165	0xbd78146b	-0.060566347
166	0xbba68230	-0.0050814375
167	0xbca857bc	-0.020549648
168	0xbd9be26a	-0.076115444
169	0x3d27bd76	0.04095217
170	0xbd820d63	-0.063502096
171	0x3ce1fe2c	0.027587019
172	0x3d83f18b	0.06442555
173	0x3daee0b5	0.08538953
174	0xbd57071d	-0.052497018
175	0xbc83f0b8	-0.016105995
176	0x3d97239b	0.07379838
177	0xbd3c6b06	-0.046000503
178	0xbd2a801c	-0.04162608
179	0xbc9c2dac	-0.019064747
180	0xbd6448fb	-0.055733662
181	0xbd548718	-0.051886648
182	0x3d82cfdb	0.063873015
183	0xbd8a9668	-0.06766969
184	0x3d680016	0.056640707
185	0xbc0a7db8	-0.008452825
186	0x3d4763da	0.04867921
187	0x3d1872be	0.0372188
188	0xbdae86de	-0.085218176
189	0xbd448e31	-0.047987167
190	0xbd356ea4	-0.04429497
191	0xbd1b7d1b	-0.037961107
192	0xbd649c60	-0.055813193
193	0xbd88840e	-0.066658124
194	0x3da3a85f	0.079910986
195	0x3c4332a8	0.011913933
196	0x3cd71ff8	0.026260361
197	0xbd13da11	-0.036096636
198	0xbd34391b	-0.043999773
199	0xbd6f1da6	-0.058377884
200	0x3d950927	0.07277136
201	0x3cb3e3e4	0.021959253
202	0xbd4a83b6	-0.049442016
203	0xbc8f30b4	-0.017479278
204	0x3d82daa9	0.06389362
205	0x3cacb9b0	0.021084636
206	0xbd5d523f	-0.054033514
207	0xbd9175ca	-0.071025446
208	0xbd88f2ab	-0.0668691
209	0x3daca027	0.08428984
210	0x3ce11084	0.027473696
211	0x3d920837	0.07130473
212	0x3d8617a5	0.065474786
213	0xbcd46916	-0.025929015
214	0xbcd02584	-0.025408514
215	0xbd46a6db	-0.04849897
216	0xbbb47ef0	-0.005508296
217	0xbd843ef4	-0.0645732
218	0xbcd862a2	-0.02641422
219	0xbd312ad0	-0.04325372
220	0xbd08a97d	-0.03336476
221	0xbc97b67c	-0.018519633
222	0xbd2fa2a5	-0.04287972
223	0x3d871d23	0.06597354
224	0xbd9f1af2	-0.07768811
225	0xbd9e5166	-0.07730369
226	0xbb519300	-0.0031978488
227	0xbc0c4c90	-0.008563176
228	0xbd0d25be	-0.034459822
229	0x3bfd2120	0.007724896
230	0xbd826738	-0.06367344
231	0xbd052cf7	-0.032513585
232	0x3ca9c8ec	0.02072569
233	0xbbad2fb0	-0.005285226
234	0x3cc8344c	0.024439
235	0xbd6cd312	-0.05781848
236	0xbca146bc	-0.01968705
237	0xbdb34a2a	-0.0875438
238	0x3cd41360	0.025888145
239	0x3d8eb3e1	0.06967903
240	0x3da2c9e1	0.079486616
241	0xbd3e44ff	-0.04645252
242	0xbc25a518	-0.010110162
243	0x3d6c434a	0.05768136
244	0xbce98d76	-0.028509837
245	0xbd027c2a	-0.031856693
246	0x3d83e7fb	0.06440731
247	0xbce79818	-0.028270766
248	0xbca31dec	-0.019911729
249	0xbd88f3ca	-0.06687124
250	0xbc8c7c38	-0.017149076
251	0xbd5697f7	-0.05239102
252	0x3d892d17	0.06698053
253	0x3d321d86	0.043485187
254	0x3c209bb0	0.009802744
255	0x3d094370	0.03351158

critic.0.bias f4 [128]
0	0xbd6d5178	-0.057939023
1	0x3d0462bc	0.032320723
2	0x3de2b218	0.11069125
3	0x3d34ef01	0.044173244
4	0xbdab9c05	-0.08379368
5	0x3b39a756	0.00283285
6	0x3d81d954	0.0634028
7	0x3dff7fc3	0.124755405
8	0x3db01b53	0.08598962
9	0x3bea7324	0.007154839
10	0xbd96ef95	-0.073699154
11	0x3d87f110	0.06637776
12	0x3d5baafd	0.053629864
13	0x3df3264b	0.11872538
14	0x3d2bfa3d	0.041986693
15	0x3dbe7a16	0.0930063
16	0x3d778ff9	0.060440037
17	0xbd152ac1	-0.036417726
18	0x3d1c133c	0.03810428
19	0xbcdf3bb3	-0.027250146
20	0x3c2606d7	0.010133467
21	0x3e125b74	0.14292699
22	0xbb53d12c	-0.003232072
23	0x3d79bcbd	0.06097101
24	0xbd1b5c3e	-0.037929766
25	0x3d5d0710	0.053961813
26	0xbd26692c	-0.040627643
27	0xbcac29af	-0.02101597
28	0xbb0b0ed3	-0.0021218553
29	0x3d2e4857	0.042549457
30	0xbce0ff71	-0.027465554
31	0x3dd09d2e	0.1018623
32	0x3df66ca5	0.12032441
33	0xbdf0d81a	-0.11759968
34	0x3d97d0f8	0.074129045
35	0x3c944b34	0.018102266
36	0x3caae001	0.020858767
37	0xbdc77285	-0.0973864
38	0x3d127293	0.035753798
39	0xbd40298b	-0.04691462
40	0xbd183e6e	-0.037168913
41	0xbd5043ee	-0.050846033
42	0x3e0fb891	0.1403525
43	0x3d0ba977	0.03409716
44	0x3d5ad3ef	0.053424772
45	0xbc96a092	-0.018387113
46	0xbc9bee7d	-0.019034619
47	0xbdb19b7b	-0.08672234
48	0xbd54c003	-0.05194093
49	0x3d8533c1	0.06504012
50	0xbcc79673	-0.024363732
51	0x3dfa3432	0.12216987
52	0xbdaf40d6	-0.08557288
53	0xbd4d9f8b	-0.05020098
54	0xb92260d5	-0.00015485597
55	0x3d9c35f5	0.07627479
56	0xbba4ffb6	-0.005035366
57	0x3d24471c	0.040106878
58	0x3ccfcf3c	0.025367372
59	0xbcb1603b	-0.021652332
60	0xbcd4ce21	-0.025977196
61	0x3c5d8207	0.0135197705
62	0x3d80de80	0.062924385
63	0xbd91f0c1	-0.07125998
64	0xbdbf1bb2	-0.09331454
65	0xbbea540c	-0.0071511324
66	0x3d5ccb09	0.053904567
67	0x3e1a6070	0.1507585
68	0x3de6f093	0.11276355
69	0x3b72879c	0.00370071
70	0x3d063bff	0.03277206
71	0x3de7240e	0.11286174
72	0x3ccccad9	0.024999069
73	0x3e1b8951	0.15189101
74	0x3c74e5e2	0.014947386
75	0xbd827251	-0.063694604
76	0x3d4ca511	0.049962107
77	0x3deb091a	0.11476345
78	0xbc4919fb	-0.012274261
79	0x3d844c25	0.06459836
80	0x3c0905e9	0.0083632255
81	0xbd82526b	-0.06363376
82	0x3d55bbfd	0.052181233
83	0x3dc7aac0	0.09749365
84	0xbadd5d08	-0.0016888687
85	0x3d113120	0.03544724
86	0x39bf1b39	0.0003645064
87	0x3e0d99ab	0.13828151
88	0x3d5aa545	0.05338027
89	0x3d9b147b	0.07572266
90	0x3cecc1f0	0.02890107
91	0x3deab3fb	0.1146011
92	0x3debf57c	0.11521432
93	0xbcf51786	-0.029918443
94	0x3d39d4e0	0.04536903
95	0x3d31f81c	0.043449506
96	0x3c467103	0.012111905
97	0x3e024c3a	0.1272439
98	0x3bc6436d	0.0060505182
99	0x3dd0f0da	0.10202189
100	0x3d546f13	0.05186374
101	0x3da4bd57	0.08043926
102	0x3e01985d	0.12655778
103	0x3c8d4b23	0.017247742
104	0x3cfba38a	0.03071763
105	0x3d070972	0.032967992
106	0x3e3118a7	0.1729456
107	0x3c2c50f0	0.010517344
108	0xbe09f916	-0.13473925
109	0x3db9891c	0.09059355
110	0xbd95fea7	-0.07323962
111	0xbaedd3a0	-0.0018144734
112	0xbe1a8f1f	-0.15093659
113	0xb8d27a8c	-0.000100364065
114	0xbdc8012f	-0.09765851
115	0xbe20ad22	-0.15691045
116	0x3c8e59da	0.017376829
117	0x3dbe6c19	0.09297962
118	0x3de9570b	0.11393555
119	0x3d2d606b	0.04232828
120	0xbd2e4fd0	-0.042556584
121	0x3e18505a	0.14874402
122	0x3dc2c470	0.09510124
123	0xbdf2a873	-0.118485354
124	0xbcecbbd3	-0.028898155
125	0x3d8e8aac	0.06960043
126	0xbafab4e8	-0.0019127401
127	0x3e1792cb	0.14802091

critic.2.weight f4 [1, 128]
0	0xbcc8242d	-0.024431312
1	0xbcd121cc	-0.02552881
2	0x3e126d6c	0.14299554
3	0x3dec2eef	0.115323894
4	0xbd18a7c1	-0.037269358
5	0xbd4b523a	-0.049638964
6	0xbd27ec02	-0.04099656
7	0x3dc21145	0.0947595
8	0x3d522cfd	0.051312435
9	0xbd87faac	-0.06639609
10	0x3d5e0495	0.05420359
11	0x3dee3e60	0.11632991
12	0xbd00182b	-0.03127305
13	0x3d4f5612	0.050619192
14	0x3d246ed8	0.04014477
15	0x3da25b1d	0.07927535
16	0x3d940780	0.07227993
17	0xbe08c22b	-0.13355319
18	0x3d8ac8b8	0.06776565
19	0xbd77edd4	-0.060529545
20	0x3db5fbf6	0.08885948
21	0x3d74ab89	0.0597339
22	0x3d648210	0.0557881
23	0xbbdda7b7	-0.006764378
24	0xbd8b31ed	-0.06796632
25	0xbda566c2	-0.0807624
26	0xbd96ca2b	-0.07362779
27	0xbbf4ea4e	-0.0074742204
28	0xbd8c3ba7	-0.06847315
29	0x3d8056d1	0.06266559
30	0xbdba999e	-0.091113314
31	0x3e07705b	0.13226454
32	0x3dc12a87	0.094319396
33	0xbdad63d3	-0.084663056
34	0x3d1434ec	0.036183283
35	0xbd854eeb	-0.06509193
36	0x3de9a97d	0.114092804
37	0xbda3f58c	-0.08005819
38	0xbd99b477	-0.07505124
39	0xbd54ff72	-0.052001424
40	0xbd8ca704	-0.06867793
41	0xbd390f12	-0.045180388
42	0x3d970b48	0.073751986
43	0x3dbdc68d	0.09266386
44	0x3dbe72c4	0.092992336
45	0x3b0fc145	0.0021935266
46	0xbdcafcc9	-0.09911496
47	0xbdb73bd3	-0.089469574
48	0x3c9d297d	0.019184822
49	0x3dba01b1	0.09082354
50	0xbdefe626	-0.11713819
51	0x3dfb0c90	0.122582555
52	0xbd9f8c70	-0.07790458
53	0xbd0d214a	-0.034455575
54	0xbd9837ab	-0.07432493
55	0x3d745e68	0.059660345
56	0xbe21b090	-0.1579001
57	0xbda9a451	-0.08283294
58	0xbd40cbba	-0.04706929
59	0xbdbfe258	-0.093693435
60	0xbd71f659	-0.059072826
61	0xbdfc2a72	-0.12312783
62	0x3d6ec7cb	0.058296006
63	0xbdca670f	-0.09882938
64	0xbd4729b5	-0.04862376
65	0xbd9958eb	-0.07487663
66	0x3d115cb9	0.035488818
67	0x3d587913	0.05284984
68	0x3dcc1463	0.09964826
69	0x3dc8abcb	0.09798392
70	0x3d6ebf42	0.058287866
71	0x3d92fc2a	0.07177003
72	0xbb9b6327	-0.0047420445
73	0x3dfe0417	0.12403124
74	0xbca69f62	-0.020339672
75	0xbc7f596c	-0.015585285
76	0x3dd92288	0.106022894
77	0x3e05177f	0.12997244
78	0xbdada34a	-0.084784105
79	0xbd8cf381	-0.06882382
80	0xbcf5ea87	-0.030019058
81	0xbd5c7919	-0.053826425
82	0x3dee5cac	0.116387695
83	0x3e002aa2	0.12516263
84	0xbd240ba5	-0.040050168
85	0x3d69c311	0.057070795
86	0x3a9dd5d0	0.001204187
87	0x3dca6c9f	0.09883999
88	0x3e04a8d7	0.12955032
89	0x3de4beee	0.111692294
90	0x3dcd8b36	0.10036318
91	0x3d6d1c59	0.057888363
92	0x3d9e5c02	0.07732393
93	0xbd1853f8	-0.037189454
94	0xbc0b6e7d	-0.008510229
95	0x3d9903bf	0.07471418
96	0xbdb40423	-0.087898515
97	0x3d97b8e1	0.0740831
98	0x3dfb2903	0.12263682
99	0x3e138588	0.14406407
100	0xb911cbad	-0.00013904153
101	0x3d802075	0.06256191
102	0x3dcb6df9	0.09933085
103	0x3d17ec1e	0.037090413
104	0x3de42491	0.11139787
105	0x3df18e5a	0.117947295
106	0x3d8a67fd	0.067581154
107	0xbbaea935	-0.0053302296
108	0xbdd3fb75	-0.10350696
109	0x3d46a607	0.04849818
110	0xbc094e1b	-0.008380438
111	0xbd79f6d6	-0.061026417
112	0xbdde3cfc	-0.108514756
113	0x3d9a78ca	0.0754257
114	0xbdf07670	-0.1174134
115	0xbdc7a387	-0.09747987
116	0xbd08dc95	-0.03341349
117	0x3d9035e0	0.07041526
118	0x3d78fe10	0.060789168
119	0x3e08d0b7	0.13360868
120	0xbde860e8	-0.113466084
121	0x3d20fa25	0.039301056
122	0x3d2f6b63	0.04282702
123	0xbdae8c05	-0.085228
124	0xbd63bbfb	-0.055599194
125	0xbd99cb16	-0.07509439
126	0xbdae34de	-0.08506177
127	0x3dc7977a	0.09745689
