models/ppo/Catan/ppo_catan_model_update50.pth (torch, 145062 bytes, 9 tensors)

shared.0.weight f4 [128, 10]
000000 4e 98 11 3e e7 7b 19 3e 02 cd f8 3d f8 61 e9 bd
       0.14218256 0.14988671 0.12148477 -0.11395639
000010 65 cf 16 3e a1 ca 16 bd f9 57 b7 3e cb be 26 be
       0.14727552 -0.036814336 0.35809305 -0.16283719
000020 67 5f ae 3e 41 ad 13 bd ff 12 1b 3e 49 08 01 be
       0.3405716 -0.0360539 0.15143965 -0.12600817
000030 75 1a 25 be 4e 5e 8d 3e d9 c5 09 3e b0 56 5b 3e
       -0.16123374 0.2761101 0.13454379 0.21419787
000040 13 8f 36 be 55 63 a9 bd 46 01 04 be b6 dd 72 3d
       -0.17828016 -0.08270899 -0.12891111 0.05929347
000050 cb 35 bf bd a6 99 7b be 51 3f 4b 3e 94 07 06 3d
       -0.09336432 -0.24570331 0.19848372 0.03272207
000060 ae 7e 5f be c6 55 c5 bb ef 66 94 3e 82 76 1b 3e
       -0.21825668 -0.006022188 0.28984782 0.15181926
000070 90 c2 5d 3e 07 4c 95 bd 1b b1 8b be 91 66 60 3e
       0.21656251 -0.07289892 -0.27283558 0.21914126
000080 bf c4 b0 3d 5b 3f 54 bd 8d 63 30 3e 18 62 a5 3e
       0.08631276 -0.051818233 0.17225476 0.32301402
000090 e2 1b 78 3e 44 3a 2c 3c c5 a6 6f 3e 6d bf 66 be
       0.24229386 0.0105119385 0.23403461 -0.2253396
0000a0 6e 46 51 be 69 88 97 be 0b 99 81 bd 93 1d 88 be
       -0.20437023 -0.2959626 -0.06328019 -0.26585063
0000b0 1d 2a 28 3e f4 19 06 3e 6b cf 0f 3e d8 64 30 3e
       0.16422315 0.13095838 0.14043967 0.17225969
0000c0 9c 2c 8c be 8a f8 c6 3d b4 77 aa 3d 91 40 e9 bd
       -0.27377784 0.09715374 0.08323613 -0.11389268
0000d0 31 1c 7f bd 81 9c f8 3c bc 6c 50 be 69 38 3c be
       -0.062282745 0.030348064 -0.20353979 -0.18380894
0000e0 f9 ea f8 bd 51 c5 55 3e cb fa 72 3e f6 35 18 3d
       -0.121541925 0.20876051 0.23728482 0.037160836
0000f0 e3 db 8a 3e d5 41 98 3e 64 57 a1 3c 10 8f 5f be
       0.27120885 0.29737726 0.019694991 -0.21831918
000100 bb 10 39 bd 4a e2 00 3d c2 e5 95 be 44 d7 bd 3e
       -0.04518197 0.031465806 -0.29276854 0.37078297
000110 d9 ef 4c 3d 7c 9f 1d be 8e cb 9d 3e 46 ee 85 be
       0.050033424 -0.1539287 0.30819362 -0.2615835
000120 ca 74 51 be ce e5 d5 bd 50 a6 be 3d 01 f3 4f be
       -0.20454708 -0.104442224 0.09309065 -0.20307542
000130 e7 92 62 be 9a 6c 16 be b1 74 fc 3d b4 64 a9 3d
       -0.22126351 -0.14689866 0.123269446 0.08271161
000140 25 5b 7e 3e 3b e5 77 be 2b a5 69 3e b5 07 bf 3c
       0.24839456 -0.24208538 0.22816913 0.023319105
000150 d0 9e 2a be 3c b2 aa 3e ad df 8e bd 7b 8c 87 be
       -0.16662145 0.33339107 -0.069762565 -0.26474366
000160 08 31 8d be 19 ec 7f 3c 88 f6 80 3e ce 90 98 3e
       -0.2757647 0.015620255 0.25188088 0.29797977
000170 ed 9d 88 bd 4c 18 0e bd 98 a5 75 bc 18 76 3c 3d
       -0.06670747 -0.03469114 -0.014993094 0.04601106
000180 fe 9a 24 3e 53 59 9c 3d 45 08 04 3d a1 cc 6e 3e
       0.1607475 0.07634225 0.03223445 0.23320247
000190 27 ba 54 3e 44 f6 5b be 1d 33 04 bd 60 99 84 3d
       0.20774136 -0.21480662 -0.032275308 0.064745665
0001a0 ee 47 86 3d ba e1 79 3e 0f 6d 91 3d 72 c7 46 3e
       0.06556688 0.24402514 0.071008794 0.1941202
0001b0 6d 73 b6 3c d2 ff 76 3e c5 07 95 3d d7 4f 1d be
       0.022271836 0.24121025 0.072768725 -0.15362488
0001c0 b3 17 5c bd 6a c7 11 bd ed ef 61 3d 16 76 92 3d
       -0.05373354 -0.035590567 0.05516045 0.07151429
0001d0 ce 5f 27 be c4 2d d4 3c 84 a5 a8 be 1d 46 1b 3d
       -0.1634514 0.025900729 -0.32938778 0.037908662
0001e0 d8 77 95 3d b3 ac f2 3d 23 7c ba bd 47 2a 36 be
       0.07298249 0.11849346 -0.091057085 -0.17789565
0001f0 e6 cc fa 3d 76 35 27 3e 68 8c 2f be 1d b3 87 be
       0.122461125 0.16328987 -0.17143404 -0.2650384
000200 66 15 84 be 17 89 47 3e 9e e2 83 3e d0 f3 0b 3e
       -0.25797576 0.1948589 0.25758833 0.13667226
000210 95 d0 66 3e b7 0f 66 3e 58 f6 d3 bd 8a 2e 8d 3e
       0.22540505 0.22466932 -0.10349721 0.2757457
000220 d7 b7 0d 3c 03 69 0b 3e 13 4f 22 bd 00 1a 34 3e
       0.008649788 0.13614278 -0.039626192 0.17588043
000230 84 0b 87 3e d9 67 aa bc 4e f7 d3 3d ef f3 93 3c
       0.26375973 -0.020801472 0.10349904 0.018060653
000240 3e 05 f9 3c 9b 5d 73 bd 8e 16 5f 3e 21 cd 82 be
       0.030398007 -0.05941544 0.21785948 -0.25547126
000250 91 e0 4e 39 1e 4a 45 be cb 41 e7 bd 1d 8f 6d bd
       0.00019729348 -0.19266555 -0.11291846 -0.05799781
000260 dd af 7e 3e a3 87 8d 3d 8b 8d 76 3e 79 36 a6 3d
       0.24871774 0.06910636 0.24077432 0.081158586
000270 ec 4b 68 be 56 91 7b 3e ec 86 8f 3e b4 b8 67 3e
       -0.22685212 0.2456716 0.28032625 0.22629052
000280 56 69 9b 3e 30 19 44 be d3 5f a5 3e 3c ec f9 bc
       0.30353802 -0.19150233 0.3229967 -0.030508153
000290 60 c8 90 3d e3 f9 60 3c c8 fa 91 3e ef 2a fb 3b
       0.070694685 0.013731453 0.28511643 0.00766503
0002a0 86 d3 63 3e cb 3c c9 bd 54 ae 4e 3e e1 3d b3 bd
       0.22248659 -0.098260485 0.20183688 -0.08752037
0002b0 16 2a 5a be ec 1e 82 3d 41 c4 88 3d 73 81 9f 3d
       -0.21305117 0.06353554 0.066780575 0.07788362
0002c0 db 88 68 be 19 bf fb bd 3f 12 c2 bd 78 b0 f6 ba
       -0.22708456 -0.12292308 -0.094761364 -0.0018820902
0002d0 7f be 19 3d de 06 c5 3d 3a d4 7a bc 65 67 6b 3e
       0.037535187 0.096204504 -0.015309388 0.2298866
0002e0 6d 8a 5f be 81 76 ac 3e 0f 8a 59 be 56 48 3f be
       -0.21830149 0.3368416 -0.21244071 -0.18679938
0002f0 42 a6 5a be 06 ed 56 bd 32 64 0c 3d 53 bc 88 3e
       -0.21352485 -0.052472137 0.03427524 0.2670618
000300 df 2a 57 be d3 3c ef bd 12 8b 03 3e df 6a da 3d
       -0.21012448 -0.11681523 0.1284602 0.10664915
000310 99 09 88 be 57 72 02 be 29 78 3e 3e 9f d4 72 3e
       -0.26569822 -0.1273893 0.18600525 0.23713921
000320 ef 12 f9 bc 65 12 7a 3e 1e 71 c2 3d 72 00 2a bd
       -0.030404536 0.2442108 0.09494232 -0.04150433
000330 de 64 95 be 0e 92 e4 bc 54 b6 64 be 16 43 91 be
       -0.29178518 -0.027901676 -0.22335178 -0.28371495
000340 cd 0c 62 bd 22 c0 57 3c 7b a5 8c be dd 4f f3 3d
       -0.05518799 0.013168367 -0.27470002 0.11880467
000350 86 3f 9f 3e 47 50 26 3e 1f d4 6b 3d 68 d5 93 3d
       0.31103152 0.16241561 0.05757534 0.072184384
000360 e2 31 92 bd bf 89 1c be 94 6a 63 bd 32 b4 58 3e
       -0.07138421 -0.15286921 -0.055521563 0.21162489
000370 b9 f7 6f 3e 3a 05 81 be 39 f5 42 3e 25 3e 4a 3e
       0.23434342 -0.251993 0.19038858 0.19750269
000380 3b 7c 7b 3e 1f 90 c6 bb 1a 31 2d bd bb 5b 3f bc
       0.24559109 -0.006059661 -0.042283155 -0.011679585
000390 7d c2 b2 bd c3 43 25 bd af ef af 3c 80 33 09 3e
       -0.08728502 -0.040347826 0.021476595 0.13398552
0003a0 b8 99 50 3c 0e d8 df bd 03 66 92 3e da 51 38 be
       0.012731962 -0.10929881 0.28593454 -0.17999974
0003b0 18 60 5b bd fd f7 26 bd 8c d8 31 3e 54 4e 83 be
       -0.05355844 -0.040763844 0.17367762 -0.25645697
0003c0 71 08 5e be 37 7d 26 3d 01 df 79 3c 4d ee 4e be
       -0.21682908 0.040646758 0.015250922 -0.20208092
0003d0 02 d5 85 bd 05 19 e1 bd 1c b8 8b 3e 56 ad 97 be
       -0.06534769 -0.109911 0.27288902 -0.29624432
0003e0 05 40 b8 bd ad 1d aa 3d 03 9a 5f be 59 06 03 be
       -0.08996586 0.083064415 -0.21836095 -0.1279539
0003f0 67 d1 6c bd 23 3b 06 3e 0a 04 3c be de f4 7d be
       -0.05781689 0.13108496 -0.18360916 -0.2480044

shared.0.bias f4 [128]
000000 ac 3a 9a be 45 41 1f be 82 e8 b6 3e fc c2 7d bd
       -0.30122888 -0.15552242 0.35724264 -0.06195353
000010 ae 32 02 be 68 f6 77 be 35 ab 29 3e ab a5 b1 bd
       -0.12714645 -0.2421509 0.16569217 -0.08674177
000020 2e a7 9a 3e 11 60 28 3e 6e 2d ca 3c 36 50 c6 3e
       0.30205673 0.16442896 0.024679866 0.3873307
000030 a5 4b dc 3d 23 86 55 be d1 a5 b5 3d c6 01 06 be
       0.107566155 -0.2085195 0.088695176 -0.13086614
000040 89 a7 48 bd 3f ce 33 3e 1a 70 65 be 51 3c 76 3e
       -0.0489879 0.17559145 -0.22406045 0.24046446
000050 2e 68 06 3e cb 98 b4 3e 31 0b 6d 3e 5f 7c 8e bc
       0.13125679 0.35272822 0.231488 -0.01739329
000060 28 e3 6c 3e bf 17 a1 bd 91 99 b6 bd 5e a8 74 be
       0.23133528 -0.07865857 -0.08916009 -0.23892352
000070 00 36 68 be 0e 55 42 3e 76 db 09 be 74 38 d4 bd
       -0.2267685 0.18977758 -0.13462624 -0.1036233
000080 52 81 40 be d6 7d 31 be e7 8f 63 3e b7 0c 58 3e
       -0.18799332 -0.17333159 0.22222863 0.210986
000090 56 f5 b8 3e 7a 2c 9d bd e6 1c 9e 3e 5c a0 7c bd
       0.36124676 -0.07674499 0.30881423 -0.061676368
0000a0 4f cc 47 be d0 40 88 bd 35 54 bc 3e 8a 22 b0 3c
       -0.19511531 -0.06652987 0.36782995 0.021500845
0000b0 ae b8 80 3e ac 24 66 be a9 ca 24 3e 6d 07 30 bd
       0.251409 -0.22474927 0.16092934 -0.04297583
0000c0 f2 1e cd bd 54 de f0 3d 3b 55 07 3e 7f 43 9b bd
       -0.10015668 0.11761156 0.13216107 -0.07581233
0000d0 de 4b 1e 3e 54 67 68 be b7 31 92 be 12 6a fa 3b
       0.15458629 -0.22695667 -0.28553554 0.007642039
0000e0 24 85 16 3e a8 70 ff 3d cb 4d ac 3e b4 e2 8a 3c
       0.14699227 0.12472659 0.336531 0.016953804
0000f0 ac 26 80 3e 08 92 ae bd bf 18 83 3e 92 7a ae 3e
       0.25029504 -0.08523947 0.25604817 0.3407789
000100 b4 45 0d be 44 81 80 bd b1 9a 8a 3e 25 9a 26 be
       -0.13796121 -0.062746555 0.27071145 -0.16269739
000110 c3 f7 81 bd 19 47 38 3e f9 c5 48 3e 46 66 f1 bc
       -0.06346085 0.17995872 0.1960677 -0.029467713
000120 a8 72 39 3c 27 08 93 be 54 e6 09 be 2e df 16 be
       0.01131884 -0.28717157 -0.1346677 -0.14733574
000130 ff 47 8a bd 14 b2 3d be ce 3e 6e 3e 47 b0 9e be
       -0.067520134 -0.18524963 0.23266146 -0.30993864
000140 30 13 62 be 5f 44 93 3e ba ef 2b 3e 42 a4 4c 3e
       -0.22077632 0.287631 0.16790667 0.19984534
000150 8e b6 2a 3e a3 55 94 3d d4 62 0e be 0e cf 92 3e
       0.16671202 0.072428964 -0.13904887 0.28673595
000160 fd 59 38 be 2f 1c 0e bd 44 4c 79 be 6e 45 41 be
       -0.18003078 -0.034694847 -0.243455 -0.18874142
000170 23 3c 7a 3d 6b a3 9b 3e 9b d7 47 be d5 24 30 bd
       0.061092507 0.30398116 -0.1951584 -0.043003876
000180 3d cd 85 be 1e 5f 68 be 6f 91 88 be af 74 d2 bd
       -0.26133147 -0.22692534 -0.26673457 -0.10276162
000190 6f 3c f7 bc 17 e7 d3 3c 63 ad ba 3e 83 06 65 be
       -0.030180184 0.025867028 0.3646041 -0.22365765
0001a0 c6 1a 66 be 88 6b f5 3d 15 d7 8d be 2f d8 1f 3e
       -0.22471151 0.119834006 -0.27703157 0.15609811
0001b0 f0 9f b8 3e f7 92 38 3c de b0 2e 3e 44 5a 25 3d
       0.36059523 0.011265508 0.17059657 0.040369287
0001c0 87 90 a3 3e 05 64 86 be 21 97 ec 3d 1d bb c6 3d
       0.31946203 -0.26248184 0.11552263 0.09703658
0001d0 97 cb df bd 11 a1 7c be 76 17 f4 bd ca 65 87 3d
       -0.109275036 -0.24670817 -0.11918537 0.066112116
0001e0 02 e7 23 bd 3c f2 87 3e 22 66 e3 3d c4 cb f6 bd
       -0.040015228 0.26551998 0.11103465 -0.12050584
0001f0 b2 76 66 3e da 7f 08 be 72 05 33 be e8 a4 29 3b
       0.22506216 -0.13330022 -0.17482546 0.0025885645

actor.0.weight f4 [128, 128]
000000 e7 1f f4 bc 39 02 3a bc 74 eb 99 bc a5 15 2b bd
       -0.029800368 -0.011353069 -0.01878903 -0.04176869
000010 cd d4 7f bd 29 42 20 3d bf ac 6b bd 46 8c 89 3d
       -0.062458802 0.039125595 -0.05753779 0.06716208
000020 c1 fc 54 3d 75 a5 42 3d 3e 99 9e bb 43 0c 83 bd
       0.051998857 0.047521073 -0.0048400452 -0.06398823
000030 34 c2 b2 3d d4 46 9f bd b4 ba ba 3d cd ce a6 3c
       0.087284476 -0.07777181 0.09117642 0.020362282
000040 ab 2b 76 3d 4c 84 99 3d 34 4a 8a 3d 86 19 9e 3d
       0.06010024 0.07495937 0.067524344 0.07719712
000050 e5 7d 8d 3d 84 f2 64 3d 4d 86 d3 3c 93 9c e3 bc
       0.06908778 0.055895343 0.025820876 -0.027784621
000060 b1 94 f0 3c a5 78 03 3d e1 2a bd 3d 76 6f 5d bd
       0.029367777 0.032097477 0.09236694 -0.054061376
000070 4c 0b 2c bd f7 eb 63 bd ab 77 45 3d c7 99 c2 3c
       -0.04200296 -0.055644955 0.048209827 0.023754967
000080 43 95 13 bb 08 69 58 bc 45 29 5d 3d 71 5b 7e 3d
       -0.0022519387 -0.013208635 0.053994436 0.062098924
000090 4c 52 65 bc 64 25 a9 3d d6 f3 86 bd 07 75 aa bd
       -0.013996672 0.08259085 -0.06589477 -0.083231024
0000a0 31 fd 25 bd 85 d7 9e bd f9 19 be bc 52 aa 8f 3d
       -0.040524665 -0.07755951 -0.023205744 0.07014908
0000b0 35 5d d7 3c 69 02 ed bc d4 37 af bc 22 8c 44 3c
       0.026289562 -0.028931813 -0.021388926 0.011996301
0000c0 a0 3b 72 bc 5e ef c7 bc 65 7b 86 3d 0a 7e 1e 3d
       -0.0147847235 -0.024406131 0.065665044 0.03869442
0000d0 9a cf 26 3d ec 15 ab bd 9f 33 42 bd a4 00 64 3d
       0.040725328 -0.08353791 -0.04741251 0.055664673
0000e0 91 cc 23 3d b1 fb 4c 3d af 05 a0 bd d6 01 67 bd
       0.03999001 0.05004472 -0.07813584 -0.056398235
0000f0 bf 44 6f 3d 58 ca 81 3c 6c 7f 38 bd fa 25 99 bd
       0.05841517 0.015843555 -0.045043394 -0.074779466
000100 48 23 68 bd 71 29 a9 3d 88 84 1b 3d bf 3f f7 3b
       -0.05667427 0.082598574 0.03796819 0.007545441
000110 93 f1 3c ba 48 53 13 3d 1b 84 95 bd 2b 43 9c 3d
       -0.0007207628 0.035968095 -0.07300588 0.07629999
000120 e9 49 8c 3c 78 48 32 3c 76 ec 43 3d fd ed 98 bb
       0.017125087 0.010881536 0.04783293 -0.0046670423
000130 48 56 a2 bc c1 a0 17 3c d4 20 b8 bd 1e fc af 3d
       -0.019816533 0.009254635 -0.089906365 0.085930094
000140 d1 60 61 3d 52 16 39 bd 90 bc 6a bd 14 77 ab bd
       0.055023972 -0.045187302 -0.057308733 -0.08372322
000150 66 86 64 bc 3c 3f 85 3d 34 49 19 3d 95 5d 53 3d
       -0.013948059 0.065062016 0.037423328 0.05160292
000160 77 bf a1 3d 31 8e 84 bd 00 42 a1 3c fb d3 66 3d
       0.07897847 -0.06472433 0.019684792 0.056354504
000170 6a fe 32 ba 89 3e 5d bd 59 55 9d bd 1b 09 40 3d
       -0.0006828072 -0.054014716 -0.076822944 0.046883684
000180 c3 34 a3 bd e0 10 35 bd 01 42 b6 3c bc f3 29 3d
       -0.07969048 -0.044205546 0.02224827 0.04149221
000190 38 fb fe 3c de 1c 5c 3c ef e9 af 3d 00 20 4f bd
       0.03112565 0.013434617 0.08589541 -0.050567627
0001a0 94 cf ab bc 1f 71 36 3d e8 a9 4e 3a d9 77 0a 3d
       -0.020973004 0.044541474 0.00078835944 0.033805702
0001b0 3e e3 71 3d f5 ef bd bc 4a d7 59 bc 7d 6b 9b 3d
       0.059054606 -0.02318571 -0.013295958 0.07588861
0001c0 aa c3 0d 3a 77 e1 94 3d c3 88 6a bd f0 da 74 3d
       0.00054078794 0.072695665 -0.057259332 0.059779108
0001d0 01 16 8f bd 99 68 91 3d 5d 07 ae 3d 99 5a f8 bc
       -0.06986619 0.071000285 0.08497498 -0.030316638
0001e0 1e 64 85 3d 9a 4c 8a 3c 50 f2 21 bb b7 12 a8 3d
       0.065132365 0.01688223 -0.002471108 0.082066946
0001f0 b0 95 d5 bc 93 8e ea b9 c1 3e 51 bd e9 0a 8b 3d
       -0.026072353 -0.00044738184 -0.051085237 0.0678919
000200 f4 f5 a7 3c 30 26 bd 3c 20 9f 9a 3b 42 cd 41 3d
       0.020503022 0.023089498 0.004718676 0.04731489
000210 b3 62 30 bd 80 7e 95 ba ed ae 75 bd f3 be 7d bd
       -0.043062877 -0.0011405498 -0.059981275 -0.06194968
000220 b8 0d 05 3d ef 0d 35 bd 0e 77 8a bd 84 10 aa bc
       0.032483786 -0.04420274 -0.06760989 -0.020759828
000230 80 fa 4f 3c 90 1f 95 bb 44 63 4d bd d3 55 88 bd
       0.012694001 -0.0045508817 -0.050143495 -0.06656995
000240 0e c4 96 bd e3 43 96 3d 84 21 93 3c 5e ea 01 bd
       -0.07361613 0.07337167 0.017960317 -0.03171765
000250 e0 07 2b bd e4 3f ab 3c 64 b4 41 bd 70 d6 5a 3c
       -0.041755557 0.020904489 -0.047291175 0.01335679
000260 0e cc 5b bd 55 e5 af 3d c8 ca a9 3c 50 d0 54 bd
       -0.0536614 0.085886635 0.020726576 -0.051956475
000270 a2 a3 12 3d 00 96 c0 bc d8 69 6f 3c b0 eb 8e 3c
       0.035800584 -0.023509026 0.014612637 0.017446369
000280 4a e7 f8 bc 20 87 b8 3b 7c 95 c7 bc 7e 4a 50 3d
       -0.030383725 0.0056313425 -0.024363272 0.05085229
000290 05 67 54 bd 00 d7 68 bb d0 02 91 bc 35 d7 0a bd
       -0.05185606 -0.003552854 -0.017701536 -0.033896644
0002a0 00 b4 b6 3a c9 f1 8d 3d f6 0b 39 3d 48 43 12 bc
       0.0013939142 0.069308825 0.045177422 -0.008927174
0002b0 c6 0c 04 bd 00 14 fd b8 3a f0 86 bd cc 48 2b bd
       -0.032238744 -0.000120677054 -0.06588788 -0.04181747
0002c0 80 75 ab bd a7 47 30 bd d0 2e 06 bc 03 c3 84 3d
       -0.08372021 -0.043037083 -0.008189872 0.06482508
0002d0 20 4f 33 3b 3a 70 54 3d c0 7b a6 3a b0 37 d9 3b
       0.0027360395 0.05186484 0.0012701675 0.006628953
0002e0 90 96 d0 bb a8 51 d5 3c cc 59 be 3c 42 a1 37 3d
       -0.0063656047 0.026039913 0.023236178 0.04483152
0002f0 b8 08 bb 3c 9f 44 87 3d 70 9f f3 bb 34 6a c0 3c
       0.022831306 0.06604885 -0.007434778 0.023488142
000300 6c b9 eb 3c 40 02 ed 3a be e7 49 3d 2e de f1 bc
       0.02877494 0.0018082336 0.049293272 -0.029524889
000310 88 67 2c 3c 00 86 54 3b 18 b8 a0 bd be 48 89 bd
       0.010522731 0.0032428503 -0.07847613 -0.067033276
000320 04 e7 8c bc 56 58 30 3d ac 0c b2 bc 5e 4a 47 3d
       -0.0172 0.043052994 -0.021734558 0.048654906
000330 64 f0 51 bd 2f 40 ad bd 3c d5 03 bd 63 12 52 bd
       -0.051254645 -0.08459508 -0.032185778 -0.051287066
000340 2c 1d 9e bc ba ff 14 bd aa 6a f0 bc 09 33 93 bd
       -0.01930102 -0.036376692 -0.029347736 -0.071874686
000350 6d 81 97 bd 80 08 40 bb a0 66 95 bd b8 f4 cc 3c
       -0.07397733 -0.0029301941 -0.07294965 0.025019035
000360 eb 45 67 bd a0 4a d1 bb bd f1 8b 3d 08 85 ff bc
       -0.056463163 -0.00638707 0.06833217 -0.031191364
000370 60 ea 14 3b fd c6 90 3d c4 a3 f4 3c e0 eb 9f bc
       0.0022722706 0.07069204 0.029863246 -0.019521654
000380 e2 cf 7e bd 2b dc a6 3d 42 e7 ed bc d0 34 11 3d
       -0.06220997 0.081474625 -0.029040936 0.035450757
000390 34 0d 35 bd f0 de b7 3b 52 53 1a 3d b8 3a 63 3c
       -0.044202045 0.005611293 0.037677117 0.01386898
0003a0 a4 f0 1b bd 3a ca 6c 3d c5 ed 8e bd 28 43 71 bc
       -0.03807129 0.057810046 -0.06978945 -0.014725484
0003b0 90 6e d5 bb 76 71 9d bd ab c4 87 3d dc c2 75 bd
       -0.006513424 -0.076876566 0.06629308 -0.060000286
0003c0 cf 33 82 3d 40 08 0d bc 20 48 96 3c f7 3a 88 bd
       0.06357538 -0.008607924 0.018344939 -0.06651872
0003d0 ee 4d 22 3d 7c 6c b0 bd d8 15 6f bc 3c ea 4d bd
       0.0396251 -0.08614442 -0.01459261 -0.05027221
0003e0 e0 11 df 3c c9 7e 9c bd 13 d4 a0 3d 2c de 62 bd
       0.027230203 -0.0764137 0.0785295 -0.05538766
0003f0 28 77 82 bd 6f 6d 16 bd d0 95 1b bc 1a a5 2e 3d
       -0.063703835 -0.036725458 -0.009496167 0.042637922

actor.0.bias f4 [128]
000000 52 80 85 bd cd 65 8c 3d 1f 8d a5 3d cd 2d 93 3d
       -0.06518616 0.068553545 0.08083557 0.0718647
000010 6a 62 9d bc 88 ce 86 3d 3b 79 1d 3c 1c 26 2b bd
       -0.019211967 0.065823615 0.009611423 -0.04178439
000020 f1 5e 03 bd 91 99 82 3c 1c 6d 13 3d 93 12 11 3d
       -0.032072965 0.015942367 0.035992727 0.035418104
000030 92 df 75 3d 0f 8f 10 3d a8 9c 49 bb 5a 32 aa 3d
       0.060027666 0.03529268 -0.003076354 0.08310385
000040 ab 71 99 bd f8 03 a6 bc 26 d8 77 b9 99 3e 8e bd
       -0.074923836 -0.020265564 -0.00023636277 -0.06945533
000050 ca dd 0b bd 92 cc 22 3d 70 6b cc bc e8 d2 7f 3c
       -0.03414706 0.039745875 -0.024953574 0.015614249
000060 1c 01 ba bd b1 1e 5b bd 03 5e 86 3d cc 80 36 bd
       -0.09082243 -0.053496066 0.065609 -0.044556424
000070 db 16 76 3d 01 11 a2 3d 50 e7 98 bd 8c 9b 61 bc
       0.06008039 0.079133995 -0.07465994 -0.013769995
000080 4e ba af 3b 0d c2 a1 bc b7 29 77 bd 2c f4 43 bb
       0.0053627854 -0.019745851 -0.060342517 -0.0029900176
000090 bb 1a 9f bd f7 56 92 bc 8d 50 59 bd 0c be 55 3c
       -0.0776877 -0.017863734 -0.053055335 0.013045799
0000a0 24 24 a7 bd dc 75 86 bd 14 57 45 bd c1 90 81 3d
       -0.0816119 -0.06565449 -0.048178747 0.06326438
0000b0 1b a5 97 3d 7c 6d 14 3d c7 4e 03 3d d8 89 ae bc
       0.07404538 0.036237225 0.03205755 -0.021305963
0000c0 2a 4e 18 bd 8e 73 44 3d 16 a7 25 3d 2a 59 06 bc
       -0.037183918 0.047961764 0.04044255 -0.008199969
0000d0 db 6c f6 bc 3b d6 6a bd ee 32 e3 3c ba c8 3b 3d
       -0.030081203 -0.057333212 0.027734246 0.045845725
0000e0 43 41 49 3d 49 88 bd 3d 88 90 6e 3d 96 91 83 3d
       0.049134504 0.0925451 0.058243304 0.06424253
0000f0 a0 f0 8e bc a1 31 50 3c 52 51 86 3d 7d b4 e3 bc
       -0.017448723 0.012707145 0.06558479 -0.027796024
000100 b2 0a 40 3d 43 e3 51 3d 62 53 ae 3d 6e 2e 60 3d
       0.0468852 0.051242124 0.08511998 0.05473178
000110 50 6c c2 3c ee 90 40 bd 1a 10 0b bd 12 57 d5 3c
       0.023733288 -0.047013216 -0.033950903 0.026042495
000120 41 46 ab bc 50 df b4 3d 46 dd 19 bd 72 f4 1b bc
       -0.020907523 0.08831656 -0.03756454 -0.0095187295
000130 65 d8 4a bd 02 82 cb 3b a1 dd 63 3c 9a 0d 92 3c
       -0.049522776 0.0062105665 0.013907821 0.017828751
000140 9c 9e 10 3d b7 93 b7 bd d2 bd 1d bd 06 d9 29 3d
       0.03530751 -0.08963721 -0.038511105 0.041466735
000150 22 12 76 3c ea 5a 2c bc 3a 6d 0f 3c 3c 0c ff bc
       0.015018972 -0.0105197225 0.008754069 -0.031133763
000160 bf bc 75 bd 05 05 97 3d 51 c4 9f bd b6 b7 3c bc
       -0.059994455 0.07374004 -0.07801116 -0.0115184095
000170 12 94 0a 3d 99 7f a3 bd 39 71 7b 3d 7f ed df 3b
       0.033832617 -0.07983322 0.061387274 0.0068337317
000180 24 a5 3f bb 90 e0 5d bc d5 39 96 3c 49 e7 bd 3d
       -0.0029242719 -0.013542309 0.018338123 0.0927263
000190 03 65 89 bc 7b 4c 3d bd d5 d9 86 3d 72 a8 39 3d
       -0.016771799 -0.046215516 0.06584517 0.045326658
0001a0 26 50 a3 3c f5 0d 3e 3d 09 f4 34 3d ad 52 97 bc
       0.019935679 0.04640003 0.044178043 -0.01847204
0001b0 66 1d b5 bb fa 7a 92 3d 5a d5 5d 3d 0b 37 00 bd
       -0.005527186 0.07152362 0.054158546 -0.031302493
0001c0 54 da b9 3d f3 56 b8 3c 3b ff 13 3d ee fa 8a bc
       0.09074846 0.022502398 0.03613208 -0.016965356
0001d0 54 a3 0e bc 2c 37 c6 3b 44 79 93 3d 88 11 55 bb
       -0.008705933 0.0060490575 0.07200864 -0.003251167
0001e0 90 9b 80 3d c6 c7 96 bb 7f 1f 24 3d ab a0 59 3d
       0.06279671 -0.0046014516 0.0400691 0.05313174
0001f0 bf 4f 64 bd a4 7b 99 ba 9c 54 32 3d b6 55 e6 3c
       -0.055740114 -0.0011709821 0.04353772 0.028117042

actor.2.weight f4 [5, 128]
000000 4b c0 af bd d2 97 91 bd fe cc a5 bd ae 1c 38 3c
       -0.08581599 -0.071090356 -0.0809574 0.0112373065
000010 9b 74 9c bc 59 28 4f bb 2a 30 06 3d 19 69 2a 3d
       -0.01909857 -0.0031609742 0.032760777 0.041604135
000020 f9 f9 a3 bc 33 0f a5 3c af dd 66 3d 26 2e d1 3c
       -0.020016657 0.02014885 0.056363758 0.0255347
000030 99 12 b6 bc 16 4c a4 bd 06 cf 95 bc 15 33 8c bd
       -0.022225665 -0.08022325 -0.018287193 -0.068456806
000040 f4 79 86 3d 47 cf f2 bc 19 ad d6 bc 46 d9 40 3d
       0.065662295 -0.029639853 -0.026205586 0.047082208
000050 0f 9a 93 3d b1 9b a5 bb 9d 21 3a bc 08 5b 83 bd
       0.07207119 -0.0050539603 -0.011360553 -0.06413847
000060 11 b6 a2 3d ee d3 4c 3d e8 5f e2 3c c1 55 88 bd
       0.07944883 0.0500068 0.027633622 -0.06656981
000070 0d 92 58 3d 4a e3 3f 3d 3b a6 9a bd 5b 73 31 bd
       0.05287366 0.04684762 -0.07551237 -0.043322902
000080 f1 08 f2 3c 2d db a5 bb c9 59 13 3d 86 c2 e2 bc
       0.02954528 -0.005061528 0.035974298 -0.027680647
000090 24 bd 2f bd b9 6a 87 bd 4c 2d 9d bc 14 f5 6c bd
       -0.042904988 -0.066121526 -0.019186638 -0.057850912
0000a0 40 26 86 bd ff 36 29 3d 5e 3c 7a 3d 5e 1c 66 3c
       -0.06550264 0.041312214 0.061092727 0.014044849
0000b0 24 42 ad bd 13 bd 37 bd 42 0e e5 bc 23 85 83 3d
       -0.08459881 -0.04485805 -0.0279609 0.06421878
0000c0 62 81 39 3d dc 80 8b bd 61 bd d3 bc 01 de d2 bd
       0.045289405 -0.06811687 -0.025847139 -0.1029625
0000d0 40 da 27 bd d7 2c 30 3d 66 23 3a bc e0 3d 28 bd
       -0.040979624 0.043011513 -0.011360979 -0.041074634
0000e0 5e 31 99 3c a8 c5 c7 bd fb 11 22 3d 6a d6 37 3c
       0.018700298 -0.09754497 0.03956793 0.011220554
0000f0 c0 1a b1 bd 7c 2b 55 3d 35 98 57 bd 35 3e 44 3d
       -0.0864768 0.052043423 -0.05263539 0.047910888
000100 b2 c8 05 3d 10 88 d0 bc 2f 67 a9 bd 12 cb 37 bd
       0.0326621 -0.025455505 -0.08271634 -0.044871397
000110 f0 fa d4 3c cb 28 99 bc 00 12 ae bd 3b 96 5a bd
       0.025998563 -0.01869621 -0.08499527 -0.053365927
000120 8c 21 82 bd 47 4f ae 3b 98 d5 b9 bd 70 9a 6f 3d
       -0.06354055 0.005319509 -0.09073943 0.058496892
000130 84 86 34 bd b5 c8 a1 bd 2c 7f a9 bb 62 70 85 3c
       -0.044073597 -0.0789961 -0.005172631 0.01628894
000140 fc 17 c3 3b b3 4f 9e 3c 87 0e c2 bb bc 2d b4 bd
       0.005953787 0.019325113 -0.005922142 -0.08797786
000150 b1 01 8a bc ff 86 84 3d 6c d8 b3 bc d1 d8 cf bd
       -0.01684651 0.06471061 -0.021953784 -0.10148776
000160 18 c4 80 bd e0 6e 0a 3d fc 6a 53 bd c6 6f 9e bc
       -0.06287402 0.033797145 -0.0516157 -0.019340407
000170 05 a7 83 bd 77 82 10 3d cf fd 28 3d 64 cb 0c bd
       -0.06428341 0.03528067 0.041257676 -0.034373656
000180 b0 67 98 3c ed dc a4 bc 61 d1 61 3d d1 3d c4 bb
       0.01860413 -0.020124877 0.05513132 -0.0059888144
000190 3d 7c 85 3d 08 d5 02 bd 67 b5 59 3d 21 ed 0e bd
       0.06517837 -0.031941444 0.053151514 -0.034894112
0001a0 e3 8a 60 bd 55 43 3b bd f5 6a 9b bd b2 1c 94 3d
       -0.054819953 -0.04571851 -0.0758876 0.07232036
0001b0 c9 5a 22 3d 5b e1 50 bd f4 af a9 bc 9c 1b 26 3c
       0.03963736 -0.050996166 -0.020713784 0.0101384185
0001c0 80 d0 46 3c 30 2c c4 3c df 66 8b bd 5c ff 50 bb
       0.012134671 0.023946851 -0.068067305 -0.0031890487
0001d0 a8 7b 7c bd 18 b2 18 3d 45 5d 9a 3d 84 83 87 bd
       -0.061641365 0.03727922 0.07537321 -0.066168815
0001e0 0d fc c8 bd 16 fd 44 bc 26 e1 aa 3c d5 37 95 3d
       -0.098137 -0.012023231 0.020859312 0.0728604
0001f0 28 4e 96 bd 48 52 62 bc bf 6b d9 bd 34 b0 de bd
       -0.07339126 -0.013813563 -0.10616254 -0.10873452
000200 ff 11 09 bc 47 0a b0 bd a2 71 b0 3d 73 bd b0 bb
       -0.008366107 -0.0859571 0.08615424 -0.005393678
000210 f7 a7 c8 3d 92 8b 97 3d 6b a1 63 3d 77 76 fa bc
       0.09797662 0.07399668 0.055573862 -0.030574067
000220 c6 62 cd 3d 43 93 75 bd 51 77 c1 3b fc de 8d bd
       0.10028605 -0.059954893 0.005904116 -0.069272965
000230 56 b4 97 3d 60 78 84 3d 5a a7 20 bd 5e ea 16 3d
       0.07407443 0.06468272 -0.0392221 0.036844604
000240 83 68 4a bd f8 7a 4c bd a4 e0 7b 3d 74 76 8f 3d
       -0.049416076 -0.04992196 0.06149353 0.07005015
000250 7f 73 2e bd 79 75 22 bd 74 e4 a3 bc 51 89 8b bd
       -0.042590614 -0.039662812 -0.020006396 -0.068133004
000260 3f 27 aa bd 3f 78 0e bd e0 98 21 3b 29 a1 b1 3c
       -0.08308267 -0.034782644 0.002465777 0.021683292
000270 6a e2 b3 bd af 60 ed 3c b5 fc 62 bb d4 1a 76 3c
       -0.087834194 0.028976766 -0.0034635488 0.015021045
000280 a7 31 3e bd a1 a0 a3 3d 88 dc 8b 3c 13 4f b3 3b
       -0.04643407 0.07989622 0.017072931 0.005472073
000290 d8 21 54 bc 46 ef b7 bd c7 49 04 bc 13 86 83 bd
       -0.012947522 -0.08981185 -0.0080742305 -0.06422057
0002a0 6f 4f a3 3d 81 c9 80 3d 8d 90 9d 3d 45 fd 85 bc
       0.07974135 0.06288434 0.076935865 -0.01635612
0002b0 76 3a 26 3d 18 14 b2 bd f6 af 67 3d 65 3e 19 bd
       0.040583096 -0.08695239 0.056564294 -0.03741302
0002c0 6e b9 b2 3d cb a0 19 3d 7d df 8f 3d c2 83 63 bb
       0.08726774 0.03750686 0.07025049 -0.0034715985
0002d0 d2 9f a1 3b 40 7e 90 3c fd e2 8a bd c8 02 2d 3d
       0.004932382 0.017638326 -0.06781576 0.04223898
0002e0 67 1b 2c 3c 5c ea 49 bd e7 fd 01 3d 38 64 88 bd
       0.01050458 -0.04929577 0.03173628 -0.0665974
0002f0 21 85 e8 3c f6 d7 99 3c 75 c0 b5 3d f1 2b 66 3d
       0.028383793 0.018779736 0.08874599 0.05619425
000300 08 2a 2e 3d 5c 35 88 bd 95 34 ca ba 62 14 16 bd
       0.042520553 -0.066508025 -0.0015427048 -0.036640532
000310 45 5f 13 bd 02 6b a3 bc 69 b3 71 3d 13 f0 94 bb
       -0.035979528 -0.019948486 0.05900899 -0.0045452206
000320 d8 93 90 bc d4 da 00 3c f5 fc 79 3d 21 7e 30 ba
       -0.017648622 0.007864673 0.061032254 -0.0006732662
000330 1d ce 4c bd f3 67 b2 bb 7d 5f 91 3d 16 16 a8 bd
       -0.050001252 -0.0054445206 0.07098291 -0.082073376
000340 c1 4b 0e 3d 6f d8 66 3d 06 d6 bf 3b c6 57 b6 3d
       0.034740213 0.05635875 0.005854371 0.0890346
000350 95 cb 9f bd 0f 45 3b 3c 37 5b 54 bd a6 c9 28 bd
       -0.07802502 0.011430039 -0.0518448 -0.041207932
000360 9d b3 9a 3c 33 af cd 3c 0a 11 b2 bc 58 28 38 bc
       0.018884474 0.025107956 -0.02173664 -0.011240087
000370 4e 7c 97 bd 5c bb 3a 3d 3b 86 05 bc e9 d5 8e bd
       -0.07396756 0.045588836 -0.008149679 -0.06974394
000380 f6 5e 83 3d ad 68 55 3b 3e fa 7a 3d cc 90 a8 3d
       0.06414597 0.0032563612 0.061273806 0.08230743
000390 92 e6 bb 3d 4a d2 7c 3d d3 db af bd f9 f0 88 39
       0.09174837 0.061723985 -0.0858685 0.0002611948
0003a0 10 d1 ae bd 8e 32 d4 3b 28 22 53 3d cb fe 89 bd
       -0.08535969 0.006475753 0.051546246 -0.06738051
0003b0 17 ec e1 3c 62 65 c0 3c 00 a2 4e 3a 3c f5 d1 3c
       0.027578397 0.023485843 0.0007882416 0.025629632
0003c0 96 9a 7d bc 5f a9 95 3d 97 23 c0 3c 42 17 2c 3d
       -0.015478751 0.073076956 0.02345447 0.042014368
0003d0 b8 10 4e 3d bd 19 ad bd 5f ee a3 bd 49 a3 30 3d
       0.050308913 -0.08452175 -0.0800445 0.04312447
0003e0 68 5e e7 bc 83 60 54 3d a0 61 17 bd 9a 26 33 bd
       -0.028243259 0.051849853 -0.036958337 -0.043737985
0003f0 86 08 05 bd 1f 26 ec bc 24 bd a3 3d 37 8f 59 bd
       -0.03247883 -0.028826771 0.0799506 -0.053115096

actor.2.bias f4 [5]
000000 82 f2 c0 bd 2c 3d aa 3d 33 f9 7d 3a 31 ed 0b 3c
       -0.09421255 0.08312449 0.00096883177 0.008540438
000010 22 f3 8b 3c
       0.017083708

critic.0.weight f4 [128, 128]
000000 56 03 51 3d d7 29 bc 3b 9a b6 6e bd 61 7b a1 bd
       0.051028572 0.0057422924 -0.05827961 -0.07884861
000010 ac 1e 18 bc 8e 27 26 3c 70 0b df bc c6 a3 13 3d
       -0.0092846565 0.0101412665 -0.027227134 0.03604486
000020 99 e1 c3 bd 9a 71 54 3d e3 0d e6 3c 1f 7a b3 3c
       -0.09564514 0.05186615 0.028082794 0.021908818
000030 b9 32 db 3a 62 94 a3 3a 0c 27 a0 bc 99 3d 9a 3d
       0.001672349 0.0012480135 -0.019549869 0.0753128
000040 b8 a0 6b bd 5c 28 c2 bd 96 f1 8a bc e1 c8 3b bd
       -0.05752632 -0.09480354 -0.0169609 -0.04584587
000050 8a e9 12 3c a5 27 94 bd 6e 03 8b 3d a2 dc 41 3d
       0.008966813 -0.07234124 0.067877635 0.047329552
000060 92 80 81 bd b2 c3 51 3d 7b 8a 43 3d d8 0a 99 bd
       -0.06323351 0.05121202 0.047739487 -0.074727714
000070 2b e1 36 bd 08 ff c1 bc 84 aa 24 bd 14 86 ab 3c
       -0.04464833 -0.023681179 -0.04020168 0.020937957
000080 f5 b1 39 3d df 05 11 3d 50 aa 17 3c 9c 62 3d 3c
       0.04533573 0.03540599 0.009256914 0.011559155
000090 04 57 99 3c dd e6 bc bc ac 74 b9 3c 97 d6 c3 bd
       0.01871825 -0.023059303 0.022638641 -0.09562414
0000a0 ba 39 8b bc 13 b5 ac bd cf 05 67 3c fa e3 7f bd
       -0.0169953 -0.08432975 0.014100506 -0.062473275
0000b0 5e 17 8e bc 64 dd 94 3d 8d 4e 96 bc d0 66 82 bc
       -0.017345127 0.072687894 -0.018348003 -0.015918165
0000c0 82 85 8c bd cd e6 8a 3d 49 e3 83 3c be 07 c6 ba
       -0.06861402 0.06782303 0.016099589 -0.0015108509
0000d0 5b d1 04 3d 87 5d 95 3d f0 00 90 bd d1 73 8b 3c
       0.03242622 0.072932296 -0.07031429 0.017022999
0000e0 02 1c 4a 3d d4 5a 5e bd 92 84 9a 3d 97 ec 55 3d
       0.049343117 -0.05428584 0.07544817 0.052227583
0000f0 35 84 85 3d 7a 1b e5 bc 9f 27 a4 bc 84 a8 9f bd
       0.06519357 -0.027967203 -0.020038424 -0.07795814
000100 73 72 b9 bd c1 29 4d 3d 3a 06 44 bd 2f 80 d1 3c
       -0.090550326 0.050088648 -0.0478575 0.025573818
000110 91 e0 81 3d 4c b0 c7 bc 69 dd 17 bd 94 27 84 b9
       0.06341661 -0.024376057 -0.037076388 -0.0002520649
000120 ff 6f dc 3c f1 94 83 bc 09 01 81 bd eb 18 af bd
       0.026908873 -0.016062232 -0.062990256 -0.085496746
000130 f2 7e f3 3c fc 20 ac bd 1f da 86 3d 5e df c6 bc
       0.029723618 -0.08404729 0.06584572 -0.024276432
000140 1c 48 a9 bd 5e f5 1a 3d ff a5 5f bc c4 fc 92 bd
       -0.08265707 0.037831657 -0.013650416 -0.071771175
000150 16 90 81 3d 98 1d 25 3d da 87 4f 3d 3f 63 4c 3d
       0.0632631 0.040311426 0.050666668 0.049899336
000160 14 54 b0 3c e7 73 9a 3d 80 64 a9 bd 82 13 8c 3b
       0.021524467 0.07541638 -0.08271122 0.0042747864
000170 b8 62 4f 3d 45 5d 35 bd b6 0e 2b 3d c1 66 b2 3d
       0.050631255 -0.044278402 0.041762076 0.08711005
000180 e9 e2 1b bd 65 fb 6c 3d 40 19 67 bc 05 11 4f bd
       -0.038058195 0.057856936 -0.014105141 -0.05055334
000190 c4 66 68 3d 7c d7 b6 bd 96 58 75 bd cb 2b 9b bd
       0.05673863 -0.08927819 -0.059898935 -0.07576712
0001a0 bc b5 12 bc cb da ae 3d 59 a2 8c 3d 01 58 90 3d
       -0.008954462 0.08537825 0.06866903 0.070480354
0001b0 e1 21 84 3d 18 eb c9 bc db 08 47 3b d5 c1 81 bd
       0.064517744 -0.024648234 0.0030370269 -0.06335799
0001c0 a1 9a 62 bd f1 6a 80 3d c0 99 21 bd 0e 41 76 3d
       -0.055323247 0.062703975 -0.039453268 0.060120635
0001d0 62 26 9e bd 08 af c0 bc dd 93 93 3d 79 13 ed bc
       -0.07722165 -0.023520961 0.07205937 -0.02893995
0001e0 3c 0f 74 bc c4 6e 73 bd 08 6b ac ba ed 8a c3 bc
       -0.01489621 -0.059431806 -0.0013154456 -0.023869956
0001f0 75 06 c2 bd 1c d0 6b bd 96 e6 28 bb 3f 28 92 3d
       -0.09473888 -0.057571515 -0.0025772206 0.071365826
000200 97 b1 a0 3d 3d f5 60 bd 68 5b ae 3c 87 bd 86 3d
       0.078463726 -0.054921377 0.02128382 0.06579118
000210 a1 ea b1 bd 97 73 a9 bd dc 4f b4 3c 12 85 58 bd
       -0.0868733 -0.08274 0.022010736 -0.05286128
000220 a4 60 90 3c 12 b1 77 bd 2a 75 5e bd 00 d1 73 ba
       0.017624207 -0.0604716 -0.054310955 -0.0009300858
000230 f5 db ae 3d ab 14 a6 bd ec f8 8c bc 3e b7 8e bd
       0.08538047 -0.08109411 -0.017208539 -0.069685444
000240 a0 61 db bb 64 ca 1d bd 80 e7 6f 3c 70 18 10 bc
       -0.0066949874 -0.038523093 0.014642596 -0.008794889
000250 7a 46 8c bd da 4e 36 3d fe 88 39 3d 58 2b 35 bd
       -0.0684938 0.044508792 0.04529666 -0.04423079
000260 eb 8e a8 3d 3e 09 b2 bd 80 4d 50 bc f8 da 87 bd
       0.082303844 -0.08693169 -0.01271379 -0.06633562
000270 00 95 6e ba 25 30 01 bd e2 53 59 3d a5 72 95 3d
       -0.0009101182 -0.031540055 0.053058513 0.07297257
000280 cb 22 22 bd 22 a4 3d 3d eb de 15 bd b4 a8 2c bd
       -0.039583962 0.046299107 -0.036589544 -0.042153075
000290 36 86 30 bd 6b 14 78 bd 30 82 a6 bb bc 57 a8 bc
       -0.043096744 -0.060566347 -0.0050814375 -0.020549648
0002a0 6a e2 9b bd 76 bd 27 3d 63 0d 82 bd 2c fe e1 3c
       -0.076115444 0.04095217 -0.063502096 0.027587019
0002b0 8b f1 83 3d b5 e0 ae 3d 1d 07 57 bd b8 f0 83 bc
       0.06442555 0.08538953 -0.052497018 -0.016105995
0002c0 9b 23 97 3d 06 6b 3c bd 1c 80 2a bd ac 2d 9c bc
       0.07379838 -0.046000503 -0.04162608 -0.019064747
0002d0 fb 48 64 bd 18 87 54 bd db cf 82 3d 68 96 8a bd
       -0.055733662 -0.051886648 0.063873015 -0.06766969
0002e0 16 00 68 3d b8 7d 0a bc da 63 47 3d be 72 18 3d
       0.056640707 -0.008452825 0.04867921 0.0372188
0002f0 de 86 ae bd 31 8e 44 bd a4 6e 35 bd 1b 7d 1b bd
       -0.085218176 -0.047987167 -0.04429497 -0.037961107
000300 60 9c 64 bd 0e 84 88 bd 5f a8 a3 3d a8 32 43 3c
       -0.055813193 -0.066658124 0.079910986 0.011913933
000310 f8 1f d7 3c 11 da 13 bd 1b 39 34 bd a6 1d 6f bd
       0.026260361 -0.036096636 -0.043999773 -0.058377884
000320 27 09 95 3d e4 e3 b3 3c b6 83 4a bd b4 30 8f bc
       0.07277136 0.021959253 -0.049442016 -0.017479278
000330 a9 da 82 3d b0 b9 ac 3c 3f 52 5d bd ca 75 91 bd
       0.06389362 0.021084636 -0.054033514 -0.071025446
000340 ab f2 88 bd 27 a0 ac 3d 84 10 e1 3c 37 08 92 3d
       -0.0668691 0.08428984 0.027473696 0.07130473
000350 a5 17 86 3d 16 69 d4 bc 84 25 d0 bc db a6 46 bd
       0.065474786 -0.025929015 -0.025408514 -0.04849897
000360 f0 7e b4 bb f4 3e 84 bd a2 62 d8 bc d0 2a 31 bd
       -0.005508296 -0.0645732 -0.02641422 -0.04325372
000370 7d a9 08 bd 7c b6 97 bc a5 a2 2f bd 23 1d 87 3d
       -0.03336476 -0.018519633 -0.04287972 0.06597354
000380 f2 1a 9f bd 66 51 9e bd 00 93 51 bb 90 4c 0c bc
       -0.07768811 -0.07730369 -0.0031978488 -0.008563176
000390 be 25 0d bd 20 21 fd 3b 38 67 82 bd f7 2c 05 bd
       -0.034459822 0.007724896 -0.06367344 -0.032513585
0003a0 ec c8 a9 3c b0 2f ad bb 4c 34 c8 3c 12 d3 6c bd
       0.02072569 -0.005285226 0.024439 -0.05781848
0003b0 bc 46 a1 bc 2a 4a b3 bd 60 13 d4 3c e1 b3 8e 3d
       -0.01968705 -0.0875438 0.025888145 0.06967903
0003c0 e1 c9 a2 3d ff 44 3e bd 18 a5 25 bc 4a 43 6c 3d
       0.079486616 -0.04645252 -0.010110162 0.05768136
0003d0 76 8d e9 bc 2a 7c 02 bd fb e7 83 3d 18 98 e7 bc
       -0.028509837 -0.031856693 0.06440731 -0.028270766
0003e0 ec 1d a3 bc ca f3 88 bd 38 7c 8c bc f7 97 56 bd
       -0.019911729 -0.06687124 -0.017149076 -0.05239102
0003f0 17 2d 89 3d 86 1d 32 3d b0 9b 20 3c 70 43 09 3d
       0.06698053 0.043485187 0.009802744 0.03351158

critic.0.bias f4 [128]
000000 8d 3b 6a bd bc 62 04 3d 8f d7 b0 3d f5 2a d4 3c
       -0.0571857 0.032320723 0.086348645 0.02589939
000010 05 9c ab bd 02 b0 63 3c ea 1f 82 3d 0d db d3 3d
       -0.08379368 0.013896944 0.063537434 0.10344515
000020 54 35 7e 3d c1 e6 24 3d 95 ef 96 bd 8a dd 46 3d
       0.062062576 0.040259127 -0.073699154 0.04855112
000030 fd aa 5b 3d 3f 34 c0 3d eb cb c6 3c be e3 83 3d
       0.053629864 0.09384965 0.024267158 0.06439923
000040 b8 1a 25 3d c7 13 b7 3c 61 54 53 3c b3 3b df bc
       0.040308684 0.022348298 0.0128985355 -0.027250146
000050 82 a5 97 bc c7 a0 f4 3d f4 66 d1 bc bd bc 79 3d
       -0.018511537 0.11944728 -0.025561787 0.06097101
000060 1c de a6 bb 12 94 6a 3d 90 f6 23 bd af 29 ac bc
       -0.0050923955 0.057270117 -0.040030062 -0.02101597
000070 23 7d 3a bc 04 e7 a6 3c e0 21 94 3c 87 7e 9f 3d
       -0.011382374 0.020373829 0.01808256 0.07787805
000080 d1 6b cd 3d a4 e9 7c bd bb 9a 49 3d 00 4b 94 3c
       0.1003033 -0.061746255 0.049219828 0.018102169
000090 b6 a1 8b 3a 95 16 2e bd cc 70 12 3d e3 f2 a6 3c
       0.0010653052 -0.042502005 0.035752103 0.02037949
0000a0 6e 3e 18 bd 24 f5 4d bd 00 0b fa 3d d5 35 57 3b
       -0.037168913 -0.050282612 0.12209129 0.0032838483
0000b0 13 b6 14 3d 7b a0 96 bc 6d 00 f8 3c ee c5 f4 bc
       0.036306452 -0.01838707 0.03027364 -0.029879536
0000c0 03 c0 54 bd a4 3a 45 3d 84 73 24 3c ea a7 c5 3d
       -0.05194093 0.048151627 0.010037307 0.09651168
0000d0 0e 3d b2 bd 8b 9f 4d bd 20 53 04 3d c7 18 d1 3c
       -0.087030515 -0.05020098 0.032305837 0.02552451
0000e0 16 03 fe 3c 1c 47 24 3d 3c cf cf 3c fa fc 17 3d
       0.03100733 0.040106878 0.025367372 0.03710649
0000f0 21 ce d4 bc 1a fd 82 3d 6a f1 04 3d 48 e0 05 bd
       -0.025977196 0.063959315 0.032456793 -0.032684594
000100 b2 1b bf bd 8a 20 8d 3c 0d 49 08 3d 96 33 04 3e
       -0.09331454 0.01722743 0.03327279 0.12910303
000110 16 3b a5 3d f3 96 a6 bc 73 5b 06 3c 09 b1 be 3d
       0.080679104 -0.02033565 0.008200514 0.093111105
000120 e1 0b ce 3c ba 81 09 3e 28 06 79 3c 51 72 82 bd
       0.025152149 0.13428393 0.015199222 -0.063694604
000130 90 8f f8 3c 58 b6 bb 3d 93 42 27 3d 25 4c 84 3d
       0.030341893 0.09165639 0.040834974 0.06459836
000140 b9 dc 12 3c 6b 52 82 bd 5e 5e 11 3d 8b f0 a1 3d
       0.008963757 -0.06363376 0.035490386 0.07907208
000150 08 5d dd ba d3 9d b0 3b 1c 17 ba 39 c8 bb f1 3d
       -0.0016888687 0.005389908 0.00035493902 0.118033946
000160 ad 94 0c 3d 29 a6 48 3d 76 da 2c 3c ba 46 b6 3d
       0.034321476 0.048986588 0.010550132 0.08900209
000170 0f c4 c7 3d 06 79 f5 bc e0 d4 39 3d c2 4f ba 3c
       0.09754192 -0.029964935 0.04536903 0.02274311
000180 da e0 05 3d 5f 51 62 3d 13 79 89 bc 80 c1 a5 3d
       0.03268514 0.055253383 -0.016781365 0.08093548
000190 6c 82 54 3d 6f 5e 71 3d 09 76 d7 3d 4a b6 08 bc
       0.051882192 0.05892795 0.1052056 -0.008344242
0001a0 e5 97 79 3b 85 12 9e 3b 52 3b 13 3e f0 50 2c 3c
       0.003808492 0.004823985 0.14378098 0.010517344
0001b0 58 14 bf bd 9b 8b 83 3d a7 fe 95 bd a0 d3 ed ba
       -0.09330052 0.06423112 -0.07323962 -0.0018144734
0001c0 87 02 fe bd 57 19 af bc fc 1c 66 bd 37 c4 e9 bd
       -0.12402826 -0.021374388 -0.056179985 -0.11414378
0001d0 a5 0d 94 3c 97 fe 96 3d 33 56 99 3d bd d2 b2 3c
       0.018072912 0.07372778 0.07487144 0.021829003
0001e0 93 e0 e0 bb f9 e6 f6 3d 6b 71 8a 3d e4 0a b5 bd
       -0.006862709 0.12055773 0.06759914 -0.08839968
0001f0 6d d1 e7 bc ac 8a 8e 3d a2 9a ab 3c 79 2d ff 3d
       -0.028298104 0.06960043 0.020947758 0.12459845

critic.2.weight f4 [1, 128]
000000 08 98 be bc cc 21 d1 bc 81 fd e2 3d d7 30 d2 3d
       -0.023265854 -0.02552881 0.11083508 0.10263222
000010 c1 a7 18 bd 69 34 1a bd 2c 07 28 bd 06 f3 96 3d
       -0.037269358 -0.03764764 -0.041022465 0.07370572
000020 74 42 10 3d 3f e9 34 bd 95 04 5e 3d 2a f8 cd 3d
       0.035219625 -0.044167753 0.05420359 0.10057099
000030 2b 18 00 bd c3 2d 11 3d 4d 1e 04 3d b1 1a 63 3d
       -0.03127305 0.035444032 0.03225546 0.055445377
000040 e4 0a 6c 3d dd 76 b8 bd 14 34 50 3d d4 ed 77 bd
       0.057627574 -0.09007046 0.050830916 -0.060529545
000050 27 08 63 3d bb 4f 33 3d 86 e1 26 3d b7 a7 dd bb
       0.055427697 0.04377721 0.04074242 -0.006764378
000060 ad 93 58 bd c2 03 a9 bd 06 63 97 bd 4e ea f4 bb
       -0.05287521 -0.0825267 -0.07391934 -0.0074742204
000070 8e 10 33 bd f2 df 43 3d c6 96 66 bd ed cb d8 3d
       -0.04371696 0.047820993 -0.056296133 0.10585771
000080 a3 16 a0 3d ea d3 46 bd a5 a7 db 3c eb 4e 85 bd
       0.078168176 -0.04854194 0.026813338 -0.06509193
000090 bd 0d c4 3d 53 12 33 bd 39 b6 99 bd 73 57 49 bc
       0.09572933 -0.043718647 -0.07505459 -0.012288916
0000a0 04 a7 8c bd f5 8a 39 bd c5 22 81 3d d4 6d 7c 3d
       -0.06867793 -0.045298535 0.0630546 0.061628178
0000b0 f1 93 ab 3d dc c1 0f 3b 49 ad 6f bd fc 6f 38 bd
       0.08377827 0.0021935618 -0.058514867 -0.04502867
0000c0 7d 29 9d 3c 2f a7 a8 3d 4a b6 a9 bd 8c d3 bd 3d
       0.019184822 0.08235013 -0.08286722 0.09268865
0000d0 b3 9d 91 bd 4a 21 0d bd c3 6b 43 bd 7a a9 e6 3c
       -0.07110157 -0.034455575 -0.04771019 0.028156985
0000e0 4f 24 fa bd 51 a4 a9 bd ba cb 40 bd b7 75 48 bd
       -0.122139566 -0.08283294 -0.04706929 -0.048940387
0000f0 59 f6 71 bd ff 18 a5 bd 2c f9 1a 3d ad f2 87 bd
       -0.059072826 -0.08061408 0.037835285 -0.066380836
000100 b5 29 47 bd 6f 9a 52 bd 08 89 d6 3c 1d a2 23 3d
       -0.04862376 -0.05141681 0.026188388 0.039949525
000110 fa 88 86 3d 45 e6 96 3d e6 dc 2d 3d d5 30 71 3d
       0.06569095 0.07368139 0.042446993 0.05888446
000120 95 b1 9c bb 26 36 e5 3d de 73 a7 bc 6c 59 7f bc
       -0.0047819116 0.111919686 -0.020440992 -0.015585285
000130 51 f7 b4 3d 20 ba d4 3d fe 1c 38 bd 81 f3 8c bd
       0.08836234 0.10387063 -0.044949524 -0.06882382
000140 7d 60 f7 bc 19 79 5c bd 23 17 de 3d 8b 42 dd 3d
       -0.030197376 -0.053826425 0.10844257 0.10803708
000150 a5 0b 24 bd 4f c4 1b 3d 16 95 a1 3a 0d 2d a5 3d
       -0.040050168 0.03802901 0.0012327756 0.080652334
000160 72 2a e3 3d 0c c2 b1 3d 0f 1b b3 3d f7 b6 29 3d
       0.1109208 0.0867959 0.087453954 0.041434254
000170 fe d1 89 3d c7 47 18 bd 7d 6e 0b bc 50 4c 80 3d
       0.06729506 -0.037177827 -0.008510229 0.062645555
000180 dc 6e 91 bd c5 fd 9d 3c 83 b7 c7 3d 3d 5e fc 3d
       -0.07101223 0.019286046 0.09751799 0.12322662
000190 a0 dd c0 b9 4c be 47 3d f3 8c a0 3d 9d 90 bf 3c
       -0.00036786217 0.048765466 0.07839384 0.023384387
0001a0 55 d3 a4 3d 67 86 af 3d fc 91 42 3d 35 a9 ae bb
       0.08048121 0.08570557 0.047502503 -0.0053302296
0001b0 b0 e2 8e bd a2 63 09 3d 22 4e 09 bc d6 f6 79 bd
       -0.06976831 0.033542283 -0.008380445 -0.061026417
0001c0 97 8b ad bd fa 2f 6e 3d cf 19 a8 bd de f3 79 bd
       -0.0847389 0.058151223 -0.082080476 -0.061023585
0001d0 2e 2a 08 bd cc 43 6e 3d 03 eb 0b 3d 59 c8 e3 3d
       -0.03324335 0.058170125 0.03415967 0.11122198
0001e0 91 b0 ad bd 19 88 d8 3c 1c 83 e2 3c fc ca 6e bd
       -0.08480943 0.026432084 0.027650408 -0.05829905
0001f0 83 2a 64 bd 16 cb 99 bd 55 01 77 bd ac 7c 96 3d
       -0.055704605 -0.07509439 -0.060304005 0.07347998
