models/ppo/Catan/ppo_catan_model_update400.pth (torch, 145076 bytes, 9 tensors)

shared.0.weight f4 [128, 10]
0.14553696 0.16009395 0.13661522 -0.093178205 0.17985062 0.011591791 0.34827116 -0.2168724
0.42882812 -0.007269714 0.1445417 -0.14125013 -0.16916993 0.26574108 0.1252369 0.19200411
-0.18478702 -0.080380276 -0.12384074 0.039660584 -0.028106105 -0.14317375 0.20619012 0.05167132
-0.12701362 0.035771605 0.3380323 0.23981392 0.12705547 -0.019041471 -0.28939095 0.21667273
0.08268482 -0.054484826 0.16828468 0.3274037 0.20995708 -0.007837316 0.25222647 -0.23873866
-0.21304275 -0.3048874 -0.10568857 -0.27382478 0.13990997 0.09632174 0.15505715 0.1845145
-0.27876294 0.07372687 0.061391257 -0.12138659 -0.07506634 0.012692952 -0.21622844 -0.19736417
-0.14018519 0.19989292 0.23405583 0.019387217 0.27755263 0.30527237 0.020565014 -0.18059263
-0.050482016 0.041242838 -0.2719969 0.4373345 -0.02553292 -0.1367474 0.34354523 -0.23390408
-0.14294413 -0.02860789 0.11305456 -0.15733254 -0.21257915 -0.1438916 0.15949869 0.118640915
0.23474254 -0.30740872 0.22650054 0.019105192 -0.16404667 0.33951843 -0.115547396 -0.33935714
-0.21947905 0.0006983316 0.24342947 0.2941566 -0.08544507 -0.040486176 -0.02989875 0.023378598
0.16396543 0.083802015 0.005311026 0.2179129 0.20790449 -0.20427296 -0.043634396 0.05464043
0.054298546 0.2220618 0.08507846 0.2271417 -0.010090705 0.23166814 0.084502906 -0.10293634
-0.05329246 -0.027801353 0.052440457 0.05878203 -0.13651551 0.09237669 -0.41455942 0.03849327
0.06867366 0.11550919 -0.07825641 -0.16682887 0.1378818 0.1788797 -0.19012903 -0.33438325
-0.19785151 0.19885814 0.24092023 0.119183846 0.21216935 0.22049312 -0.11405066 0.25795993
-0.0056359423 0.108983964 -0.02351501 0.15537506 0.28258505 -0.012380558 0.10661886 0.028606629
0.059362415 -0.004074964 0.20435952 -0.31251794 0.08352421 -0.16656901 -0.110897064 -0.059112966
0.23123068 0.056556318 0.22691672 0.058813635 -0.22140303 0.27507383 0.25611535 0.2122102
0.29376572 -0.19945535 0.30897227 -0.034587998 0.06621636 0.012759334 0.27784997 -0.0035448968
0.22766939 -0.10262054 0.17226766 -0.10770295 -0.22507574 0.068995416 0.051728275 0.04518393
-0.23000504 -0.13441767 -0.09526736 -0.028123334 0.071573846 0.113286465 0.031730212 0.24996556
-0.16904616 0.37445253 -0.20616853 -0.23212646 -0.12864831 -0.021185154 0.019180004 0.24839035
-0.21948233 -0.113314494 0.11885599 0.07993102 -0.27708825 -0.17240076 0.192687 0.21245423
-0.04991188 0.26318172 0.080016665 0.02600328 -0.24789825 -0.00918174 -0.26986027 -0.32094705
2.5677358e-05 0.0086861 -0.27507034 0.11284295 0.29465395 0.15638472 0.045144286 0.050228413
-0.0743569 -0.13889773 -0.073571116 0.1937918 0.23690724 -0.23280889 0.17919865 0.18873277
0.23707426 -0.023998333 -0.028835269 0.025898652 -0.12832461 -0.04782657 -0.00402466 0.14738438
0.03726723 -0.146967 0.30410215 -0.13615245 -0.0812528 -0.09867121 0.19476603 -0.24353912
-0.23836073 0.031027038 0.033750474 -0.19059667 -0.07212282 -0.10798197 0.2748722 -0.29904613
-0.06312417 0.087052956 -0.21281368 -0.12632644 -0.05939082 0.10066302 -0.18208228 -0.2614588
00000000: a407 153e abef 233e dce4 0b3e 37d4 bebd
00000010: c32a 383e 7feb 3d3c 9950 b23e cc13 5ebe
00000020: 5c8f db3e c836 eebb bd02 143e e0a3 10be
00000030: e23a 2dbe 370f 883e 1a3e 003e ba9c 443e
00000040: cf38 3dbe 6a9e a4bd 37a0 fdbd 2373 223d
00000050: c63e e6bc 249c 12be 8123 533e 4ea5 533d
00000060: dc0f 02be 3f85 123d 9212 ad3e c891 753e
00000070: d41a 023e dcfc 9bbc 0d2b 94be 75df 5d3e
00000080: a956 a93d 7b2b 5fbd d252 2c3e 75a1 a73e
00000090: fdfe 563e 1668 00bc d423 813e e877 74be
000000a0: e127 5abe 341a 9cbe 4073 d8bd c332 8cbe
000000b0: 8f44 0f3e 5544 c53d 4dc7 1e3e 5ef1 3c3e
000000c0: 04ba 8ebe 1dfe 963d 6675 7b3d 8899 f8bd
000000d0: 62bc 99bd 19f6 4f3c fd6a 5dbe d519 4abe
000000e0: b58c 0fbe bbb0 4c3e 55ac 6f3e f1d1 9e3c
000000f0: 611b 8e3e a94c 9c3e f677 a83c 46ed 38be
00000100: 3bc6 4ebd 40ee 283d 2d43 8bbe 4fea df3e
00000110: 6a2a d1bc 8307 0cbe 29e5 af3e 8d84 6fbe
00000120: f25f 12be 185b eabc 2689 e73d c81b 21be
00000130: 59ae 59be 5258 13be a053 233e 02fa f23d
00000140: 5960 703e ad64 9dbe c2ef 673e 7e82 9c3c
00000150: dafb 27be 5cd5 ad3e 1da4 ecbd 38c0 adbe
00000160: 1ebf 60be 3e10 373a 9345 793e b29b 963e
00000170: d3fd aebd d5d4 25bd 39ee f4bc 7984 bf3c
00000180: 8ee6 273e 64a0 ab3d 1d08 ae3b 8f24 5f3e
00000190: eae4 543e ee2c 51be fbb9 32bd a5ce 5f3d
000001a0: 2768 5e3d 2b64 633e 9e3d ae3d d597 683e
000001b0: 7c53 25bc 6a3a 6d3e dc0f ad3d 4ad0 d2bd
000001c0: 3249 5abd aabf e3bc cecb 563d 6dc5 703d
000001d0: b9ca 0bbe fd2f bd3d 2241 d4be 1eab 1d3d
000001e0: c7a4 8c3d 1590 ec3d e644 a0bd 30d5 2abe
000001f0: e330 0d3e 3d2c 373e 2fb1 42be 4834 abbe
00000200: 9699 4abe 78a1 4b3e cbb3 763e a916 f43d
00000210: ec42 593e f3c8 613e 6493 e9bd 5313 843e
00000220: b6ad b8bb fc32 df3d 8da2 c0bc a41a 1f3e
00000230: fdae 903e d3d7 4abc fd5a da3d 7358 ea3c
00000240: 0126 733d 4787 85bb 9f43 513e 5a02 a0be
00000250: be0e ab3d 1191 2abe 001e e3bd 7020 72bd
00000260: bcc7 6c3e 99a7 673d db5c 683e 91e6 703d
00000270: 7ab7 62be 7ad6 8c3e 8d21 833e a14d 593e
00000280: 7668 963e 063e 4cbe 9d31 9e3e 25ac 0dbd
00000290: 719c 873d 870c 513c 5a42 8e3e 8051 68bb
000002a0: 2a22 693e b82a d2bd ef66 303e 5d93 dcbd
000002b0: 417a 66be 784d 8d3d 07e1 533d c912 393d
000002c0: 7186 6bbe c9a4 09be 891b c3bd e862 e6bc
000002d0: 4f95 923d bc02 e83d 8af7 013d f9f6 7f3e
000002e0: 701a 2dbe 3eb8 bf3e d81d 53be 8fb2 6dbe
000002f0: 62bc 03be 7d8c adbc 621f 9d3c 0a5a 7e3e
00000300: fabf 60be 6e11 e8bd c56a f33d e0b2 a33d
00000310: 83de 8dbe d389 30be be4f 453e 9a8d 593e
00000320: 6670 4cbd c1bf 863e c7df a33d d504 d53c
00000330: 0ad9 7dbe 026f 16bc 202b 8abe 2c53 a4be
00000340: b565 d737 2550 0e3c 05d6 8cbe 341a e73d
00000350: e2dc 963e 5123 203e 37e9 383d 4fbc 4d3d
00000360: 6e48 98bd 353b 0ebe 74ac 96bd 5c71 463e
00000370: d097 723e 7465 6ebe da7f 373e 2a43 413e
00000380: 98c3 723e 2798 c4bc f137 ecbc 6929 d43c
00000390: 8767 03be cbe5 43bd 4ce1 83bb eeeb 163e
000003a0: 86a5 183d 847e 16be 47b3 9b3e 8c6b 0bbe
000003b0: de67 a6bd 2214 cabd bf70 473e 5262 79be
000003c0: d614 74be 6a2c fe3c f03d 0a3d c62b 43be
000003d0: 21b5 93bd a725 ddbd 0dbc 8c3e 931c 99be
000003e0: 3f47 81bd d248 b23d d4eb 59be b85b 01be
000003f0: ca43 73bd 6a28 ce3d c773 3abe eedd 85be

shared.0.bias f4 [128]
-0.4144062 -0.16239078 0.50397044 -0.111508586 -0.092089765 -0.24955545 0.28346813 -0.11367429
0.18941769 0.21191189 0.096678756 0.5082723 -0.007634297 -0.2643966 0.0015297584 -0.0708812
-0.074269824 0.16623233 -0.32155338 0.18522647 0.06547472 0.39034903 0.30691633 -0.09951972
0.22224687 -0.05107684 -0.1990764 -0.23942621 -0.26060447 0.18977758 -0.06538162 -0.13034292
-0.20569332 -0.1523145 0.30100402 0.17243423 0.4479613 -0.164293 0.38857028 -0.011820831
-0.13359681 -0.15082608 0.43708542 0.10093113 0.22060464 -0.30857718 0.09402303 -0.14519095
-0.10015668 0.054645333 0.106496945 -0.2037824 0.22964926 -0.2320351 -0.3018356 0.06026329
0.053002954 0.2167162 0.43611017 0.028348166 0.34843722 -0.03664776 0.18207112 0.45224956
-0.07298725 -0.031965345 0.23843332 -0.27029487 -0.1320875 0.27117938 0.10930438 0.05732764
0.19562556 -0.29154992 -0.23147833 -0.04303174 -0.13486573 -0.20515819 0.36449364 -0.3106753
-0.23234482 0.40229943 0.09718868 0.2927514 0.0706725 -0.004304059 -0.07507034 0.37337756
-0.08715244 -0.14201847 -0.2298047 -0.15566735 0.12658635 0.41209203 -0.22073387 -0.05312117
-0.34415784 -0.32587543 -0.32027465 -0.032703325 -0.12825766 -0.09166705 0.44286305 -0.32531747
-0.19713812 0.10981435 -0.36149347 0.17799203 0.44207594 0.10091483 0.16526219 0.011962238
0.43086353 -0.26248184 0.20111327 0.19802316 -0.13693894 -0.35248497 -0.14153692 0.15258074
-0.072002575 0.23188423 0.029211976 -0.0048124995 0.30397046 -0.14448619 -0.12423486 0.08280633
00000000: 0d2d d4be c549 26be 3504 013f 9d5e e4bd
00000010: 8f99 bcbd 778b 7fbe bc22 913e 11ce e8bd
00000020: b6f6 413e 6eff 583e 83ff c53d 221e 023f
00000030: 2029 fabb fe5e 87be 2d82 c83a 2a2a 91bd
00000040: c71a 98bd cf38 2a3e a5a2 a4be 02ac 3d3e
00000050: 9c17 863d d4db c73e 2324 9d3e ffd0 cbbd
00000060: af94 633e f335 51bd afda 4bbe 252c 75be
00000070: f36d 85be 0e55 423e cce6 85bd 9d78 05be
00000080: 45a1 52be 55f8 1bbe 331d 9a3e 9992 303e
00000090: 2f5b e53e 6d3c 28be aff2 c63e 29ac 41bc
000000a0: 9acd 08be 2772 1abe a9c9 df3e fbb4 ce3d
000000b0: 2fe6 613e d4fd 9dbe 258f c03d f0ac 14be
000000c0: f21e cdbd c9d3 5f3d 121b da3d 55ac 50be
000000d0: 2d29 6b3e 9c9a 6dbe 328a 9abe a4d6 763d
000000e0: a019 593d daea 5d3e d549 df3e 6a3a e83c
000000f0: 5d66 b23e f61b 16bd da70 3a3e 418d e73e
00000100: 577a 95bd 18ee 02bd dd27 743e 1764 8abe
00000110: f241 07be 06d8 8a3e fada df3d 63d0 6a3d
00000120: 1152 483e 0846 95be a808 6dbe 0d42 30bd
00000130: 3e1a 0abe fd14 52be e99e ba3e d510 9fbe
00000140: cdeb 6dbe 31fa cd3e dc0a c73d 83e3 953e
00000150: bebc 903d 1009 8dbb 7abe 99bd 582b bf3e
00000160: fa7c b2bd 4a6d 11be ec51 6bbe 4367 1fbe
00000170: da9f 013e bafd d23e 0f08 62be 9595 59bd
00000180: 7535 b0be 25d9 a6be 0afb a3be ecf3 05bd
00000190: fa55 03be efbb bbbd f2be e23e 0390 a6be
000001a0: 93de 49be 59e6 e03d ac15 b9be 8b43 363e
000001b0: c757 e23e 6fac ce3d 7e3a 293e 43fd 433c
000001c0: 259a dc3e 0564 86be a3f0 4d3e 95c6 4a3e
000001d0: b939 0cbe e978 b4be 0eef 10be 203e 1c3e
000001e0: 1676 93bd 0f73 6d3e f44d ef3c 2cb2 9dbb
000001f0: 04a2 9b3e 30f4 13be d96e febd 5d96 a93d

actor.0.weight f4 [128, 128]
-0.05167046 -0.017885251 -0.013669539 -0.04441182 -0.057890564 0.042841893 -0.0605192 0.06158285
0.047865435 0.043655157 -0.0092624845 -0.070113234 0.08206892 -0.08278176 0.07506373 0.014685046
0.051583227 0.0691411 0.06794876 0.07455754 0.058384925 0.051179383 0.013721728 -0.02735462
0.03083535 0.04598461 0.09210522 -0.040293414 -0.047622386 -0.055644955 0.043448757 0.030086765
0.0095884595 -0.019331368 0.04352001 0.07392238 -0.015857019 0.08521782 -0.07065731 -0.08783171
-0.052387804 -0.08334387 0.0017827335 0.06262968 0.02787639 -0.03238583 -0.025696905 0.00017476585
-0.0147847235 -0.029194105 0.05607456 0.034714412 0.032479767 -0.08048454 -0.030947378 0.05338496
0.039594267 0.0503775 -0.08113775 -0.05767069 0.05338113 0.010492114 -0.045087803 -0.08453407
-0.040952314 0.08288832 0.046924308 -0.0029178786 0.010866019 0.034000125 -0.06694411 0.06704413
0.052469824 0.010629375 0.049128294 -0.008123307 -0.027145881 0.010712853 -0.097151846 0.0864646
0.028344328 -0.050435007 -0.056728322 -0.08127956 -0.015578622 0.06425279 0.040643044 0.045945097
0.0876423 -0.06681896 0.012377109 0.051638704 -0.005222124 -0.057757262 -0.08092855 0.047377154
-0.07803798 -0.056804936 0.029182872 0.035090085 0.02528565 0.003275962 0.08520046 -0.05840581
-0.014929519 0.044330187 -0.0056909467 0.043633766 0.06218358 -0.028774263 -0.011846899 0.078966066
-0.011237022 0.072695665 -0.058332324 0.060268335 -0.06892432 0.06319358 0.09213575 -0.032609113
0.0768473 0.052876037 -0.007892169 0.10721203 -0.02994479 -0.0007264732 -0.041355755 0.06143493
0.020503022 0.023089498 0.004718676 0.04731489 -0.043062877 -0.0011405498 -0.059981275 -0.06194968
0.032483786 -0.04420274 -0.06760989 -0.020759828 0.012694001 -0.0045508817 -0.050143495 -0.06656995
-0.07361613 0.07337167 0.017960317 -0.03171765 -0.041755557 0.020904489 -0.047291175 0.01335679
-0.0536614 0.085886635 0.020726576 -0.051956475 0.035800584 -0.023509026 0.014612637 0.017446369
-0.030383725 0.0056313425 -0.024363272 0.05085229 -0.05185606 -0.003552854 -0.017701536 -0.033896644
0.0013939142 0.069308825 0.045177422 -0.008927174 -0.032238744 -0.000120677054 -0.06588788 -0.04181747
-0.08372021 -0.043037083 -0.008189872 0.06482508 0.0027360395 0.05186484 0.0012701675 0.006628953
-0.0063656047 0.026039913 0.023236178 0.04483152 0.022831306 0.06604885 -0.007434778 0.023488142
0.02877494 0.0018082336 0.049293272 -0.029524889 0.010522731 0.0032428503 -0.07847613 -0.067033276
-0.0172 0.043052994 -0.021734558 0.048654906 -0.051254645 -0.08459508 -0.032185778 -0.051287066
-0.01930102 -0.036376692 -0.029347736 -0.071874686 -0.07397733 -0.0029301941 -0.07294965 0.025019035
-0.056463163 -0.00638707 0.06833217 -0.031191364 0.0022722706 0.07069204 0.029863246 -0.019521654
-0.06220997 0.081474625 -0.029040936 0.035450757 -0.044202045 0.005611293 0.037677117 0.01386898
-0.03807129 0.057810046 -0.06978945 -0.014725484 -0.006513424 -0.076876566 0.06629308 -0.060000286
0.06357538 -0.008607924 0.018344939 -0.06651872 0.0396251 -0.08614442 -0.01459261 -0.05027221
0.027230203 -0.0764137 0.0785295 -0.05538766 -0.063703835 -0.036725458 -0.009496167 0.042637922
00000000: 67a4 53bd 1784 92bc 34f6 5fbc 2be9 35bd
00000010: a81e 6dbd fb7a 2f3d fbe2 77bd 4c3e 7c3d
00000020: 8c0e 443d c0cf 323d adc1 17bc 8797 8fbd
00000030: c013 a83d 7c89 a9bd 03bb 993d 8c99 703c
00000040: ef48 533d d999 8d3d b828 8b3d a0b1 983d
00000050: 0825 6f3d 79a1 513d 19d1 603c cc16 e0bc
00000060: 6a9a fc3c 5c5a 3c3d a9a1 bc3d b50a 25bd
00000070: b10f 43bd f7eb 63bd 53f7 313d 8578 f63c
00000080: ea18 1d3c d15c 9ebc 0a42 323d 9e64 973d
00000090: 94e6 81bc ae86 ae3d c8b4 90bd 1de1 b3bd
000000a0: 9894 56bd 31b0 aabd 9caa e93a fd43 803d
000000b0: 075d e43c 01a7 04bd 5182 d2bc 5a41 3739
000000c0: a03b 72bc 7a28 efbc 70ae 653d b330 0e3d
000000d0: 8109 053d 14d5 a4bd 5b85 fdbc 30aa 5a3d
000000e0: 992d 223d a358 4e3d 8c2b a6bd 1a38 6cbd
000000f0: 2ca6 5a3d 1ee7 2b3c fdad 38bd 3320 adbd
00000100: 9dbd 27bd 5ac1 a93d b433 403d e139 3fbb
00000110: 6307 323c b743 0b3d fe19 89bd 6f4e 893d
00000120: 99ea 563d d526 2e3c c03a 493d 9e17 05bc
00000130: 0a61 debc f684 2f3c 8cf7 c6bd 5a14 b13d
00000140: 5d32 e83c f094 4ebd f55b 68bd e675 a6bd
00000150: 7a3d 7fbc f796 833d 5279 263d ed30 3c3d
00000160: ce7d b33d 61d8 88bd 5cc9 4a3c 1b83 533d
00000170: 5a1e abbb e192 6cbd debd a5bd 8c0e 423d
00000180: 60d2 9fbd 4bac 68bd eb10 ef3c 9fba 0f3d
00000190: da23 cf3c 86b1 563b 947d ae3d ee3a 6fbd
000001a0: f19a 74bc 9293 353d 1f7b babb 52b9 323d
000001b0: 36b4 7e3d 01b8 ebbc 7f19 42bc f6b8 a13d
000001c0: 7c1b 38bc 77e1 943d e0ed 6ebd eedb 763d
000001d0: 3228 8dbd a36b 813d abb1 bc3d 2291 05bd
000001e0: 1e62 9d3d 8b94 583d 284e 01bc fb91 db3d
000001f0: c74e f5bc cb70 3eba a764 29bd 31a3 7b3d
00000200: f4f5 a73c 3026 bd3c 209f 9a3b 42cd 413d
00000210: b362 30bd 807e 95ba edae 75bd f3be 7dbd
00000220: b80d 053d ef0d 35bd 0e77 8abd 8410 aabc
00000230: 80fa 4f3c 901f 95bb 4463 4dbd d355 88bd
00000240: 0ec4 96bd e343 963d 8421 933c 5eea 01bd
00000250: e007 2bbd e43f ab3c 64b4 41bd 70d6 5a3c
00000260: 0ecc 5bbd 55e5 af3d c8ca a93c 50d0 54bd
00000270: a2a3 123d 0096 c0bc d869 6f3c b0eb 8e3c
00000280: 4ae7 f8bc 2087 b83b 7c95 c7bc 7e4a 503d
00000290: 0567 54bd 00d7 68bb d002 91bc 35d7 0abd
000002a0: 00b4 b63a c9f1 8d3d f60b 393d 4843 12bc
000002b0: c60c 04bd 0014 fdb8 3af0 86bd cc48 2bbd
000002c0: 8075 abbd a747 30bd d02e 06bc 03c3 843d
000002d0: 204f 333b 3a70 543d c07b a63a b037 d93b
000002e0: 9096 d0bb a851 d53c cc59 be3c 42a1 373d
000002f0: b808 bb3c 9f44 873d 709f f3bb 346a c03c
00000300: 6cb9 eb3c 4002 ed3a bee7 493d 2ede f1bc
00000310: 8867 2c3c 0086 543b 18b8 a0bd be48 89bd
00000320: 04e7 8cbc 5658 303d ac0c b2bc 5e4a 473d
00000330: 64f0 51bd 2f40 adbd 3cd5 03bd 6312 52bd
00000340: 2c1d 9ebc baff 14bd aa6a f0bc 0933 93bd
00000350: 6d81 97bd 8008 40bb a066 95bd b8f4 cc3c
00000360: eb45 67bd a04a d1bb bdf1 8b3d 0885 ffbc
00000370: 60ea 143b fdc6 903d c4a3 f43c e0eb 9fbc
00000380: e2cf 7ebd 2bdc a63d 42e7 edbc d034 113d
00000390: 340d 35bd f0de b73b 5253 1a3d b83a 633c
000003a0: a4f0 1bbd 3aca 6c3d c5ed 8ebd 2843 71bc
000003b0: 906e d5bb 7671 9dbd abc4 873d dcc2 75bd
000003c0: cf33 823d 4008 0dbc 2048 963c f73a 88bd
000003d0: ee4d 223d 7c6c b0bd d815 6fbc 3cea 4dbd
000003e0: e011 df3c c97e 9cbd 13d4 a03d 2cde 62bd
000003f0: 2877 82bd 6f6d 16bd d095 1bbc 1aa5 2e3d

actor.0.bias f4 [128]
-0.0655328 0.068553545 0.07857232 0.06265432 -0.029074943 0.065823615 0.011265599 -0.042238474
-0.021441586 0.009883104 0.06024944 0.026135249 0.059183307 0.03529268 -0.0038312087 0.06967123
-0.08503876 -0.022462742 0.017678142 -0.07018879 -0.03573522 0.039745875 -0.03615948 0.015614249
-0.095843546 -0.053496066 0.065609 -0.028976213 0.05506685 0.066065475 -0.07613235 -0.015591836
0.0053627645 -0.030831654 -0.06613178 0.018074945 -0.062812455 -0.023155726 -0.053502243 0.01139201
-0.087308004 -0.06778314 -0.048178747 0.0706425 0.08966142 0.04522603 0.02975256 -0.0274477
-0.045875106 0.04605172 0.049860876 -0.0023947784 -0.024371877 -0.062409922 0.026160756 0.04086737
0.06722523 0.09650406 0.05568283 0.061555315 -0.030893277 0.009327031 0.06558454 -0.038037438
0.061576664 0.049521755 0.10151877 0.05473178 0.016148016 -0.047013216 -0.042355344 0.042470273
-0.020697653 0.09967914 -0.03756454 -0.011572049 -0.049522776 -0.0027031214 0.005377035 0.019534856
0.043879233 -0.09804053 -0.038414836 0.05287345 0.0116888005 -0.016460534 0.014767831 -0.014687933
-0.047992308 0.08823496 -0.081158236 0.0015155112 0.03172796 -0.08128375 0.0620496 0.0038546454
-0.0029242719 -0.016052663 0.017522788 0.10567976 -0.029750802 -0.047734622 0.056548007 0.042556047
0.019319108 0.03810176 0.04258845 -0.019588428 -0.01698119 0.08825959 0.054158546 -0.014674728
0.108679384 0.057059284 0.02142361 -0.01696536 0.009514142 0.005759017 0.07019909 0.0038338641
0.075029 -0.0046014534 0.038639355 0.04825052 -0.060048074 -0.0019349942 0.044776917 0.03400257
00000000: 1036 86bd cd65 8c3d 86ea a03d e850 803d
00000010: 932e eebc 88ce 863d 5993 383c 4002 2dbd
00000020: 44a6 afbc beec 213c 1ec8 763d 9719 d63c
00000030: 326a 723d 0f8f 103d 0415 7bbb caaf 8e3d
00000040: cd28 aebd c903 b8bc c0d1 903c 24bf 8fbd
00000050: 185f 12bd 92cc 223d f71b 14bd e8d2 7f3c
00000060: 9f49 c4bd b11e 5bbd 035e 863d 865f edbc
00000070: c78d 613d 564d 873d 47eb 9bbd e674 7fbc
00000080: 21ba af3b aa92 fcbc 1970 87bd e811 943c
00000090: d1a3 80bd 14b1 bdbc 2b25 5bbd 8ea5 3a3c
000000a0: 8ace b2bd e3d1 8abd 1457 45bd 04ad 903d
000000b0: 68a0 b73d ee3e 393d a4bb f33c 00da e0bc
000000c0: 89e7 3bbd baa0 3c3d eb3a 4c3d b7f1 1cbb
000000d0: 88a7 c7bc 8ca1 7fbd 154f d63c 8b64 273d
000000e0: 62ad 893d eca3 c53d ae13 643d 6d21 7c3d
000000f0: e613 fdbc 67d0 183c 3051 863d 25cd 1bbd
00000100: d037 7c3d 53d7 4a3d 13e9 cf3d 6e2e 603d
00000110: d848 843c ee90 40bd cc7c 2dbd 4ff5 2d3d
00000120: 208e a9bc 9424 cc3d 46dd 19bd b198 3dbc
00000130: 65d8 4abd da26 31bb d731 b03b 9007 a03c
00000140: b6ba 333d 79c9 c8bd e058 1dbd d591 583d
00000150: 6282 3f3c 3ed8 86bc c6f4 713c a8a5 70bc
00000160: 9593 44bd 88b4 b43d 4a36 a6bd 1ea4 c63a
00000170: 2df5 013d 1878 a6bd b927 7e3d 389e 7c3b
00000180: 24a5 3fbb e080 83bc f38b 8f3c a16e d83d
00000190: f4b7 f3bc 6185 43bd e29e 673d 404f 2e3d
000001a0: 1b43 9e3c 9710 1c3d 3a71 2e3d e977 a0bc
000001b0: 231c 8bbc 72c1 b43d 5ad5 5d3d 456e 70bc
000001c0: 4c93 de3d ffb6 693d 9180 af3c f0fa 8abc
000001d0: 34e1 1b3c 23b6 bc3b 8ac4 8f3d 9141 7b3b
000001e0: cea8 993d cac7 96bb 4d44 1e3d 56a2 453d
000001f0: f8f4 75bd a29f fdba 0068 373d 4746 0b3d

actor.2.weight f4 [5, 128]
-0.08674058 -0.071090356 -0.098463856 0.011889588 -0.0454803 -0.0031609742 0.033507075 0.04161122
-0.037898723 0.017747713 0.058889486 0.0054310756 -0.022168998 -0.08022325 -0.018289711 -0.08292932
0.060526613 -0.029552966 -0.036102153 0.04708114 0.072208904 -0.0050539603 -0.026452623 -0.06413847
0.07357837 0.0500068 0.027633622 -0.0789401 0.046898026 0.026910126 -0.07542927 -0.04333371
0.02954528 -0.018767063 0.03430435 -0.043065816 -0.056795277 -0.07906843 -0.019378997 -0.05626091
-0.08242855 0.04127106 0.061092727 0.005444803 -0.10143008 -0.040861562 -0.028259747 0.06550622
0.033409424 -0.076665 -0.042993527 -0.12081482 -0.0603625 0.04333401 -0.010619559 -0.0406854
0.017431738 -0.11010895 0.040035218 0.011628737 -0.09787713 0.0580055 -0.05263554 0.047421213
0.014425201 -0.025567623 -0.0978467 -0.044871397 0.02145736 -0.01869621 -0.09970955 -0.06610423
-0.06352578 -0.004405982 -0.09073943 0.0582202 -0.044073597 -0.08938531 -0.013324126 0.017941058
-0.0059438297 0.017942205 -0.0057622595 -0.10611223 -0.03261808 0.06350911 -0.021060413 -0.11301016
-0.07471096 0.02871349 -0.049278777 -0.03032731 -0.07127222 0.03543836 0.03221941 -0.03459969
0.01860413 -0.01966131 0.037542827 -0.01954548 0.039510347 -0.050182212 0.058095783 -0.035984874
-0.05480931 -0.055963524 -0.102386594 0.07230474 0.018986646 -0.06061706 -0.020713784 0.004670074
0.0015862761 -0.025212003 -0.081295386 -0.0031890576 -0.08124419 0.037465066 0.075147904 -0.082229935
-0.091952056 -0.012023231 0.019616883 0.07295977 -0.078447446 -0.014400312 -0.12263199 -0.1116346
-0.00087169855 -0.0859571 0.079853036 -0.019959725 0.09691077 0.07399668 0.0519477 -0.030594192
0.098550774 -0.056462392 -0.004206052 -0.07109234 0.06893722 0.06468272 -0.038027026 0.03838674
-0.047520697 -0.04906323 0.05301607 0.0699916 -0.042802423 -0.039662812 -0.017782662 -0.068133004
-0.08119784 -0.034782644 0.002465777 0.024333362 -0.09019194 0.017338803 -0.0053207376 0.015775442
-0.04643407 0.075997576 0.018870585 -0.0036131334 -0.033015788 -0.09569324 -0.016004205 -0.058341354
0.06831175 0.061530452 0.076935865 -0.015132433 0.04107283 -0.09226497 0.050698806 -0.037518192
0.0827277 0.021807658 0.070291504 -0.008049351 0.00072264747 0.011671568 -0.07334013 0.03857565
-0.018662708 -0.04423586 0.032153506 -0.06202171 0.034178987 -0.00798005 0.08874599 0.05845574
0.039990265 -0.06686234 -0.0021652635 -0.036640532 -0.039908506 -0.019948486 0.059308507 -0.006007127
-0.01767336 0.006987454 0.061032254 -0.0014696834 -0.050001252 0.002763345 0.078118116 -0.09146072
0.014033583 0.04926809 0.007696952 0.09319285 -0.08423917 0.0029831708 -0.057265125 -0.03623141
0.014039721 0.022100458 -0.00802625 -0.015863674 -0.074182376 0.04436219 -0.010351622 -0.07938639
0.06414597 0.008303072 0.061712474 0.07371223 0.09560013 0.054359667 -0.057545878 -0.004474601
-0.08567757 0.011049604 0.041039195 -0.06704124 0.025435606 0.022636905 0.0007882416 0.01776489
-0.035648458 0.08760693 0.02564819 0.042014368 0.04665525 -0.088538304 -0.079851545 0.0395727
-0.03175077 0.051849853 -0.053350545 -0.041265666 -0.025246982 -0.022002842 0.07530864 -0.059266765
00000000: 0ca5 b1bd d297 91bd 6ba7 c9bd 8ccc 423c
00000010: 8d49 3abd 5928 4fbb b73e 093d 8770 2a3d
00000020: b13b 1bbd a763 913c 1a36 713d 2af7 b13b
00000030: c29b b5bc 164c a4bd 4ed4 95bc d9d6 a9bd
00000040: c1ea 773d 1019 f2bc dadf 13bd 27d8 403d
00000050: 43e2 933d b19b a5bb 2cb3 d8bc 085b 83bd
00000060: 42b0 963d eed3 4c3d e85f e23c 59ab a1bd
00000070: 2518 403d a072 dc3c a97a 9abd b07e 31bd
00000080: f108 f23c 62bd 99bc b882 0c3d c865 30bd
00000090: 2aa2 68bd a1ee a1bd b4c0 9ebc d771 66bd
000000a0: 4dd0 a8bd d80b 293d 5e3c 7a3d 516a b23b
000000b0: 93ba cfbd 745e 27bd fc80 e7bc 2028 863d
000000c0: 52d8 083d 8a02 9dbd fb19 30bd c36d f7bd
000000d0: ab3e 77bd 017f 313d a9fd 2dbc bca5 26bd
000000e0: 01cd 8e3c cd80 e1bd f8fb 233d 7586 3e3c
000000f0: ce73 c8bd 2d97 6d3d 5d98 57bd bf3c 423d
00000100: ae57 6c3c 3173 d1bc da63 c8bd 12cb 37bd
00000110: 58c7 af3c cb28 99bc 8534 ccbd a861 87bd
00000120: ce19 82bd 0e60 90bb 98d5 b9bd 4e78 6e3d
00000130: 8486 34bd a50f b7bd 6f4d 5abc 20f9 923c
00000140: 75c4 c2bb 88fb 923c 56d1 bcbb 5e51 d9bd
00000150: 899a 05bd 1011 823d e386 acbc df71 e7bd
00000160: 0f02 99bd 8e38 eb3c 8bd8 49bd fb70 f8bc
00000170: 2bf7 91bd d027 113d 80f8 033d 68b8 0dbd
00000180: b067 983c c110 a1bc 82c6 193d d81d a0bc
00000190: 9ad5 213d dd8b 4dbd d8f5 6d3d e064 13bd
000001a0: ba7f 60bd 023a 65bd 10b0 d1bd 8214 943d
000001b0: e289 9b3c 9849 78bd f4af a9bc 6c07 993b
000001c0: 98ea cf3a 6789 cebc 327e a6bd 82ff 50bb
000001d0: 5b63 a6bd f874 193d 25e7 993d 2b68 a8bd
000001e0: 5c51 bcbd 16fd 44bc 96b3 a03c ef6b 953d
000001f0: 0ea9 a0bd 49ef 6bbc 7b26 fbbd aea0 e4bd
00000200: b382 64ba 470a b0bd fd89 a33d 9482 a3bc
00000210: 2779 c63d 928b 973d 1dc7 543d aca0 fabc
00000220: fdd4 c93d 1c45 67bd ecd2 89bb dc98 91bd
00000230: f52e 8d3d 6078 843d 3ac2 1bbd 6a3b 1d3d
00000240: 10a5 42bd 87f6 48bd 6127 593d c257 8f3d
00000250: 9851 2fbd 7975 22bd f2ac 91bc 5189 8bbd
00000260: 0e4b a6bd 3f78 0ebd e098 213b c256 c73c
00000270: 8db6 b8bd 1b0a 8e3c 9559 aebb 803b 813c
00000280: a731 3ebd 9ea4 9b3d 7c96 9a3c 52ca 6cbb
00000290: 903b 07bd d1fa c3bd 401b 83bc 58f7 6ebd
000002a0: 08e7 8b3d 5b07 7c3d 8d90 9d3d 06ee 77bc
000002b0: fc3b 283d 6bf5 bcbd 8da9 4f3d adac 19bd
000002c0: 246d a93d f9a5 b23c fef4 8f3d 6de1 03bc
000002d0: 0d70 3d3a 1b3a 3f3c 5a33 96bd 8001 1e3d
000002e0: 89e2 98bc a930 35bd 65b3 033d 7a0a 7ebd
000002f0: 44ff 0b3d c1be 02bc 75c0 b53d 496f 6f3d
00000300: d5cc 233d 1fef 88bd 18e7 0dbb 6214 16bd
00000310: 1a77 23bd 026b a3bc 7aed 723d 6fd7 c4bb
00000320: b9c7 90bc 03f7 e43b f5fc 793d 64a2 c0ba
00000330: 1dce 4cbd 3c19 353b 64fc 9f3d c24f bbbd
00000340: 1ded 653c 56cd 493d b736 fc3b e5db be3d
00000350: 9685 acbd 4d81 433b d68e 6abd 6367 14bd
00000360: dc06 663c 050c b53c 8880 03bc 89f4 81bc
00000370: eeec 97bd 21b5 353d d999 29bc 5595 a2bd
00000380: f65e 833d 9c09 083c 38c6 7c3d 70f6 963d
00000390: 00ca c33d 3ea8 5e3d 3ab5 6bbd ac9f 92bb
000003a0: b977 afbd 6609 353c b718 283d eb4c 89bd
000003b0: 555e d03c 0871 b93c 00a2 4e3a ad87 913c
000003c0: 1e04 12bd 436b b33d 271c d23c 4217 2c3d
000003d0: 9319 3f3d 9253 b5bd 3589 a3bd fc16 223d
000003e0: 180d 02bd 8360 543d 1a86 5abd 3006 29bd
000003f0: c2d2 cebc 4e3f b4bc 6b3b 9a3d b5c1 72bd

actor.2.bias f4 [5]
-0.10481538 0.07709372 -0.008773529 0.002991804 0.03438553
00000000: 72a9 d6bd 50e3 9d3d d9be 0fbc 2412 443b
00000010: d7d7 0c3d

critic.0.weight f4 [128, 128]
0.12077362 0.0129812695 -0.09550692 -0.04286876 -0.005446806 0.010961406 -0.029565603 0.02670009
-0.09436038 0.048976127 0.018547622 -0.0048277634 0.02805221 0.002862882 0.009603523 0.078417405
-0.057854395 -0.105374426 0.022607975 -0.042004205 0.06410499 -0.06569331 0.061781302 0.078297816
-0.11998538 0.052859526 0.06159061 -0.09396834 -0.04710514 -0.023681179 -0.04301291 0.0069353264
0.033571452 0.050887175 0.02041552 -0.034288015 0.0053815898 -0.043545358 0.016202085 -0.093422465
-0.037837937 -0.07433588 0.043015357 -0.07071159 -0.0209077 0.11598316 -0.0042704195 -0.008133103
-0.06861402 0.11613208 -0.0067576407 0.021699121 0.036950223 0.08649183 -0.11244081 0.021150481
0.0480883 -0.07684542 0.06599009 0.056009315 0.066047914 -0.026449258 -0.014272331 -0.08608792
-0.11052379 0.04551136 -0.036664475 0.053623438 0.14676745 -0.03922767 -0.04196788 0.00063489197
-0.03010054 -0.018449623 -0.06089183 -0.074594826 0.03906213 -0.07786577 0.05407222 -0.02417203
-0.045860175 0.011973053 -0.006692366 -0.093568645 0.07279156 0.084177926 0.056268614 0.04523389
0.029458784 0.08137173 -0.068269745 0.004869847 0.053338308 -0.057102352 0.044268597 0.08214775
-0.034992173 0.10534765 0.021326592 -0.06086209 0.06855685 -0.06399792 -0.07696448 -0.054659314
-0.02023961 0.08725529 0.080846354 0.06946183 0.02591997 -0.021120222 0.002489 -0.075809754
-0.072968006 0.062703975 -0.035387725 0.049307365 -0.10614346 -0.016537083 0.08223731 -0.03955293
-0.023445044 -0.047146197 0.014804141 -0.055838455 -0.09393928 -0.030691497 -0.011788823 0.0762321
0.078463726 -0.054921377 0.02128382 0.06579118 -0.0868733 -0.08274 0.022010736 -0.05286128
0.017624207 -0.0604716 -0.054310955 -0.0009300858 0.08538047 -0.08109411 -0.017208539 -0.069685444
-0.0066949874 -0.038523093 0.014642596 -0.008794889 -0.0684938 0.044508792 0.04529666 -0.04423079
0.082303844 -0.08693169 -0.01271379 -0.06633562 -0.0009101182 -0.031540055 0.053058513 0.07297257
-0.039583962 0.046299107 -0.036589544 -0.042153075 -0.043096744 -0.060566347 -0.0050814375 -0.020549648
-0.076115444 0.04095217 -0.063502096 0.027587019 0.06442555 0.08538953 -0.052497018 -0.016105995
0.07379838 -0.046000503 -0.04162608 -0.019064747 -0.055733662 -0.051886648 0.063873015 -0.06766969
0.056640707 -0.008452825 0.04867921 0.0372188 -0.085218176 -0.047987167 -0.04429497 -0.037961107
-0.055813193 -0.066658124 0.079910986 0.011913933 0.026260361 -0.036096636 -0.043999773 -0.058377884
0.07277136 0.021959253 -0.049442016 -0.017479278 0.06389362 0.021084636 -0.054033514 -0.071025446
-0.0668691 0.08428984 0.027473696 0.07130473 0.065474786 -0.025929015 -0.025408514 -0.04849897
-0.005508296 -0.0645732 -0.02641422 -0.04325372 -0.03336476 -0.018519633 -0.04287972 0.06597354
-0.07768811 -0.07730369 -0.0031978488 -0.008563176 -0.034459822 0.007724896 -0.06367344 -0.032513585
0.02072569 -0.005285226 0.024439 -0.05781848 -0.01968705 -0.0875438 0.025888145 0.06967903
0.079486616 -0.04645252 -0.010110162 0.05768136 -0.028509837 -0.031856693 0.06440731 -0.028270766
-0.019911729 -0.06687124 -0.017149076 -0.05239102 0.06698053 0.043485187 0.009802744 0.03351158
00000000: 2958 f73d 64af 543c 2299 c3bd 2797 2fbd
00000010: 1f7b b2bb 7897 333c 9033 f2bc 26ba da3c
00000020: 0440 c1bd 319b 483d 2ff1 973c 3732 9ebb
00000030: c0cd e53c 319f 3b3b 1858 1d3c 4e99 a03d
00000040: bbf8 6cbd 8cce d7bd 5c34 b93c 9a0c 2cbd
00000050: 7a49 833d 378a 86bd 640e 7d3d 9b5a a03d
00000060: e5ba f5bd 3b83 583d 6f46 7c3d 7972 c0bd
00000070: 52f1 40bd 08ff c1bc 4e2e 30bd bc41 e33b
00000080: 3882 093d 126f 503d 733e a73c 9771 0cbd
00000090: 0c58 b03b 9e5c 32bd 3cba 843c 4754 bfbd
000000a0: f4fb 1abd 693d 98bd df30 303d 3dd1 90bd
000000b0: a046 abbc 9488 ed3d e0ee 8bbb b540 05bc
000000c0: 8285 8cbd a8d6 ed3d 336f ddbb 5bc2 b13c
000000d0: 1e59 173d a122 b13d 5e47 e6bd c643 ad3c
000000e0: 3df8 443d 2261 9dbd d025 873d 066a 653d
000000f0: 2144 873d 1dac d8bc 7fd6 69bc dd4e b0bd
00000100: 4c5a e2bd 1f6a 3a3d 7d2d 16bd 40a4 5b3d
00000110: 354a 163e 31ad 20bd 83e6 2bbd e16e 263a
00000120: 6895 f6bc aa23 97bc b669 79bd 2cc5 98bd
00000130: 9dff 1f3d 1778 9fbd d57a 5d3d 6c04 c6bc
00000140: e1d7 3bbd a02a 443c a34b dbbb eba0 bfbd
00000150: be13 953d 7a65 ac3d eb79 663d 2c47 393d
00000160: 8c53 f13c 39a6 a63d 02d1 8bbd 3d93 9f3b
00000170: 4579 5a3d 28e4 69bd fd52 353d 143d a83d
00000180: f453 0fbd 82c0 d73d 1bb5 ae3c 874a 79bd
00000190: 8967 8c3d 5711 83bd 8e9f 9dbd 72e2 5fbd
000001a0: 8acd a5bc e7b2 b23d c692 a53d 0142 8e3d
000001b0: 1e56 d43c 5104 adbc 7e1e 233b 2542 9bbd
000001c0: 4070 95bd f16a 803d b8f2 10bd 85f6 493d
000001d0: be61 d9bd c778 87bc 096c a83d 4102 22bd
000001e0: d20f c0bc 5f1c 41bd 118d 723c ddb6 64bd
000001f0: 3d63 c0bd bc6c fbbc e825 41bc 931f 9c3d
00000200: 97b1 a03d 3df5 60bd 685b ae3c 87bd 863d
00000210: a1ea b1bd 9773 a9bd dc4f b43c 1285 58bd
00000220: a460 903c 12b1 77bd 2a75 5ebd 00d1 73ba
00000230: f5db ae3d ab14 a6bd ecf8 8cbc 3eb7 8ebd
00000240: a061 dbbb 64ca 1dbd 80e7 6f3c 7018 10bc
00000250: 7a46 8cbd da4e 363d fe88 393d 582b 35bd
00000260: eb8e a83d 3e09 b2bd 804d 50bc f8da 87bd
00000270: 0095 6eba 2530 01bd e253 593d a572 953d
00000280: cb22 22bd 22a4 3d3d ebde 15bd b4a8 2cbd
00000290: 3686 30bd 6b14 78bd 3082 a6bb bc57 a8bc
000002a0: 6ae2 9bbd 76bd 273d 630d 82bd 2cfe e13c
000002b0: 8bf1 833d b5e0 ae3d 1d07 57bd b8f0 83bc
000002c0: 9b23 973d 066b 3cbd 1c80 2abd ac2d 9cbc
000002d0: fb48 64bd 1887 54bd dbcf 823d 6896 8abd
000002e0: 1600 683d b87d 0abc da63 473d be72 183d
000002f0: de86 aebd 318e 44bd a46e 35bd 1b7d 1bbd
00000300: 609c 64bd 0e84 88bd 5fa8 a33d a832 433c
00000310: f81f d73c 11da 13bd 1b39 34bd a61d 6fbd
00000320: 2709 953d e4e3 b33c b683 4abd b430 8fbc
00000330: a9da 823d b0b9 ac3c 3f52 5dbd ca75 91bd
00000340: abf2 88bd 27a0 ac3d 8410 e13c 3708 923d
00000350: a517 863d 1669 d4bc 8425 d0bc dba6 46bd
00000360: f07e b4bb f43e 84bd a262 d8bc d02a 31bd
00000370: 7da9 08bd 7cb6 97bc a5a2 2fbd 231d 873d
00000380: f21a 9fbd 6651 9ebd 0093 51bb 904c 0cbc
00000390: be25 0dbd 2021 fd3b 3867 82bd f72c 05bd
000003a0: ecc8 a93c b02f adbb 4c34 c83c 12d3 6cbd
000003b0: bc46 a1bc 2a4a b3bd 6013 d43c e1b3 8e3d
000003c0: e1c9 a23d ff44 3ebd 18a5 25bc 4a43 6c3d
000003d0: 768d e9bc 2a7c 02bd fbe7 833d 1898 e7bc
000003e0: ec1d a3bc caf3 88bd 387c 8cbc f797 56bd
000003f0: 172d 893d 861d 323d b09b 203c 7043 093d

critic.0.bias f4 [128]
-0.08889806 0.032320723 0.14984977 0.076031886 -0.08379368 -0.03951675 0.063145414 0.16298266
0.12821081 -0.055626255 -0.073699154 0.09821652 0.045716833 0.16356772 0.07482411 0.14065759
0.09705499 -0.10206684 0.08099721 -0.028480934 0.06401619 0.18551719 0.03578523 0.06097101
-0.10387566 0.053961813 -0.041328292 -0.02101597 -0.07998006 0.08192917 -0.08481868 0.14229703
0.15543124 -0.18197805 0.11788753 0.017799184 0.05587404 -0.1608802 0.017621614 -0.116039805
-0.037168913 -0.051024526 0.17266896 0.07922299 0.08346685 -0.018404594 -0.08789848 -0.14793374
-0.05194093 0.09472584 -0.073161505 0.16145642 -0.12533322 -0.05020098 -0.0541587 0.138885
-0.051668003 0.040106878 0.025367372 -0.08644062 -0.025977196 -0.044390406 0.11335201 -0.1252264
-0.09331454 -0.05132979 0.09222673 0.19002116 0.16012177 0.04449677 0.076237895 0.14823452
0.024836399 0.18265606 0.014947386 -0.063694604 0.084841795 0.1532657 -0.0735742 0.06459836
0.007929648 -0.06363376 0.08086283 0.13029456 -0.0016888687 0.085036226 -8.958178e-06 0.174419
0.08670707 0.114073694 0.061449874 0.16022782 0.14692338 -0.03041424 0.04536903 0.07931605
-0.058234252 0.19913822 0.045924712 0.13843942 0.05169789 0.118871085 0.1585806 0.06528038
0.08107714 0.07597347 0.21740156 0.010517344 -0.18867092 0.1367025 -0.07323962 -0.0018144734
-0.19417724 0.037961394 -0.15240592 -0.21532762 0.01615873 0.12772135 0.17102976 0.078158624
-0.095167026 0.19775008 0.14395572 -0.1681044 -0.028898155 0.05455231 -0.054754775 0.18973003
00000000: 3010 b6bd bc62 043d 3872 193e 9bb6 9b3d
00000010: 059c abbd 51dc 21bd 6252 813d ede4 263e
00000020: b249 033e 5bd8 63bd 95ef 96bd be25 c93d
00000030: 9341 3b3d 4c7e 273e 623d 993d 8b08 103e
00000040: c4c4 c63d 6b08 d1bd dee1 a53d d950 e9bc
00000050: ec1a 833d 38f8 3d3e 8993 123d bdbc 793d
00000060: c3bc d4bd 1007 5d3d db47 29bd af29 acbc
00000070: 96cc a3bd 7bca a73d 6bb5 adbd 50b6 113e
00000080: 5e29 1f3e 7458 3abe 046f f13d 98cf 913c
00000090: 2ddc 643d c7bd 24be 345b 903c 47a6 edbd
000000a0: 6e3e 18bd 18ff 50bd 22d0 303e aa3f a23d
000000b0: abf0 aa3d 3bc5 96bc 1e04 b4bd f17b 17be
000000c0: 03c0 54bd 9fff c13d b3d5 95bd d554 253e
000000d0: 5a57 00be 8b9f 4dbd 83d5 5dbd df37 0e3e
000000e0: d4a1 53bd 1c47 243d 3ccf cf3c c807 b1bd
000000f0: 21ce d4bc b7d2 35bd 1925 e83d 593b 00be
00000100: b21b bfbd 303f 52bd 5ee1 bc3d e894 423e
00000110: f6f6 233e 3f42 363d 9d22 9c3d caca 173e
00000120: b475 cb3c 310a 3b3e e2e5 743c 5172 82bd
00000130: 89c1 ad3d aff1 1c3e 12ae 96bd 254c 843d
00000140: 5beb 013c 6b52 82bd 699b a53d f06b 053e
00000150: 085d ddba 7927 ae3d 154b 16b7 e59a 323e
00000160: 7a93 b13d 789f e93d ddb2 7b3d c312 243e
00000170: 1573 163e 4927 f9bc e0d4 393d 7470 a23d
00000180: 0a87 6ebd e4ea 4b3e 8d1b 3c3d 10c3 0d3e
00000190: 2bc1 533d af72 f33d f462 223e b8b1 853d
000001a0: c60b a63d fb97 9b3d 849e 5e3e f050 2c3c
000001b0: f332 41be bdfb 0b3e a7fe 95bd a0d3 edba
000001c0: 66d6 46be 687d 1b3d 4c10 1cbe d87e 5cbe
000001d0: 505f 843c 63c9 023e 6d22 2f3e a111 a03d
000001e0: eee6 c2bd ff7e 4a3e 2169 133e 8f23 2cbe
000001f0: d3bb ecbc 3e72 5f3d 8b46 60bd 9748 423e

critic.2.weight f4 [1, 128]
-0.026875174 -0.02552881 0.16627504 0.12432936 -0.037269358 -0.054122638 -0.040850893 0.10433065
0.06345598 -0.07574569 0.05420359 0.124884576 -0.018691773 0.061336588 0.044496763 0.09730504
0.082322545 -0.15140827 0.07638495 -0.059732564 0.12831698 0.07263729 0.06117965 -0.006764378
-0.076782525 -0.0807624 -0.07348205 -0.0074742204 -0.06545994 0.06938116 -0.11201384 0.14794543
0.104295224 -0.10553019 0.044009916 -0.06492091 0.12478751 -0.102468275 -0.086108305 -0.06952181
-0.06867793 -0.04515679 0.08014407 0.11622936 0.098403506 0.002184793 -0.121971615 -0.10695154
0.019184822 0.096716575 -0.13608108 0.14860858 -0.07570624 -0.034455575 -0.08375753 0.09533552
-0.17430975 -0.08283294 -0.04706929 -0.117415786 -0.059072826 -0.13008584 0.06906929 -0.1199144
-0.04862376 -0.08695881 0.04115439 0.060515113 0.1318316 0.10639491 0.06912601 0.07959678
-0.00404508 0.13149315 -0.020339672 -0.015585285 0.116262935 0.16105258 -0.107810505 -0.06882382
-0.029908387 -0.053826425 0.12108259 0.13670102 -0.040050168 0.06730084 0.00010173407 0.10986214
0.14055952 0.1376106 0.10803976 0.07020791 0.083385386 -0.036871225 -0.008510229 0.0812941
-0.09342057 0.11345606 0.1390726 0.15883358 0.0006892548 0.07148396 0.11436325 0.048873577
0.15721066 0.14521569 0.0888965 -0.0053302296 -0.12158655 0.057433058 -0.008380438 -0.061026417
-0.1191049 0.083919495 -0.137267 -0.12089898 -0.032795366 0.07858764 0.09369218 0.14477332
-0.12937143 0.05070766 0.054295223 -0.10382713 -0.055599194 -0.0730775 -0.103201136 0.113202855
00000000: 5329 dcbc cc21 d1bc 0144 2a3e 64a0 fe3d
00000010: c1a7 18bd b3af 5dbd 4453 27bd 4fab d53d
00000020: 35f5 813d 8e20 9bbd 9504 5e3d 7cc3 ff3d
00000030: 7d1f 99bc 133c 7b3d 3d42 363d dd47 c73d
00000040: b998 a83d c50a 1bbe b66f 9c3d 22aa 74bd
00000050: 8765 033e dcc2 943d 8397 7a3d b7a7 ddbb
00000060: 2840 9dbd c266 a5bd c27d 96bd 4eea f4bb
00000070: dc0f 86bd b617 8e3d 8367 e5bd 027f 173e
00000080: bc98 d53d 3620 d8bd be43 343d 41f5 84bd
00000090: 9890 ff3d e3da d1bd 8d59 b0bd 7361 8ebd
000000a0: 04a7 8cbd 54f6 38bd 9322 a43d a909 ee3d
000000b0: c787 c93d be2e 0f3b 41cc f9bd 6909 dbbd
000000c0: 7d29 9d3c 5713 c63d d758 0bbe d92c 183e
000000d0: e00b 9bbd 4a21 0dbd 1189 abbd 453f c33d
000000e0: 417e 32be 51a4 a9bd bacb 40bd b077 f0bd
000000f0: 59f6 71bd 3935 05be 3374 8d3d ae95 f5bd
00000100: b529 47bd 7617 b2bd 8191 283d b2de 773d
00000110: ddfe 063e 93e5 d93d f091 8d3d a303 a33d
00000120: 978c 84bb 24a6 063e 629f a6bc 6c59 7fbc
00000130: 431b ee3d f8ea 243e c1cb dcbd 81f3 8cbd
00000140: 6f02 f5bc 1979 5cbd 26fa f73d 5afb 0b3e
00000150: a50b 24bd 06d5 893d 105a d538 67ff e03d
00000160: d6ee 0f3e cbe9 0c3e f343 dd3d 2ac9 8f3d
00000170: f5c5 aa3d 4806 17bd 7d6e 0bbc 857d a63d
00000180: 4953 bfbd a75b e83d 0c69 0e3e 45a5 223e
00000190: 1baf 343a 2f66 923d 4837 ea3d a92f 483d
000001a0: d5fb 203e 6cb3 143e 5e0f b63d 35a9 aebb
000001b0: 5e02 f9bd ed3e 6b3d 1b4e 09bc d6f6 79bd
000001c0: 45ed f3bd fcdd ab3d b88f 0cbe e299 f7bd
000001d0: 6f54 06bd 8ef2 a03d b0e1 bf3d 753f 143e
000001e0: f279 04be d6b2 4f3d ab64 5e3d 51a3 d4bd
000001f0: fbbb 63bd a8a9 95bd 1e5b d3bd e6d6 e73d
