models/ppo/Catan/ppo_catan_model_update150.pth (torch, 145076 bytes, 9 tensors)

shared.0.weight f4 [128, 10]
0.14780447 0.16197252 0.1414703 -0.08542675 0.1789031 0.0025924335 0.3486347 -0.21156831
0.36488798 -0.014610149 0.15099403 -0.1280258 -0.16521658 0.27289438 0.12950414 0.20632713
-0.1822601 -0.07132608 -0.1307465 0.05152562 -0.03887114 -0.16565777 0.20596652 0.049170393
-0.1398101 0.030644732 0.33305466 0.23244627 0.19769987 -0.02419896 -0.2758896 0.21679385
0.09161056 -0.053096127 0.17320679 0.32027698 0.22937067 0.0024268245 0.23483698 -0.23484282
-0.20122825 -0.29471543 -0.095922746 -0.2625196 0.15313877 0.11650198 0.15862566 0.19680071
-0.27445993 0.09134825 0.07391838 -0.1177642 -0.07060828 0.019443514 -0.20865802 -0.19209471
-0.12681185 0.20501047 0.2352071 0.029757766 0.27601376 0.30093968 0.018800318 -0.20550978
-0.04830028 0.037696566 -0.27564463 0.42850026 0.03138822 -0.14043441 0.3252521 -0.2358628
-0.18049482 -0.058863834 0.09942163 -0.18566841 -0.23035516 -0.16489853 0.12713426 0.08965506
0.23728581 -0.26579374 0.23958254 0.02678969 -0.1745765 0.3429162 -0.09040261 -0.32633597
-0.26484752 0.013888179 0.24816784 0.29528436 -0.07906201 -0.04090873 -0.020992147 0.034258295
0.16343136 0.092942774 0.029982572 0.22643137 0.20923036 -0.21237488 -0.043038342 0.05464377
0.057694975 0.23045126 0.07843722 0.22785518 0.017358037 0.23535639 0.08362409 -0.12030823
-0.05833175 -0.033846248 0.053530473 0.06566598 -0.14169656 0.08634759 -0.34528738 0.042174637
0.070368744 0.11782424 -0.07850008 -0.16714329 0.13618402 0.177257 -0.18649967 -0.32832655
-0.24522911 0.19818702 0.2547835 0.13413955 0.22897643 0.22731914 -0.10620925 0.27033556
0.006256464 0.13132909 -0.039769884 0.17034864 0.2804537 -0.0038421159 0.114217184 0.037257858
0.060960304 -0.020165747 0.20970787 -0.29453778 0.035165288 -0.17408049 -0.111141294 -0.0597538
0.23743017 0.060122535 0.2316965 0.068830945 -0.22073182 0.27787364 0.2750071 0.22068617
0.30031526 -0.19557473 0.32203066 -0.028567452 0.068076864 0.013080182 0.28367367 0.005156926
0.22246931 -0.099676535 0.1927589 -0.09345331 -0.21927401 0.055081192 0.059313577 0.06268434
-0.23143944 -0.12665628 -0.095531285 -0.015154393 0.065475725 0.114423044 0.029409641 0.2552561
-0.18827483 0.3722702 -0.18891643 -0.22744301 -0.1895779 -0.016529739 0.028639898 0.26693916
-0.20838617 -0.11116313 0.12636116 0.10559586 -0.27508563 -0.15613872 0.18759012 0.23043382
-0.03420969 0.25991315 0.08867533 0.009827513 -0.2628718 -7.5908785e-05 -0.2476862 -0.3168067
-0.01746666 0.025650706 -0.27075523 0.1167135 0.30430123 0.15856728 0.052408088 0.06459911
-0.068912 -0.1333503 -0.058889475 0.20767239 0.23727939 -0.24488221 0.17889662 0.19028726
0.23817292 -0.014843766 -0.035018124 0.022971552 -0.093391344 -0.043279752 0.021584889 0.15465315
0.038849585 -0.118236095 0.31652588 -0.14678691 -0.05236769 -0.064101964 0.17497459 -0.23504286
-0.23609053 0.030375723 0.009867065 -0.20875843 -0.071530364 -0.11785461 0.25420973 -0.31825253
-0.08961637 0.0668154 -0.20448701 -0.12423517 -0.05834096 0.11177521 -0.16275308 -0.25123233
00000000: 0e5a 173e 20dc 253e 97dd 103e 38f4 aebd
00000010: 6032 373e d1e5 293b 3f80 b23e 5da5 58be
00000020: 99d2 ba3e 685f 6fbc 2e9e 1a3e 3219 03be
00000030: 892e 29be d0b8 8b3e bc9c 043e 6b47 533e
00000040: 64a2 3abe 6813 92bd 69e2 05be 870c 533d
00000050: 5837 1fbd 31a2 29be e3e8 523e e566 493d
00000060: 612a 0fbe a90a fb3c 2486 aa3e 6506 6e3e
00000070: d671 4a3e e63c c6bc 6741 8dbe 35ff 5d3e
00000080: 519e bb3d 537b 59bd 1f5d 313e 58fb a33e
00000090: 25e0 6a3e 5c0b 1f3b 1b79 703e a37a 70be
000000a0: c70e 4ebe f1e4 96be 2573 c4bd f868 86be
000000b0: 69d0 1c3e 9798 ee3d c46e 223e 2086 493e
000000c0: 0386 8cbe cb14 bb3d 8562 973d 5b2e f1bd
000000d0: 139b 90bd 0148 9f3c 73aa 55be 7ab4 44be
000000e0: f7da 01be 44ee 513e 21da 703e 8fc6 f33c
000000f0: ad51 8d3e c414 9a3e 2003 9a3c 2871 52be
00000100: 84d6 45bd b767 1a3d 4b21 8dbe 6364 db3e
00000110: ef90 003d 0ace 0fbe 7187 a63e 0586 71be
00000120: a2d3 38be 341b 71bd 919d cb3d dc1f 3ebe
00000130: 39e2 6bbe 29db 28be 7c2f 023e 129d b73d
00000140: 0dfb 723e 1e16 88be 2055 753e 0d76 db3c
00000150: 2fc4 32be b692 af3e 0125 b9bd 8215 a7be
00000160: 189a 87be 3f8b 633c b61f 7e3e 832f 973e
00000170: 43eb a1bd ea8f 27bd b9f7 abbc 6d52 0c3d
00000180: 8d5a 273e c858 be3d 039e f53c a0dd 673e
00000190: 7c40 563e cd78 59be f948 30bd 25d2 5f3d
000001a0: 9151 6c3d 6afb 6b3e b1a3 a03d de52 693e
000001b0: 7132 8e3c 4401 713e 1b43 ab3d 2964 f6bd
000001c0: 46ed 6ebd 5da2 0abd c542 5b3d e37b 863d
000001d0: e718 11be 01d7 b03d 82c9 b0be 50bf 2c3d
000001e0: 7d1d 903d d64d f13d a6c4 a0bd 9c27 2bbe
000001f0: d373 0b3e dc82 353e c5f9 3ebe 6b1a a8be
00000200: 571d 7bbe 8af1 4a3e fc72 823e e15b 093e
00000210: cc78 6a3e 59c6 683e 3c84 d9bd 6c69 8a3e
00000220: 0603 cd3b 227b 063e bfe5 22bd e06f 2e3e
00000230: a197 8f3e 02cc 7bbb b3ea e93d b29b 183d
00000240: 83b1 793d a332 a5bc a9bd 563e a8cd 96be
00000250: 7a09 103d 2842 32be 0c9e e3bd 67c0 74bd
00000260: e520 733e 0c43 763d d941 6d3e 3df7 8c3d
00000270: 8607 62be 7445 8e3e bbcd 8c3e 8efb 613e
00000280: ecc2 993e be44 48be 34e1 a43e 4a06 eabc
00000290: e26b 8b3d 424e 563c ad3d 913e 6efb a83b
000002a0: ffce 633e 3623 ccbd 9762 453e 7364 bfbd
000002b0: 5e89 60be d19c 613d cbf2 723d a660 803d
000002c0: 76fe 6cbe 2fb2 01be e8a5 c3bd 224a 78bc
000002d0: 2318 863d a156 ea3d 7dec f03c edb0 823e
000002e0: 1ecb 40be 339a be3e 4f73 41be d2e6 68be
000002f0: b620 42be 6069 87bc 389e ea3c 40ac 883e
00000300: 2f63 55be 7fa9 e3bd d264 013e a442 d83d
00000310: 06d8 8cbe d4e2 1fbe a017 403e d8f6 6b3e
00000320: 761f 0cbd 5613 853e 699b b53d 9403 213c
00000330: 2297 86be 3831 9fb8 74a1 7dbe 7d34 a2be
00000340: 3e16 8fbc 6e21 d23c 6ea0 8abe 7d07 ef3d
00000350: 5fcd 9b3e 765f 223e dda9 563d 8a4c 843d
00000360: bc21 8dbd fb8c 08be 1736 71bd 12a8 543e
00000370: 5ef9 723e 67c2 7abe ad30 373e aada 423e
00000380: 9ae3 733e 4433 73bc 2a6f 0fbd d62e bc3c
00000390: f643 bfbd 1c46 31bd cbd2 b03c 655d 1e3e
000003a0: be20 1f3d c425 f2bd ae0f a23e 4f4f 16be
000003b0: 817f 56bd e447 83bd 8a2c 333e 13af 70be
000003c0: b7c1 71be 82d6 f83c 78a9 213c c5c4 55be
000003d0: 837e 92bd c25d f1bd c727 823e fff1 a2be
000003e0: ca88 b7bd 83d6 883d 0b65 51be 026f febd
000003f0: eef6 6ebd 67ea e43d bea8 26be 86a1 80be

shared.0.bias f4 [128]
-0.3735795 -0.14269651 0.45593044 -0.07435958 -0.087707415 -0.2435549 0.23751275 -0.11483253
0.22855851 0.18819746 0.069033235 0.46361294 0.02780331 -0.21684203 0.038401797 -0.08986845
-0.05319093 0.17226163 -0.28437832 0.20713888 0.08422947 0.37711614 0.2757667 -0.053945158
0.20628113 -0.045109663 -0.16287504 -0.24040559 -0.2371344 0.18977758 -0.08761163 -0.13074088
-0.20714368 -0.15196085 0.2684634 0.18993858 0.41366664 -0.14120819 0.35801408 -0.028405054
-0.17812736 -0.10833545 0.41159487 0.071073696 0.22735114 -0.28557855 0.13879469 -0.10489551
-0.10015668 0.074490815 0.11673342 -0.16332245 0.19757077 -0.21473804 -0.28246328 0.03176644
0.077151544 0.18494378 0.39978826 0.034833636 0.3122485 -0.05537177 0.22096156 0.41363952
-0.080799416 -0.030719072 0.26260072 -0.22536698 -0.09898768 0.23740555 0.13518694 0.023307586
0.14199963 -0.29191077 -0.19984832 -0.080704294 -0.09200179 -0.17461024 0.319437 -0.30987886
-0.20966657 0.3612238 0.12981331 0.25668117 0.10320936 0.024042416 -0.10143557 0.33982512
-0.11817721 -0.10394426 -0.2274715 -0.16559261 0.10207423 0.36653328 -0.19839662 -0.049291275
-0.32244077 -0.29526258 -0.30217823 -0.0564453 -0.07915563 -0.0484902 0.40317315 -0.2820719
-0.20091116 0.12852137 -0.31822234 0.18163912 0.42078683 0.06623283 0.16914707 0.015896145
0.3945656 -0.26248184 0.17789192 0.1586122 -0.126462 -0.32379767 -0.12763114 0.11937424
-0.05642318 0.25809753 0.06535021 -0.019941377 0.27400795 -0.116436206 -0.11685758 0.052262343
00000000: d045 bfbe 091f 12be b76f e93e d649 98bd
00000010: f29f b3bd 7566 79be 8b36 733e 512d ebbd
00000020: 3e0b 6a3e d6b6 403e 4c61 8d3d ad5e ed3e
00000030: c4c3 e33c d60b 5ebe 344b 1d3d f30c b8bd
00000040: bcde 59bd 5a65 303e 099a 91be 371c 543e
00000050: 8080 ac3d 5e15 c13e 4b31 8d3e 99f5 5cbd
00000060: 5c3b 533e e9c4 38bd b7c8 26be e22c 76be
00000070: 5cd3 72be 0e55 423e ba6d b3bd f0e0 05be
00000080: 791d 54be a09b 1bbe 0974 893e 427f 423e
00000090: 1dcc d33e e198 10be 9f4d b73e b7b1 e8bc
000000a0: 0567 36be fade ddbd 90bc d23e 168f 913d
000000b0: bdce 683e 5a37 92be 3220 0e3e 75d3 d6bd
000000c0: f21e cdbd a48e 983d ee11 ef3d 003e 27be
000000d0: fe4f 4a3e 4ae4 5bbe 079f 90be 871d 023d
000000e0: a101 9e3d e761 3d3e 0cb1 cc3e b7ad 0e3d
000000f0: 09df 9f3e 82cd 62bd bf43 623e 8fc8 d33e
00000100: 2a7a a5bd 90a6 fbbc 9a73 863e 9ac6 66be
00000110: 0eba cabd 711a 733e 726e 0a3e 8def be3c
00000120: 5a68 113e 5475 95be 0aa5 4cbe 4b48 a5bd
00000130: 6f6b bcbd 07cd 32be 3f8d a33e 71a8 9ebe
00000140: d5b2 56be 53f2 b83e c8ed 043e b76b 833e
00000150: 6e5f d33d 9af4 c43c 74bd cfbd 8ffd ad3e
00000160: e506 f2bd bae0 d4bd 4aee 68be 1c91 29be
00000170: 4b0c d13d 40aa bb3e 7c28 4bbe a6e5 49bd
00000180: f516 a5be a82c 97be 1bb7 9abe 3033 67bd
00000190: 591c a2bd a99d 46bd b66c ce3e ba6b 90be
000001a0: a8bb 4dbe 1b9b 033e 0aee a2be 9bff 393e
000001b0: 5f71 d73e 14a5 873d e434 2d3e a238 823c
000001c0: 8104 ca3e 0564 86be 4d29 363e 3d6b 223e
000001d0: 417f 01be cfc8 a5be bdb1 02be 7b7a f43d
000001e0: fe1b 67bd 5c25 843e 55d6 853d 195c a3bc
000001f0: c54a 8c3e 1b76 eebd 0753 efbd 0a11 563d

actor.0.weight f4 [128, 128]
-0.042931885 -0.014769657 -0.017175097 -0.044554364 -0.06063406 0.04345455 -0.060348034 0.07040984
0.05115293 0.044833694 -0.0073584905 -0.06853222 0.08322826 -0.08092128 0.086399734 0.015928391
0.056530643 0.07370607 0.06828521 0.07448191 0.06272605 0.050922647 0.020132814 -0.030186582
0.036404353 0.038726516 0.09026856 -0.054060563 -0.04577666 -0.055644955 0.045136213 0.025940087
-0.00023193264 -0.018567313 0.048347645 0.06816291 -0.01544292 0.08427708 -0.06954647 -0.08691163
-0.04493396 -0.08184715 -0.009042603 0.065829694 0.028519403 -0.032973435 -0.025408097 0.00813674
-0.0147847235 -0.032061454 0.063290946 0.03649214 0.035564672 -0.07336801 -0.039995294 0.058251683
0.041823793 0.049278833 -0.081645526 -0.05011098 0.053683765 0.012326395 -0.048513975 -0.08147291
-0.043937653 0.08251426 0.046423946 0.0004389791 0.010887615 0.03528173 -0.06664127 0.07104457
0.04104692 0.009374153 0.04830852 -0.009754614 -0.024905927 0.008944866 -0.0995337 0.08605166
0.052022584 -0.050006222 -0.058309086 -0.08183799 -0.014589295 0.064491235 0.03682864 0.04812611
0.08284899 -0.064225815 0.014909504 0.05314467 -0.002875213 -0.055969387 -0.0793489 0.046132296
-0.081519164 -0.050120175 0.027443366 0.037840527 0.029657347 0.0074281334 0.08589173 -0.056615416
-0.018474495 0.045820963 -0.003374188 0.039258413 0.057976034 -0.026350839 -0.01378688 0.07475472
-0.005040179 0.072695665 -0.060191426 0.058594476 -0.06880219 0.06773037 0.09187856 -0.03145119
0.06746691 0.036775917 -0.008209824 0.10026258 -0.029863402 -0.0008693166 -0.037180502 0.06319688
0.020503022 0.023089498 0.004718676 0.04731489 -0.043062877 -0.0011405498 -0.059981275 -0.06194968
0.032483786 -0.04420274 -0.06760989 -0.020759828 0.012694001 -0.0045508817 -0.050143495 -0.06656995
-0.07361613 0.07337167 0.017960317 -0.03171765 -0.041755557 0.020904489 -0.047291175 0.01335679
-0.0536614 0.085886635 0.020726576 -0.051956475 0.035800584 -0.023509026 0.014612637 0.017446369
-0.030383725 0.0056313425 -0.024363272 0.05085229 -0.05185606 -0.003552854 -0.017701536 -0.033896644
0.0013939142 0.069308825 0.045177422 -0.008927174 -0.032238744 -0.000120677054 -0.06588788 -0.04181747
-0.08372021 -0.043037083 -0.008189872 0.06482508 0.0027360395 0.05186484 0.0012701675 0.006628953
-0.0063656047 0.026039913 0.023236178 0.04483152 0.022831306 0.06604885 -0.007434778 0.023488142
0.02877494 0.0018082336 0.049293272 -0.029524889 0.010522731 0.0032428503 -0.07847613 -0.067033276
-0.0172 0.043052994 -0.021734558 0.048654906 -0.051254645 -0.08459508 -0.032185778 -0.051287066
-0.01930102 -0.036376692 -0.029347736 -0.071874686 -0.07397733 -0.0029301941 -0.07294965 0.025019035
-0.056463163 -0.00638707 0.06833217 -0.031191364 0.0022722706 0.07069204 0.029863246 -0.019521654
-0.06220997 0.081474625 -0.029040936 0.035450757 -0.044202045 0.005611293 0.037677117 0.01386898
-0.03807129 0.057810046 -0.06978945 -0.014725484 -0.006513424 -0.076876566 0.06629308 -0.060000286
0.06357538 -0.008607924 0.018344939 -0.06651872 0.0396251 -0.08614442 -0.01459261 -0.05027221
0.027230203 -0.0764137 0.0785295 -0.05538766 -0.063703835 -0.036725458 -0.009496167 0.042637922
00000000: 58d9 2fbd 6efc 71bc cab2 8cbc a37e 36bd
00000010: 6c5b 78bd 66fd 313d 802f 77bd 0933 903d
00000020: bc85 513d 89a3 373d 7e1f f1bb 9f5a 8cbd
00000030: 9473 aa3d 0eba a5bd 58f2 b03d 427c 823c
00000040: ad8c 673d 35f3 963d 1ed9 8b3d f989 983d
00000050: 8476 803d 4494 503d 92ed a43c da49 f7bc
00000060: bb1c 153d b29f 1e3d b9de b83d 9c6e 5dbd
00000070: 4f80 3bbd f7eb 63bd c0e0 383d 4e80 d43c
00000080: f232 73b9 7a1a 98bc 2e08 463d ff98 8b3d
00000090: 4d04 7dbc 7699 ac3d 616e 8ebd bafe b1bd
000000a0: ac0c 38bd 7b9f a7bd 6d27 14bc b8d1 863d
000000b0: 86a1 e93c 270f 07bd a424 d0bc f64f 053c
000000c0: a03b 72bc df52 03bd af9e 813d c878 153d
000000d0: 43ac 113d f841 96bd 1bd2 23bd 5199 6e3d
000000e0: 6d4f 2b3d 9ad8 493d c535 a7bd 2c41 4dbd
000000f0: 82e3 5b3d a6f4 493c 97b6 46bd 45db a6bd
00000100: f8f7 33bd 3dfd a83d 0927 3e3d c726 e639
00000110: f861 323c 9383 103d 387b 88bd d17f 913d
00000120: d120 283d 0c96 193c 28df 453d d1d1 1fbc
00000130: 8407 ccbc 7d8d 123c 53d8 cbbd da3b b03d
00000140: a215 553d 53d3 4cbd 82d5 6ebd ad9a a7bd
00000150: f007 6fbc fb13 843d a1d9 163d e21f 453d
00000160: bbac a93d d388 83bd fe46 743c 3aae 593d
00000170: 126e 3cbb 2840 65bd ad81 a2bd 38f5 3c3d
00000180: 85f3 a6bd d04a 4dbd e9d0 e03c abfe 1a3d
00000190: f7f3 f23c b367 f33b 01e8 af3d 91e5 67bd
000001a0: d357 97bc c3ae 3b3d 7b21 5dbb 6ecd 203d
000001b0: 4778 6d3d b7dd d7bc 5ee2 61bc 0119 993d
000001c0: 1628 a5bb 77e1 943d 498b 76bd c300 703d
000001d0: 2ae8 8cbd 38b6 8a3d d42a bc3d f7d2 00bd
000001e0: 172c 8a3d 58a2 163d 7f82 06bc 7856 cd3d
000001f0: 18a4 f4bc d9e2 63ba 954a 18bd 5e6d 813d
00000200: f4f5 a73c 3026 bd3c 209f 9a3b 42cd 413d
00000210: b362 30bd 807e 95ba edae 75bd f3be 7dbd
00000220: b80d 053d ef0d 35bd 0e77 8abd 8410 aabc
00000230: 80fa 4f3c 901f 95bb 4463 4dbd d355 88bd
00000240: 0ec4 96bd e343 963d 8421 933c 5eea 01bd
00000250: e007 2bbd e43f ab3c 64b4 41bd 70d6 5a3c
00000260: 0ecc 5bbd 55e5 af3d c8ca a93c 50d0 54bd
00000270: a2a3 123d 0096 c0bc d869 6f3c b0eb 8e3c
00000280: 4ae7 f8bc 2087 b83b 7c95 c7bc 7e4a 503d
00000290: 0567 54bd 00d7 68bb d002 91bc 35d7 0abd
000002a0: 00b4 b63a c9f1 8d3d f60b 393d 4843 12bc
000002b0: c60c 04bd 0014 fdb8 3af0 86bd cc48 2bbd
000002c0: 8075 abbd a747 30bd d02e 06bc 03c3 843d
000002d0: 204f 333b 3a70 543d c07b a63a b037 d93b
000002e0: 9096 d0bb a851 d53c cc59 be3c 42a1 373d
000002f0: b808 bb3c 9f44 873d 709f f3bb 346a c03c
00000300: 6cb9 eb3c 4002 ed3a bee7 493d 2ede f1bc
00000310: 8867 2c3c 0086 543b 18b8 a0bd be48 89bd
00000320: 04e7 8cbc 5658 303d ac0c b2bc 5e4a 473d
00000330: 64f0 51bd 2f40 adbd 3cd5 03bd 6312 52bd
00000340: 2c1d 9ebc baff 14bd aa6a f0bc 0933 93bd
00000350: 6d81 97bd 8008 40bb a066 95bd b8f4 cc3c
00000360: eb45 67bd a04a d1bb bdf1 8b3d 0885 ffbc
00000370: 60ea 143b fdc6 903d c4a3 f43c e0eb 9fbc
00000380: e2cf 7ebd 2bdc a63d 42e7 edbc d034 113d
00000390: 340d 35bd f0de b73b 5253 1a3d b83a 633c
000003a0: a4f0 1bbd 3aca 6c3d c5ed 8ebd 2843 71bc
000003b0: 906e d5bb 7671 9dbd abc4 873d dcc2 75bd
000003c0: cf33 823d 4008 0dbc 2048 963c f73a 88bd
000003d0: ee4d 223d 7c6c b0bd d815 6fbc 3cea 4dbd
000003e0: e011 df3c c97e 9cbd 13d4 a03d 2cde 62bd
000003f0: 2877 82bd 6f6d 16bd d095 1bbc 1aa5 2e3d

actor.0.bias f4 [128]
-0.06663966 0.068553545 0.079757586 0.06897165 -0.021412114 0.065823615 0.009526881 -0.042011578
-0.030480549 0.012042689 0.039779015 0.03561769 0.059488233 0.03529268 -0.0030763566 0.081284724
-0.07775536 -0.020499736 0.004261347 -0.069716595 -0.035337996 0.039745875 -0.02578351 0.015614249
-0.09138241 -0.053496066 0.065609 -0.039522763 0.055712663 0.0743119 -0.07527809 -0.014466879
0.0053627645 -0.022568395 -0.06366126 0.014983826 -0.075971775 -0.016651588 -0.053018868 0.011247762
-0.08300595 -0.06782653 -0.048178747 0.06660479 0.08047383 0.042609707 0.032176383 -0.026400274
-0.03960375 0.047129814 0.04544334 -0.0032452953 -0.025649622 -0.057333212 0.025715513 0.046667445
0.05137269 0.095972225 0.05779995 0.063590474 -0.019954054 0.009024101 0.06558454 -0.029268155
0.051861245 0.049853865 0.091696925 0.05473178 0.022342715 -0.047013216 -0.035276238 0.030888598
-0.020994298 0.092386514 -0.03756454 -0.011572049 -0.049522776 0.0054860367 0.012718241 0.018422376
0.034887236 -0.09389341 -0.0382099 0.04502477 0.016688298 -0.0139026195 0.009055982 -0.025901916
-0.0569562 0.07612093 -0.0747482 -0.0071751736 0.034958694 -0.080908835 0.059992444 0.0036173223
-0.0029242719 -0.013159514 0.020850211 0.09580976 -0.020041065 -0.046841428 0.06425029 0.04523271
0.019497545 0.046557985 0.044191923 -0.01857993 -0.0070574456 0.07595793 0.054158546 -0.027531998
0.09500938 0.022460077 0.034098316 -0.01696536 -0.002247985 0.007776967 0.07109766 -8.974894e-05
0.062013097 -0.0046014534 0.04031468 0.051465113 -0.05355104 -0.0015602133 0.043679487 0.030179013
00000000: 607a 88bd cd65 8c3d f257 a33d 0241 8d3d
00000010: 7568 afbc 88ce 863d a316 1c3c 5514 2cbd
00000020: 58b2 f9bc b34e 453c 52ef 223d dbe3 113d
00000030: efa9 733d 0f8f 103d b39c 49bb 9b78 a63d
00000040: 343e 9fbd 10ef a7bc c5a2 8b3b 93c7 8ebd
00000050: 93be 10bd 92cc 223d f137 d3bc e8d2 7f3c
00000060: b326 bbbd b11e 5bbd 035e 863d 9fe2 21bd
00000070: f632 643d d630 983d 662b 9abd 7d06 6dbc
00000080: 21ba af3b 5be1 b8bc d660 82bd b97e 753c
00000090: 1797 9bbd e968 88bc 502a 59bd 8848 383c
000000a0: 06ff a9bd a3e8 8abd 1457 45bd 1868 883d
000000b0: 77cf a43d 8487 2e3d 62cb 033d 6345 d8bc
000000c0: 8b37 22bd 310b 413d cc22 3a3d 05af 54bb
000000d0: 281f d2bc 3bd6 6abd 57a9 d23c 5d26 3f3d
000000e0: 2b6c 523d 168d c43d a4bf 6c3d b93b 823d
000000f0: af76 a3bc d3d9 133c 3051 863d c5c3 efbc
00000100: 756c 543d 9133 4c3d 99cb bb3d 6e2e 603d
00000110: 1208 b73c ee90 40bd d17d 10bd 160a fd3c
00000120: 3cfc abbc 2435 bd3d 46dd 19bd b198 3dbc
00000130: 65d8 4abd 36c4 b33b 2b60 503c 86ea 963c
00000140: ebe5 0e3d 304b c0bd fc81 1cbd e56b 383d
00000150: e6b5 883c d0c7 63bc 8b5f 143c 4130 d4bc
00000160: e84a 69bd 4ae5 9b3d 9615 99bd b81d ebbb
00000170: d930 0f3d 88b3 a5bd a3ba 753d 9910 6d3b
00000180: 24a5 3fbb 019b 57bc 10ce aa3c e837 c43d
00000190: 292d a4bc ccdc 3fbd a895 833d ef45 393d
000001a0: 51b9 9f3c 96b3 3e3d 9702 353d f034 98bc
000001b0: 2542 e7bb d58f 9b3d 5ad5 5d3d c98a e1bc
000001c0: 4794 c23d 32fe b73c adaa 0b3d f0fa 8abc
000001d0: ee52 13bb edd5 fe3b a69b 913d 9837 bcb8
000001e0: 7201 7e3d cac7 96bb 0221 253d 15cd 523d
000001f0: 5658 5bbd 1280 ccba 43e9 323d fa39 f73c

actor.2.weight f4 [5, 128]
-0.087185994 -0.071090356 -0.09260908 0.010271722 -0.02846261 -0.0031609742 0.032761775 0.041611206
-0.027351448 0.015881225 0.05788128 0.015958186 -0.02222422 -0.08022325 -0.018287193 -0.07672777
0.06290714 -0.02955698 -0.031610392 0.047081232 0.072210304 -0.0050539603 -0.017835591 -0.06413847
0.078162536 0.0500068 0.027633622 -0.07203195 0.047975063 0.028890114 -0.07540833 -0.043336842
0.02954528 -0.0127345305 0.034253962 -0.02777191 -0.05151863 -0.06972199 -0.019191032 -0.06255486
-0.076552995 0.04127106 0.061092727 0.0076743546 -0.09241906 -0.051036857 -0.028010707 0.06551498
0.03536391 -0.07586216 -0.036122818 -0.11171712 -0.051881343 0.043011513 -0.010788921 -0.04522916
0.020164648 -0.1045722 0.03983155 0.0105056 -0.09326881 0.053228963 -0.05263554 0.046636377
0.022853807 -0.025567813 -0.09114515 -0.044871397 0.023041466 -0.01869621 -0.092594795 -0.06086962
-0.06352734 -0.0012706195 -0.09073943 0.0582202 -0.044073597 -0.08063725 -0.010869152 0.01477617
-0.0021744291 0.017548852 -0.00572654 -0.09631533 -0.0215994 0.063599065 -0.022839144 -0.107646346
-0.06994642 0.029595844 -0.045181405 -0.026373776 -0.06673054 0.035436925 0.03730167 -0.034677073
0.01860413 -0.021632055 0.044368524 -0.012490975 0.055501483 -0.040897503 0.05250869 -0.035974834
-0.054803602 -0.051153205 -0.09182767 0.07230581 0.03032893 -0.057761513 -0.020713784 0.004791866
0.0061398614 0.023946812 -0.07409653 -0.0031890576 -0.0728563 0.035464652 0.07539659 -0.0767453
-0.09838515 -0.012023231 0.02085509 0.07208363 -0.07523434 -0.013783745 -0.112569205 -0.11083303
-0.0096017225 -0.0859571 0.09144562 -0.01533991 0.10080801 0.07399668 0.055546813 -0.030554458
0.103874095 -0.058250647 0.005245374 -0.06020893 0.07388135 0.06468272 -0.0392221 0.037757322
-0.04925694 -0.04997486 0.057881147 0.070013516 -0.042935636 -0.039662812 -0.01818866 -0.068133004
-0.08868758 -0.034782644 0.002465777 0.022933507 -0.0895811 0.019136557 -0.0037502504 0.014818191
-0.04643407 0.08099536 0.017254084 0.005475658 -0.014459864 -0.090081066 -0.007989225 -0.061429158
0.082110845 0.061569277 0.076935865 -0.012697685 0.04180195 -0.08980254 0.057656884 -0.03688381
0.092659056 0.03262872 0.07236278 -0.0038102577 0.0056889807 0.017638326 -0.06747111 0.04459476
0.0026449154 -0.045918178 0.032008424 -0.057917506 0.030442324 0.017697323 0.08874599 0.052367534
0.04512279 -0.06690176 -0.001969004 -0.036640532 -0.035219632 -0.019948486 0.060999785 -0.004210603
-0.0176445 0.007817396 0.061032254 -0.0014696834 -0.050001252 -0.0057507055 0.076113075 -0.084699064
0.029396307 0.052080534 0.006764924 0.092543095 -0.081253655 0.010145795 -0.054435894 -0.040031314
0.016146531 0.02466737 -0.01579665 -0.010314489 -0.07344786 0.04497346 -0.009842474 -0.0750347
0.06414597 0.002948812 0.06258417 0.0808389 0.09314479 0.060239755 -0.08619493 -0.003690324
-0.0856551 0.0065630088 0.051147424 -0.06717207 0.032649264 0.023967419 0.0007882416 0.023999978
-0.020915898 0.073041014 0.024256244 0.042014368 0.05185777 -0.08261036 -0.07860923 0.04758297
-0.02830749 0.051849853 -0.0393674 -0.04156489 -0.03162092 -0.028702853 0.08052202 -0.05548029
00000000: 928e b2bd d297 91bd d4a9 bdbd ba4a 283c
00000010: 6b2a e9bc 5928 4fbb 3631 063d 8370 2a3d
00000020: 2510 e0bc 5819 823c ec14 6d3d beba 823c
00000030: 910f b6bc 164c a4bd 06cf 95bc 7323 9dbd
00000040: 75d5 803d 7b21 f2bc e679 01bd 40d8 403d
00000050: ffe2 933d b19b a5bb f21b 92bc 085b 83bd
00000060: ae13 a03d eed3 4c3d e85f e23c 7d85 93bd
00000070: 8081 443d f6aa ec3c af6f 9abd f981 31bd
00000080: f108 f23c 7ea4 50bc e24d 0c3d eb81 e3bc
00000090: 3305 53bd 67ca 8ebd 8336 9dbc c31c 80bd
000000a0: d1c7 9cbd d80b 293d 5e3c 7a3d 2779 fb3b
000000b0: 3446 bdbd 060c 51bd b676 e5bc b82c 863d
000000c0: bfd9 103d 9f5d 9bbd 85f5 13bd f2cb e4bd
000000d0: 8881 54bd d72c 303d 04c4 30bc 3642 39bd
000000e0: 5530 a53c f329 d6bd 6826 233d ae1f 2c3c
000000f0: b803 bfbd 9d06 5a3d 5d98 57bd c905 3f3d
00000100: e837 bb3c 9773 d1bc 4faa babd 12cb 37bd
00000110: 75c1 bc3c cb28 99bc 57a2 bdbd 6c52 79bd
00000120: 9f1a 82bd ea8a a6ba 98d5 b9bd 4e78 6e3d
00000130: 8486 34bd 2425 a5bd 8714 32bc c017 723c
00000140: de80 0ebb 9cc2 8f3c b3a5 bbbb f940 c5bd
00000150: 3af1 b0bc 3a40 823d 2819 bbbc b075 dcbd
00000160: 1240 8fbd fc72 f23c 2310 39bd d10d d8bc
00000170: 05aa 88bd 4f26 113d a3c9 183d 8c09 0ebd
00000180: b067 983c b535 b1bc c5bb 353d f2a6 4cbc
00000190: 8655 633d 2484 27bd 5a13 573d 595a 13bd
000001a0: be79 60bd 0686 51bd 2510 bcbd 1215 943d
000001b0: 6074 f83c 5697 6cbd f4af a9bc 1605 9d3b
000001c0: e430 c93b 1b2c c43c ecbf 97bd 82ff 50bb
000001d0: af35 95bd 6243 113d 8769 9a3d a42c 9dbd
000001e0: 277e c9bd 16fd 44bc 4bd8 aa3c 95a0 933d
000001f0: 7614 9abd 37d5 61bc af8a e6bd 6dfc e2bd
00000200: 8b50 1dbc 470a b0bd d747 bb3d 3f54 7bbc
00000210: 6e74 ce3d 928b 973d 0e85 633d 584d fabc
00000220: f1bb d43d 3b98 6ebd 63e1 ab3b a49d 76bd
00000230: 1b4f 973d 6078 843d 5aa7 20bd 6ca7 1a3d
00000240: a5c1 49bd 70b2 4cbd c814 6d3d 3f63 8f3d
00000250: 47dd 2fbd 7975 22bd 6200 95bc 5189 8bbd
00000260: d5a1 b5bd 3f78 0ebd e098 213b 0ddf bb3c
00000270: 4c76 b7bd 45c4 9c3c c3c6 75bb ffc7 723c
00000280: a731 3ebd e5e0 a53d 7058 8d3c 266d b33b
00000290: 11e9 6cbc 6c7c b8bd 3de5 02bc 249d 7bbd
000002a0: bb29 a83d 1130 7c3d 8d90 9d3d f309 50bc
000002b0: 8638 2b3d 65ea b7bd a029 6c3d 7a13 17bd
000002c0: 08c4 bd3d b1a5 053d f032 943d 84b5 79bb
000002d0: a16a ba3b 407e 903c 4b2e 8abd ffa8 363d
000002e0: 5156 2d3b b314 3cbd 441b 033d e83a 6dbd
000002f0: 2e62 f93c faf9 903c 75c0 b53d 577f 563d
00000300: add2 383d ca03 89bd 680a 01bb 6214 16bd
00000310: 7642 10bd 026b a3bc e9da 793d 19f9 89bb
00000320: 338b 90bc 8914 003c f5fc 793d 64a2 c0ba
00000330: 1dce 4cbd 6a70 bcbb 2ce1 9b3d b476 adbd
00000340: 86d0 f03c 6652 553d 4cac dd3b 3c87 bd3d
00000350: 5168 a6bd 8c3a 263c 2cf8 5ebd e0f7 23bd
00000360: bb45 843c 3913 ca3c fa67 81bc 1afe 28bc
00000370: d56b 96bd 1736 383d 5442 21bc cbab 99bd
00000380: f65e 833d db40 413b 212c 803d dd8e a53d
00000390: b2c2 be3d f6bd 763d f886 b0bd 5dd9 71bb
000003a0: f16b afbd 820e d73b f67f 513d 8391 89bd
000003b0: 3cbb 053d 5257 c43c 00a2 4e3a 9a9b c43c
000003c0: d157 abbc 8796 953d 08b5 c63c 4217 2c3d
000003d0: d068 543d 9f2f a9bd e0fd a0bd 5ce6 423d
000003e0: 1ce5 e7bc 8360 543d b63f 21bd f23f 2abd
000003f0: f084 01bd 3f22 ebbc bbe8 a43d 4d3f 63bd

actor.2.bias f4 [5]
-0.0988917 0.081213735 -0.0001577162 0.0054350374 0.02190223
00000000: bb87 cabd 6353 a63d 9f60 25b9 6618 b23b
00000010: 4e6c b33c

critic.0.weight f4 [128, 128]
0.112463936 0.008614006 -0.07264636 -0.05703053 -0.012079998 0.01002623 -0.02832979 0.028329287
-0.085133746 0.052938633 0.02413561 0.010067105 0.023772579 0.0042141266 0.015641218 0.07770807
-0.052838944 -0.10612381 0.022790784 -0.040962674 0.056186564 -0.06306786 0.06726231 0.083487794
-0.107892714 0.051632114 0.054865703 -0.08873419 -0.04034601 -0.023681179 -0.040602047 0.017094592
0.026222704 0.04648891 0.016194846 -0.0019208908 0.012916872 -0.023541017 0.02167166 -0.09228154
-0.030674377 -0.07519105 0.033554524 -0.06279065 -0.017035378 0.112114795 -0.011022884 -0.01258907
-0.06861402 0.11754166 0.0025360065 0.017287519 0.036818143 0.08435094 -0.07455795 0.03667489
0.045923978 -0.06225971 0.07087738 0.049119245 0.067432545 -0.024946025 0.0021922318 -0.08092683
-0.10140036 0.051245924 -0.041466217 0.047106344 0.13319999 -0.03257068 -0.03811422 0.0009800255
-0.0053784465 -0.018865535 -0.054791685 -0.075675905 0.037863713 -0.08012167 0.059029017 -0.024258157
-0.049833868 0.02436927 0.0036382668 -0.0789002 0.080472805 0.080454044 0.057666138 0.047812138
0.03060288 0.08507606 -0.073457845 0.0061747166 0.05445375 -0.048504487 0.0450591 0.0851577
-0.035434864 0.10083892 0.020911444 -0.053968627 0.063178025 -0.06449281 -0.06967543 -0.05822803
-0.0068204533 0.107557796 0.07747115 0.071258605 0.03582553 -0.020801716 0.0027303058 -0.047981262
-0.061472107 0.062703975 -0.039326534 0.054751534 -0.09938625 -0.007006983 0.07873503 -0.032561872
0.0062349513 -0.047033884 0.013746774 -0.050044034 -0.09317313 -0.023867356 -0.0036901035 0.07630523
0.078463726 -0.054921377 0.02128382 0.06579118 -0.0868733 -0.08274 0.022010736 -0.05286128
0.017624207 -0.0604716 -0.054310955 -0.0009300858 0.08538047 -0.08109411 -0.017208539 -0.069685444
-0.0066949874 -0.038523093 0.014642596 -0.008794889 -0.0684938 0.044508792 0.04529666 -0.04423079
0.082303844 -0.08693169 -0.01271379 -0.06633562 -0.0009101182 -0.031540055 0.053058513 0.07297257
-0.039583962 0.046299107 -0.036589544 -0.042153075 -0.043096744 -0.060566347 -0.0050814375 -0.020549648
-0.076115444 0.04095217 -0.063502096 0.027587019 0.06442555 0.08538953 -0.052497018 -0.016105995
0.07379838 -0.046000503 -0.04162608 -0.019064747 -0.055733662 -0.051886648 0.063873015 -0.06766969
0.056640707 -0.008452825 0.04867921 0.0372188 -0.085218176 -0.047987167 -0.04429497 -0.037961107
-0.055813193 -0.066658124 0.079910986 0.011913933 0.026260361 -0.036096636 -0.043999773 -0.058377884
0.07277136 0.021959253 -0.049442016 -0.017479278 0.06389362 0.021084636 -0.054033514 -0.071025446
-0.0668691 0.08428984 0.027473696 0.07130473 0.065474786 -0.025929015 -0.025408514 -0.04849897
-0.005508296 -0.0645732 -0.02641422 -0.04325372 -0.03336476 -0.018519633 -0.04287972 0.06597354
-0.07768811 -0.07730369 -0.0031978488 -0.008563176 -0.034459822 0.007724896 -0.06367344 -0.032513585
0.02072569 -0.005285226 0.024439 -0.05781848 -0.01968705 -0.0875438 0.025888145 0.06967903
0.079486616 -0.04645252 -0.010110162 0.05768136 -0.028509837 -0.031856693 0.06440731 -0.028270766
-0.019911729 -0.06687124 -0.017149076 -0.05239102 0.06698053 0.043485187 0.009802744 0.03351158
00000000: 7e53 e63d c321 0d3c 9dc7 94bd d898 69bd
00000010: 2feb 45bc 0e45 243c e013 e8bc d212 e83c
00000020: 9a5a aebd 2ed6 583d 0bb8 c53c 80f0 243c
00000030: b6be c23c a816 8a3b 0322 803c 6925 9f3d
00000040: a66d 58bd 7157 d9bd bdb3 ba3c 7ac8 27bd
00000050: e223 663d b929 81bd d2c0 893d a6fb aa3d
00000060: dbf6 dcbd 327c 533d dcba 603d 45ba b5bd
00000070: dc41 25bd 08ff c1bc 554e 26bd f509 8c3c
00000080: ffd0 d63c 286b 3e3d 0eab 843c 66c6 fbba
00000090: 4aa1 533c 17d9 c0bc c488 b13c 1bfe bcbd
000000a0: d548 fbbc c4fd 99bd 7870 093d 6298 80bd
000000b0: c78d 8bbc 719c e53d 5499 34bc 6342 4ebc
000000c0: 8285 8cbd afb9 f03d 2133 263b 8e9e 8d3c
000000d0: 9fce 163d 30c0 ac3d d7b1 98bd 6938 163d
000000e0: c81a 3c3d 0a04 7fbd 2928 913d 4331 493d
000000f0: 131a 8a3d 9b5b ccbc 8cab 0f3b f7bc a5bd
00000100: feaa cfbd 3fe7 513d 7bd8 29bd 95f2 403d
00000110: 9465 083e d568 05bd a81d 1cbd 3374 803a
00000120: ae3d b0bb e58b 9abc 3f6d 60bd f8fb 9abd
00000130: fb16 1b3d d516 a4bd 69c8 713d 0bb9 c6bc
00000140: 991e 4cbd 10a2 c73c fd6f 6e3b 6e96 a1bd
00000150: edce a43d 17c5 a43d 5433 6c3d a9d6 433d
00000160: e4b2 fa3c 5b3c ae3d 1171 96bd 4755 ca3b
00000170: e50a 5f3d a4ac 46bd e48f 383d 2967 ae3d
00000180: 2624 11bd a384 ce3d 7a4e ab3c 350e 5dbd
00000190: 7b63 813d ce14 84bd feb1 8ebd 8480 6ebd
000001a0: 1c7e dfbb 4347 dc3d 32a9 9e3d 08f0 913d
000001b0: cabd 123d 5c68 aabc eeee 323b 0088 44bd
000001c0: 2dca 7bbd f16a 803d dc14 21bd 2543 603d
000001d0: 058b cbbd d59a e5bb d53f a13d 995f 05bd
000001e0: 904e cc3b 9aa6 40bd 263a 613c f9fa 4cbd
000001f0: 8ed1 bebd 7985 c3bc aad5 71bb eb45 9c3d
00000200: 97b1 a03d 3df5 60bd 685b ae3c 87bd 863d
00000210: a1ea b1bd 9773 a9bd dc4f b43c 1285 58bd
00000220: a460 903c 12b1 77bd 2a75 5ebd 00d1 73ba
00000230: f5db ae3d ab14 a6bd ecf8 8cbc 3eb7 8ebd
00000240: a061 dbbb 64ca 1dbd 80e7 6f3c 7018 10bc
00000250: 7a46 8cbd da4e 363d fe88 393d 582b 35bd
00000260: eb8e a83d 3e09 b2bd 804d 50bc f8da 87bd
00000270: 0095 6eba 2530 01bd e253 593d a572 953d
00000280: cb22 22bd 22a4 3d3d ebde 15bd b4a8 2cbd
00000290: 3686 30bd 6b14 78bd 3082 a6bb bc57 a8bc
000002a0: 6ae2 9bbd 76bd 273d 630d 82bd 2cfe e13c
000002b0: 8bf1 833d b5e0 ae3d 1d07 57bd b8f0 83bc
000002c0: 9b23 973d 066b 3cbd 1c80 2abd ac2d 9cbc
000002d0: fb48 64bd 1887 54bd dbcf 823d 6896 8abd
000002e0: 1600 683d b87d 0abc da63 473d be72 183d
000002f0: de86 aebd 318e 44bd a46e 35bd 1b7d 1bbd
00000300: 609c 64bd 0e84 88bd 5fa8 a33d a832 433c
00000310: f81f d73c 11da 13bd 1b39 34bd a61d 6fbd
00000320: 2709 953d e4e3 b33c b683 4abd b430 8fbc
00000330: a9da 823d b0b9 ac3c 3f52 5dbd ca75 91bd
00000340: abf2 88bd 27a0 ac3d 8410 e13c 3708 923d
00000350: a517 863d 1669 d4bc 8425 d0bc dba6 46bd
00000360: f07e b4bb f43e 84bd a262 d8bc d02a 31bd
00000370: 7da9 08bd 7cb6 97bc a5a2 2fbd 231d 873d
00000380: f21a 9fbd 6651 9ebd 0093 51bb 904c 0cbc
00000390: be25 0dbd 2021 fd3b 3867 82bd f72c 05bd
000003a0: ecc8 a93c b02f adbb 4c34 c83c 12d3 6cbd
000003b0: bc46 a1bc 2a4a b3bd 6013 d43c e1b3 8e3d
000003c0: e1c9 a23d ff44 3ebd 18a5 25bc 4a43 6c3d
000003d0: 768d e9bc 2a7c 02bd fbe7 833d 1898 e7bc
000003e0: ec1d a3bc caf3 88bd 387c 8cbc f797 56bd
000003f0: 172d 893d 861d 323d b09b 203c 7043 093d

critic.0.bias f4 [128]
-0.069649436 0.032320723 0.124207795 0.054017555 -0.08379368 -0.010790589 0.06337166 0.13697422
0.10061809 -0.017490668 -0.073699154 0.07620162 0.053629864 0.13369389 0.052283004 0.10943509
0.071918555 -0.061989665 0.05224174 -0.027250146 0.027658869 0.15667634 0.0097994935 0.06097101
-0.06478976 0.053961813 -0.040871497 -0.02101597 -0.046266176 0.055350576 -0.050675087 0.11502109
0.13157637 -0.14270985 0.08864701 0.01808693 0.031817023 -0.12279867 0.035939198 -0.07703808
-0.037168913 -0.050846033 0.15040782 0.05147308 0.06269616 -0.018387113 -0.049076233 -0.11097674
-0.05194093 0.074116886 -0.042309463 0.13623586 -0.09896123 -0.05020098 -0.019819224 0.10160855
-0.022668067 0.040106878 0.025367372 -0.04873997 -0.025977196 -0.009444044 0.080481805 -0.091390416
-0.09331454 -0.022220552 0.06626181 0.1633563 0.13107127 0.017247517 0.04702194 0.12393298
0.024983715 0.16134815 0.014947386 -0.063694604 0.060873445 0.12750882 -0.037511557 0.06459836
0.008018385 -0.06363376 0.06096491 0.107614666 -0.0016888687 0.05267077 0.00026616617 0.14962186
0.063889 0.089976825 0.038991358 0.1297287 0.12501581 -0.030412598 0.04536903 0.054774422
-0.016917218 0.15858407 0.0187577 0.11351617 0.05183015 0.09267028 0.1385774 0.03322314
0.0455289 0.04852192 0.18944712 0.010517344 -0.15489897 0.106121294 -0.07323962 -0.0018144734
-0.16618133 0.012212404 -0.11811401 -0.179933 0.01705029 0.103868395 0.135038 0.053612504
-0.0615045 0.16539925 0.111620896 -0.13609949 -0.028898155 0.07008041 -0.0209237 0.16141152
00000000: 5da4 8ebd bc62 043d a860 fe3d 8341 5d3d
00000010: 059c abbd 03cb 30bc 00c9 813d f842 0c3e
00000020: db10 ce3d 9748 8fbc 95ef 96bd 980f 9c3d
00000030: fdaa 5b3d 0de7 083e b426 563d 811f e03d
00000040: 094a 933d e0e8 7dbd 6ffb 553d b33b dfbc
00000050: da94 e23c c36f 203e 0e8e 203c bdbc 793d
00000060: 7eb0 84bd 1007 5d3d df68 27bd af29 acbc
00000070: 9a81 3dbd 49b7 623d ae90 4fbd 2d90 eb3d
00000080: f5bb 063e 8822 12be 908c b53d 0b2b 943c
00000090: 9152 023d de7d fbbd fb34 133d 24c6 9dbd
000000a0: 6e3e 18bd ee43 50bd 8204 1a3e 70d5 523d
000000b0: d866 803d 92a0 96bc 2904 49bd c647 e3bd
000000c0: 03c0 54bd 98ca 973d b04c 2dbd 6a81 0b3e
000000d0: 2fac cabd 8b9f 4dbd ed5b a2bc 2518 d03d
000000e0: 62b2 b9bc 1c47 243d 3ccf cf3c 90a3 47bd
000000f0: 21ce d4bc 31bb 1abc a5d3 a43d e62a bbbd
00000100: b21b bfbd e007 b6bc 46b4 873d e046 273e
00000110: 8c37 063e aa4a 8d3c 149a 403d 93d0 fd3d
00000120: a6aa cc3c 7338 253e e2e5 743c 5172 82bd
00000130: 6f56 793d ac91 023e b8a5 19bd 254c 843d
00000140: 8b5f 033c 6b52 82bd 57b6 793d 1465 dc3d
00000150: 085d ddba 4ebd 573d 388c 8b39 7936 193e
00000160: 3cd8 823d c545 b83d 67b5 1f3d 9ad7 043e
00000170: 2504 003e d723 f9bc e0d4 393d 255b 603d
00000180: fa95 8abc dd63 223e c0a9 993c 2a7b e83d
00000190: da4b 543d eac9 bd3d 3ce7 0d3e fd14 083d
000001a0: 837c 3a3d ecbe 463d 6dfe 413e f050 2c3c
000001b0: d69d 1ebe 1f56 d93d a7fe 95bd a0d3 edba
000001c0: 702b 2abe 8916 483c c2e5 f1bd 5b40 38be
000001d0: 0dad 8b3c f4b8 d43d 6747 0a3e c998 5b3d
000001e0: 25ec 7bbd 6c5e 293e 7f99 e43d aa5d 0bbe
000001f0: d3bb ecbc 5186 8f3d 2e68 abbc 1049 253e

critic.2.weight f4 [1, 128]
-0.029264301 -0.02552881 0.15844055 0.121844366 -0.037269358 -0.061399836 -0.04099432 0.10488446
0.061149344 -0.08192217 0.05420359 0.123440266 -0.03127305 0.05943161 0.04409933 0.09181097
0.080113046 -0.15203944 0.074640885 -0.060529545 0.106838524 0.06772959 0.062183645 -0.006764378
-0.080092184 -0.0807624 -0.073615976 -0.0074742204 -0.07724341 0.069970846 -0.10883909 0.14655356
0.10267709 -0.10550374 0.042503126 -0.065090954 0.12291959 -0.1010612 -0.07513903 -0.07067603
-0.06867793 -0.045180388 0.07859539 0.109045394 0.09815289 0.0021935266 -0.12562872 -0.10819916
0.019184822 0.09509538 -0.13547747 0.13697658 -0.089328066 -0.034455575 -0.08758806 0.07629236
-0.17555891 -0.08283294 -0.04706929 -0.11273147 -0.059072826 -0.14314736 0.067727454 -0.11568053
-0.04862376 -0.09020695 0.040149946 0.059217304 0.11685355 0.109566264 0.066373445 0.07690018
-0.0047380254 0.12966155 -0.020339672 -0.015585285 0.11374809 0.14362465 -0.10530563 -0.06882382
-0.029962078 -0.053826425 0.11975506 0.13300976 -0.040050168 0.06641138 0.0007082833 0.10701409
0.1380642 0.124611646 0.10733991 0.067639664 0.083532326 -0.03687228 -0.008510229 0.079550646
-0.10545837 0.09921054 0.13434137 0.15467043 -0.0004143483 0.06933409 0.109257706 0.045008004
0.12863879 0.13460638 0.07877144 -0.0053302296 -0.11961002 0.056645963 -0.008380438 -0.061026417
-0.12052161 0.08486384 -0.13671055 -0.117092535 -0.033399083 0.077694684 0.075550616 0.14420281
-0.1279929 0.04664494 0.05046392 -0.100592524 -0.055599194 -0.07540444 -0.109032884 0.107967526
00000000: b0bb efbc cc21 d1bc 3d3e 223e 8a89 f93d
00000010: c1a7 18bd 657e 7bbd a9e9 27bd aacd d63d
00000020: bc77 7a3d d0c6 a7bd 9504 5e3d 40ce fc3d
00000030: 2b18 00bd 8f6e 733d 80a1 343d 6407 bc3d
00000040: 4f12 a43d 3ab0 1bbe 52dd 983d d4ed 77bd
00000050: 28ce da3d d0b5 8a3d 47b4 7e3d b7a7 ddbb
00000060: 5f07 a4bd c266 a5bd f9c3 96bd 4eea f4bb
00000070: cb31 9ebd e04c 8f3d 07e7 debd 2312 163e
00000080: 5e48 d23d 5812 d8bd c217 2e3d 684e 85bd
00000090: 44bd fb3d 2df9 cebd 7ee2 99bd 98be 90bd
000000a0: 04a7 8cbd 120f 39bd 9ff6 a03d 3153 df3d
000000b0: 6204 c93d 45c1 0f3b d1a4 00be 8597 ddbd
000000c0: 7d29 9d3c 5ec1 c23d 9bba 0abe 9743 0c3e
000000d0: a2f1 b6bd 4a21 0dbd 5e61 b3bd 2b3f 9c3d
000000e0: b7c5 33be 51a4 a9bd bacb 40bd c2df e6bd
000000f0: 59f6 71bd 3995 12be b1b4 8a3d eae9 ecbd
00000100: b529 47bd 6cbe b8bd 4574 243d d88d 723d
00000110: ea50 ef3d 4764 e03d cdee 873d d77d 9d3d
00000120: 7041 9bbb ffc5 043e 629f a6bc 6c59 7fbc
00000130: c2f4 e83d 5712 133e 7aaa d7bd 81f3 8cbd
00000140: 0873 f5bc 1979 5cbd 2442 f53d b633 083e
00000150: a50b 24bd b102 883d 16ac 393a 342a db3d
00000160: b460 0d3e 6434 ff3d 07d5 db3d aa86 8a3d
00000170: ff12 ab3d 6307 17bd 7d6e 0bbc 73eb a23d
00000180: 8ffa d7bd e52e cb3d c990 093e ed61 1e3e
00000190: e33c d9b9 08ff 8d3d 81c2 df3d 505a 383d
000001a0: e3b9 033e 41d6 093e ec52 a13d 35a9 aebb
000001b0: 19f6 f4bd 9905 683d 1b4e 09bc d6f6 79bd
000001c0: 09d4 f6bd 18cd ad3d dafd 0bbe 36ce efbd
000001d0: 7acd 08bd 641e 9f3d 48ba 9a3d e7a9 133e
000001e0: 9210 03be c40e 3f3d 41b3 4e3d 7403 cebd
000001f0: fbbb 63bd a56d 9abd a24c dfbd 141e dd3d
