models/ppo/Catan/ppo_catan_model_update300.pth (torch, 145076 bytes, 9 tensors)

shared.0.weight f4 [128, 10]
00000000: ee12 183e 06fa 233e d7a9 0b3e 42a0 c4bd
00000010: f00a 383e a3b8 043c a9d9 b13e a099 5abe
00000020: 371f d23e ccf4 23bc 2532 183e 88ea 0cbe
00000030: f4b1 2abe cda5 893e ec9e 033e f0dc 483e
00000040: b79f 39be 9b67 9abd a13c 02be c569 363d
00000050: 3584 10bd 005c 1dbe aed1 543e 8b54 563d
00000060: e2d6 06be 100d 0b3d cc5f ad3e 62a7 713e
00000070: f8b8 153e 1bb8 a4bc f835 94be 76c0 5d3e
00000080: fdaa a93d 644e 6bbd a4ea 2a3e 99fe a53e
00000090: 2d36 573e 4d3c 21bb de76 7c3e d0b7 76be
000000a0: d97a 5abe 3539 9bbe f421 d5bd 53fb 87be
000000b0: 9842 133e cdc5 d53d 56cd 193e ed87 413e
000000c0: 9078 8ebe 0590 a03d 2ef7 823d 9add f8bd
000000d0: 849f 97bd 6ea2 643c d1a5 5cbe 792d 48be
000000e0: e178 0ebe 67b5 4d3e 55dc 6f3e e7e5 ac3c
000000f0: d23e 8d3e 78a9 9b3e 938f 933c 40a6 41be
00000100: dee7 54bd adbb 193d 5cc5 8bbe bb48 dc3e
00000110: 584e 28bc 4f8e 0fbe a29a af3e 6fdd 76be
00000120: 4161 14be effb 3abd 09dc ec3d a5f5 28be
00000130: 39b3 5bbe 6c99 15be 3b3a 143e ae43 e63d
00000140: 4330 723e 457d 9bbe 4d5f 693e aca1 813c
00000150: ee28 33be 257d ac3e 0d82 e9bd 7987 adbe
00000160: 2bab 6dbe 0212 08ba 962e 7b3e 68db 973e
00000170: 5c6b a6bd b222 22bd b641 cebc d641 d43c
00000180: a3f9 2a3e b211 b13d 4f71 743c 2278 623e
00000190: e043 543e 6546 52be 94cd 2abd f7bd 653d
000001a0: ce23 6a3d 11a3 653e 13ed ae3d f3f1 673e
000001b0: a192 3dba 73eb 6e3e 90a1 aa3d edc5 d6bd
000001c0: 4305 63bd 8245 cfbc 01a9 543d 9349 7b3d
000001d0: dd09 09be 37a6 b73d 448e cabe e229 2a3d
000001e0: 515a 8e3d bc33 ec3d ab88 a2bd 2144 32be
000001f0: a9ea 0b3e 4ece 363e c256 45be 6aec a9be
00000200: 4909 58be 7022 4a3e e3e8 7e3e 9e1f 023e
00000210: 662c 5c3e f3a6 613e 1363 e3bd 6072 863e
00000220: 5627 c7bb 99f2 f43d 48c6 eebc c67d 223e
00000230: d6fd 913e 6424 85bc 7445 d43d 1460 053d
00000240: 5812 6e3d 70b2 99bb ca89 4f3e c5b7 9cbe
00000250: 08ce 833d 1120 2cbe 05b1 e3bd 4276 71bd
00000260: 3b10 703e b912 733d ab87 6b3e 1899 823d
00000270: a259 61be ff7f 8d3e 3974 863e 97a3 5d3e
00000280: 0615 993e a320 4dbe 0196 a03e 96c3 11bd
00000290: 6979 893d 650a 7e3c ce41 8d3e 029a df3a
000002a0: 9987 673e 945a d0bd 1461 383e 9a37 c5bd
000002b0: bab3 66be 054a 763d f3ae 5b3d 213e 503d
000002c0: ad18 73be ec20 05be 2fd2 c4bd 8212 dabc
000002d0: 2207 883d f4a2 e23d f24b e43c 5541 7e3e
000002e0: e188 40be d12e bd3e 76d1 52be 9afc 70be
000002f0: eddd 14be 14b1 cabc 7424 ca3c d800 853e
00000300: e79a 5dbe 2e8e eabd 0188 fe3d d624 bb3d
00000310: feb7 8cbe 4755 29be 6bce 433e 02b1 623e
00000320: b151 3fbd 7ddb 873e 60eb a33d 98e1 e53c
00000330: 5d5a 85be d055 9abb ef54 87be 3846 a2be
00000340: bbef 2fbb b532 6c3c 5aeb 8bbe 8e60 e73d
00000350: 3242 993e 4e63 203e 14ee 493d 6a5c 663d
00000360: fa1b 94bd e963 0cbe fea4 8abd 28e1 4b3e
00000370: c9d7 723e b20b 6cbe a818 393e 4b32 433e
00000380: 1013 753e 0bef 96bc f79f dbbc 81ab d13c
00000390: 4675 eebd 945b 2fbd 118c 043b 224e 163e
000003a0: 0e2a 043d 52da 1cbe c4bc 9d3e 945e 0bbe
000003b0: b04c a1bd 8f0b b2bd 6cda 423e 0af5 77be
000003c0: bf58 77be adc2 253d 78cf 293c 8848 4ebe
000003d0: ddc3 aabd 7b24 dbbd 901d 833e b44e 9fbe
000003e0: bc54 aebd 5363 963d 07da 57be e863 fcbd
000003f0: 977c 74bd 246d d23d e6b9 38be 2e05 85be
0.14850971 0.16013345 0.13639008 -0.09600879 0.17972922 0.008100661 0.34736374 -0.21347666
0.4103944 -0.010007095 0.14862879 -0.13761342 -0.16669446 0.26884308 0.12853593 0.19615531
-0.18127333 -0.075392924 -0.1271844 0.044534463 -0.035282332 -0.15367126 0.20783111 0.05232672
-0.13167909 0.033948004 0.3386215 0.23599008 0.14621341 -0.02010732 -0.28947425 0.2165545
0.082845666 -0.057447806 0.16691071 0.32420805 0.2101676 -0.0024602592 0.24654719 -0.24093556
-0.21335925 -0.30317083 -0.10406867 -0.26558933 0.14380872 0.10438118 0.15019736 0.18899508
-0.27826357 0.078399695 0.06394802 -0.12151642 -0.07403472 0.013954742 -0.21547629 -0.19548596
-0.13913299 0.20088731 0.23423894 0.02110572 0.2758699 0.30402732 0.018012797 -0.18911076
-0.05197894 0.037532497 -0.2729901 0.4302424 -0.010272585 -0.1401913 0.34297663 -0.24107908
-0.14490224 -0.04565042 0.11565406 -0.16499956 -0.21455087 -0.14609307 0.14475338 0.112433776
0.23651223 -0.3036901 0.2279026 0.015824161 -0.17496082 0.33689228 -0.11401758 -0.3389242
-0.23209827 -0.00051906717 0.2452949 0.2965958 -0.08125946 -0.03958387 -0.025177818 0.0259103
0.16696791 0.08645953 0.014919593 0.2211614 0.20729017 -0.20534666 -0.04169996 0.056089368
0.057163052 0.22425486 0.08541312 0.2265089 -0.0007231627 0.23332004 0.08331597 -0.1048697
-0.05542494 -0.025301699 0.051918987 0.061349463 -0.13382669 0.0896725 -0.39561665 0.04154385
0.0695082 0.11533305 -0.079362236 -0.17408802 0.13663734 0.17852136 -0.19271377 -0.33188182
-0.21097292 0.197397 0.24893527 0.12707373 0.21501312 0.22036342 -0.11102881 0.26259136
-0.0060776873 0.11960334 -0.029147282 0.15868291 0.28513974 -0.016252704 0.1036481 0.03256233
0.058122963 -0.004690461 0.20267406 -0.30608955 0.06435782 -0.16809107 -0.11117748 -0.05895067
0.23443691 0.059344027 0.23000972 0.063768566 -0.22006848 0.27636716 0.26260546 0.21644436
0.29898852 -0.20031981 0.31364444 -0.035586916 0.0671261 0.015505408 0.27589267 0.0017059448
0.2261032 -0.101735264 0.18005782 -0.09629746 -0.22529498 0.060129184 0.05363364 0.0508405
-0.23739882 -0.1300084 -0.09610402 -0.026620153 0.066419855 0.11066237 0.027868245 0.2482961
-0.18802215 0.3694978 -0.20587716 -0.2353386 -0.14537783 -0.02474264 0.024675585 0.25977206
-0.21641122 -0.114529 0.124282844 0.09137885 -0.27484125 -0.16536437 0.19121711 0.22137836
-0.046708766 0.26534644 0.080038786 0.028061673 -0.26045504 -0.0047099367 -0.26431987 -0.31694198
-0.0026845771 0.014416386 -0.27327996 0.11297713 0.29933316 0.15662882 0.049299315 0.056240477
-0.072318986 -0.13709988 -0.06769751 0.19910109 0.23715128 -0.23051336 0.18075812 0.19062154
0.23933053 -0.018424531 -0.026809676 0.025594475 -0.11643462 -0.042811945 0.0020225088 0.14678243
0.03226667 -0.15317658 0.3080808 -0.13610297 -0.07875955 -0.08693611 0.19028634 -0.24214569
-0.24154948 0.04046886 0.010364406 -0.20144856 -0.08338139 -0.107003175 0.25608492 -0.31114733
-0.085122555 0.07343163 -0.21079265 -0.12323743 -0.05968913 0.10274723 -0.18039665 -0.25980514

shared.0.bias f4 [128]
00000000: d544 cbbe 6f5e 1abe 13bf f73e f0e0 c1bd
00000010: 02a4 babd ab1d 7ebe f347 853e 7412 dabd
00000020: eff4 4b3e e669 4d3e 957d ac3d 543d fa3e
00000030: 9992 e83b 42ac 77be 5613 803c 7208 a2bd
00000040: dac7 82bd d9e5 2e3e 7b5d 9fbe a1b9 453e
00000050: 5912 963d 5efb c33e f32c 963e 0206 adbd
00000060: 6686 593e 2989 47bd 8a44 3fbe ed03 76be
00000070: 1ab8 80be 0e55 423e 1e99 9abd b041 0bbe
00000080: 16eb 4dbe adf4 1bbe a20b 913e bd0d 363e
00000090: a702 dd3e 1a2c 20be 80c7 bf3e ce56 9fbc
000000a0: d2e3 1ebe 18c0 07be 52a3 d83e 5627 b13d
000000b0: 460a 613e c644 96be 29ac dc3d 16f4 04be
000000c0: f21e cdbd aa93 823d 9d17 e23d 1a28 3fbe
000000d0: 9534 5b3e e4b1 65be 1b8e 97be 37c5 1b3d
000000e0: 46e2 823d 19da 4e3e c6d6 d63e a8d6 063d
000000f0: 6be6 a93e 22d7 3cbd 463d 443e b74d df3e
00000100: 5259 a2bd 373a e1bc 66b6 773e 5450 80be
00000110: c050 ecbd 9d51 823e c920 fb3d fe38 283d
00000120: c981 333e 0846 95be f86b 5fbe 8389 82bd
00000130: 00a8 e9bd b4a8 42be 94a3 b13e 87a5 9ebe
00000140: 0a26 64be 3530 c53e 099a dd3d 88fa 8d3e
00000150: 97c0 a93d d52b 203c 4849 adbd 352c b73e
00000160: 699a c4bd 5cf5 fdbd e8c0 69be beec 23be
00000170: 088d eb3d 70e2 c83e a2d5 56be 5d7b 57bd
00000180: 1366 aabe f70f a1be b90b 9fbe 96ff 32bd
00000190: 1c4e debd 803e 9bbd c5af d83e 51b3 9cbe
000001a0: 690d 4bbe c14f e83d e1d9 aebe 5c50 333e
000001b0: e938 dd3e 89a5 ad3d be4e 2c3e 75b3 e23b
000001c0: 6027 d43e 0564 86be 592c 423e 9998 393e
000001d0: 58d6 00be 3f53 b0be 4231 09be d464 0c3e
000001e0: 96c9 84bd e706 7e3e 54b2 3a3d 9d19 12bc
000001f0: a608 943e bae4 02be 3a26 f7bd f849 8d3d
-0.39700952 -0.15075086 0.48387966 -0.094667315 -0.09113313 -0.24816005 0.26031455 -0.10648051
0.19917654 0.20059928 0.0842239 0.48874915 0.007097554 -0.24186805 0.01563422 -0.07911767
-0.06385775 0.17079867 -0.31126007 0.19309093 0.07327718 0.38277715 0.2933117 -0.084484115
0.21242675 -0.04871479 -0.1867849 -0.24024935 -0.25140458 0.18977758 -0.07548736 -0.13599277
-0.2010921 -0.15230055 0.28329188 0.17778678 0.43166086 -0.15641823 0.37456894 -0.019450571
-0.15516594 -0.13256872 0.42312104 0.08650081 0.21976575 -0.29349345 0.107750244 -0.12983736
-0.10015668 0.06375821 0.1103966 -0.18667641 0.21406777 -0.22431141 -0.29600605 0.038029876
0.063908145 0.20200385 0.41960734 0.032919556 0.33183607 -0.046103604 0.19163999 0.4361398
-0.07927193 -0.02749358 0.24190673 -0.25061285 -0.11538839 0.2545289 0.12262113 0.041069977
0.17529978 -0.29154992 -0.2181853 -0.063738845 -0.114089966 -0.19009668 0.34695113 -0.30985662
-0.22280136 0.38513342 0.108203955 0.27730203 0.08288687 0.009776075 -0.08461243 0.35775915
-0.09599764 -0.12400314 -0.22827494 -0.16008279 0.11501509 0.39235258 -0.20979932 -0.052607883
-0.33281 -0.31457493 -0.3106363 -0.043700777 -0.10854742 -0.0758028 0.42321602 -0.30605558
-0.19829334 0.11343337 -0.34150603 0.17511123 0.43207482 0.08478839 0.16826913 0.0069183656
0.4143629 -0.26248184 0.1896223 0.18124618 -0.12581766 -0.34438512 -0.13397697 0.13710338
-0.06483762 0.2480732 0.045580223 -0.0089172395 0.28912848 -0.12782565 -0.12067838 0.06898874

actor.0.weight f4 [128, 128]
00000000: f6b0 49bd acdd 8abc b71c 72bc c9d6 2fbd
00000010: eb89 73bd 4935 2e3d a1b7 77bd bf0c 813d
00000020: d17d 403d cfef 343d acdd 23bc e767 95bd
00000030: c749 a53d c6b1 a7bd 7915 a33d dfa8 713c
00000040: d28e 543d 7c57 8f3d 934b 903d 0845 983d
00000050: aa43 7f3d 8a54 573d f5e0 743c d815 dfbc
00000060: d64e 003d cb8e 3b3d 6f78 b83d 8ad9 38bd
00000070: ef9f 2ebd f7eb 63bd 6837 393d c9e9 e23c
00000080: 5843 ea3b 3b33 8fbc 6590 363d a513 933d
00000090: 1f85 88bc 8f18 b03d 23e8 8dbd f2c2 b0bd
000000a0: d165 47bd 657f a8bd ebf3 df3b f74e 893d
000000b0: a1ac e73c 0dcb 04bd e449 d5bc 341b 6c3b
000000c0: a03b 72bc e3e0 f4bc c907 713d b19d 133d
000000d0: 9516 0a3d 6d52 a5bd 83fa ebbc 71b0 5e3d
000000e0: 8bfc 123d 524b 533d 7406 a8bd 7af2 6ebd
000000f0: 5328 643d c206 303c cf7c 35bd b65e adbd
00000100: 93a3 3fbd 59f2 ac3d bb6c 413d da81 47b9
00000110: 8c21 1b3c 0637 083d 0496 89bd 69de 8a3d
00000120: c6c8 483d d526 2e3c 4f11 483d 5878 c8bb
00000130: 6ebf d1bc f30f 163c 6cdd c9bd 6890 af3d
00000140: fc15 0c3d 7a2c 54bd f0fe 5ebd e738 a1bd
00000150: 89d9 7ebc 0499 863d 25f5 2f3d f932 3b3d
00000160: bf71 bc3d 5204 8bbd e18f 6e3c 5753 4f3d
00000170: 8f76 e4ba 0cf3 6bbd ad6b a7bd ecac 453d
00000180: 883f a0bd 7244 74bd 806f e23c 1040 0f3d
00000190: 4785 003d 49f5 2a3b 81e1 a73d 2116 6cbd
000001a0: 0da1 55bc 8ce0 373d 2d04 b2bb 4aa8 393d
000001b0: 0cf7 6b3d 25d0 d0bc 7f19 42bc c78f 9f3d
000001c0: 8d9b f0bb 77e1 943d f865 6bbd cc75 6d3d
000001d0: 3228 8dbd c4c6 853d a57a c13d 740f fdbc
000001e0: 9285 953d 2b4c 6c3d 388b fbbb 54e1 ca3d
000001f0: 6447 fabc 7e3b 47ba c691 2ebd 9d12 863d
00000200: f4f5 a73c 3026 bd3c 209f 9a3b 42cd 413d
00000210: b362 30bd 807e 95ba edae 75bd f3be 7dbd
00000220: b80d 053d ef0d 35bd 0e77 8abd 8410 aabc
00000230: 80fa 4f3c 901f 95bb 4463 4dbd d355 88bd
00000240: 0ec4 96bd e343 963d 8421 933c 5eea 01bd
00000250: e007 2bbd e43f ab3c 64b4 41bd 70d6 5a3c
00000260: 0ecc 5bbd 55e5 af3d c8ca a93c 50d0 54bd
00000270: a2a3 123d 0096 c0bc d869 6f3c b0eb 8e3c
00000280: 4ae7 f8bc 2087 b83b 7c95 c7bc 7e4a 503d
00000290: 0567 54bd 00d7 68bb d002 91bc 35d7 0abd
000002a0: 00b4 b63a c9f1 8d3d f60b 393d 4843 12bc
000002b0: c60c 04bd 0014 fdb8 3af0 86bd cc48 2bbd
000002c0: 8075 abbd a747 30bd d02e 06bc 03c3 843d
000002d0: 204f 333b 3a70 543d c07b a63a b037 d93b
000002e0: 9096 d0bb a851 d53c cc59 be3c 42a1 373d
000002f0: b808 bb3c 9f44 873d 709f f3bb 346a c03c
00000300: 6cb9 eb3c 4002 ed3a bee7 493d 2ede f1bc
00000310: 8867 2c3c 0086 543b 18b8 a0bd be48 89bd
00000320: 04e7 8cbc 5658 303d ac0c b2bc 5e4a 473d
00000330: 64f0 51bd 2f40 adbd 3cd5 03bd 6312 52bd
00000340: 2c1d 9ebc baff 14bd aa6a f0bc 0933 93bd
00000350: 6d81 97bd 8008 40bb a066 95bd b8f4 cc3c
00000360: eb45 67bd a04a d1bb bdf1 8b3d 0885 ffbc
00000370: 60ea 143b fdc6 903d c4a3 f43c e0eb 9fbc
00000380: e2cf 7ebd 2bdc a63d 42e7 edbc d034 113d
00000390: 340d 35bd f0de b73b 5253 1a3d b83a 633c
000003a0: a4f0 1bbd 3aca 6c3d c5ed 8ebd 2843 71bc
000003b0: 906e d5bb 7671 9dbd abc4 873d dcc2 75bd
000003c0: cf33 823d 4008 0dbc 2048 963c f73a 88bd
000003d0: ee4d 223d 7c6c b0bd d815 6fbc 3cea 4dbd
000003e0: e011 df3c c97e 9cbd 13d4 a03d 2cde 62bd
000003f0: 2877 82bd 6f6d 16bd d095 1bbc 1aa5 2e3d
-0.04924103 -0.016951405 -0.014777354 -0.042929444 -0.0594577 0.042531285 -0.060477857 0.06301259
0.046994988 0.04417401 -0.010001581 -0.072952084 0.080707125 -0.081882045 0.0796308 0.014749735
0.051894017 0.06999108 0.07045665 0.07435042 0.06232039 0.052570857 0.014946212 -0.027232096
0.031325184 0.045790475 0.09007346 -0.045129336 -0.042632993 -0.055644955 0.045218855 0.027699368
0.0071491413 -0.017480483 0.0445713 0.07181481 -0.01666504 0.08598434 -0.06929042 -0.08630933
-0.048681084 -0.082274236 0.006834497 0.067045145 0.028280558 -0.032420207 -0.02603621 0.0036026957
-0.0147847235 -0.02989239 0.058845315 0.036039058 0.033712942 -0.08072362 -0.028805977 0.054367486
0.035885375 0.051585503 -0.08204356 -0.058336712 0.05570252 0.010743799 -0.04430848 -0.0846533
-0.046786856 0.08444662 0.047222834 -0.00019026492 0.009468447 0.0332556 -0.06718066 0.067807026
0.049019597 0.010629375 0.04884463 -0.0061178617 -0.025603976 0.009159076 -0.09856686 0.08572465
0.034200653 -0.05180023 -0.054442346 -0.078721814 -0.015554794 0.06572154 0.042958397 0.04570291
0.09201383 -0.067879334 0.014560671 0.05061659 -0.0017430353 -0.057604834 -0.081748344 0.048260614
-0.078246176 -0.059635587 0.027641058 0.034973204 0.031377103 0.0026086143 0.08197308 -0.05763829
-0.013038886 0.04489188 -0.0054326267 0.04532651 0.05760865 -0.025489876 -0.011846899 0.07791095
-0.007342762 0.072695665 -0.05747029 0.057973668 -0.06892432 0.06532052 0.09447221 -0.030891158
0.07300867 0.057689827 -0.0076765083 0.09906259 -0.03055162 -0.00076001126 -0.04261949 0.06546519
0.020503022 0.023089498 0.004718676 0.04731489 -0.043062877 -0.0011405498 -0.059981275 -0.06194968
0.032483786 -0.04420274 -0.06760989 -0.020759828 0.012694001 -0.0045508817 -0.050143495 -0.06656995
-0.07361613 0.07337167 0.017960317 -0.03171765 -0.041755557 0.020904489 -0.047291175 0.01335679
-0.0536614 0.085886635 0.020726576 -0.051956475 0.035800584 -0.023509026 0.014612637 0.017446369
-0.030383725 0.0056313425 -0.024363272 0.05085229 -0.05185606 -0.003552854 -0.017701536 -0.033896644
0.0013939142 0.069308825 0.045177422 -0.008927174 -0.032238744 -0.000120677054 -0.06588788 -0.04181747
-0.08372021 -0.043037083 -0.008189872 0.06482508 0.0027360395 0.05186484 0.0012701675 0.006628953
-0.0063656047 0.026039913 0.023236178 0.04483152 0.022831306 0.06604885 -0.007434778 0.023488142
0.02877494 0.0018082336 0.049293272 -0.029524889 0.010522731 0.0032428503 -0.07847613 -0.067033276
-0.0172 0.043052994 -0.021734558 0.048654906 -0.051254645 -0.08459508 -0.032185778 -0.051287066
-0.01930102 -0.036376692 -0.029347736 -0.071874686 -0.07397733 -0.0029301941 -0.07294965 0.025019035
-0.056463163 -0.00638707 0.06833217 -0.031191364 0.0022722706 0.07069204 0.029863246 -0.019521654
-0.06220997 0.081474625 -0.029040936 0.035450757 -0.044202045 0.005611293 0.037677117 0.01386898
-0.03807129 0.057810046 -0.06978945 -0.014725484 -0.006513424 -0.076876566 0.06629308 -0.060000286
0.06357538 -0.008607924 0.018344939 -0.06651872 0.0396251 -0.08614442 -0.01459261 -0.05027221
0.027230203 -0.0764137 0.0785295 -0.05538766 -0.063703835 -0.036725458 -0.009496167 0.042637922

actor.0.bias f4 [128]
00000000: cfc6 86bd cd65 8c3d e2f6 953d 0c08 833d
00000010: bf98 bfbc 88ce 863d 4fc0 573c c3ef 2cbd
00000020: 310f f9bc fe16 543c 6be9 2f3d dbef fe3c
00000030: 139a 733d 0f8f 103d 0415 7bbb 760c 9f3d
00000040: 67b1 a7bd a9f6 b6bc d00d c63b 41fb 8ebd
00000050: 0fca 11bd 92cc 223d 8cb5 e1bc e8d2 7f3c
00000060: c8a4 afbd b11e 5bbd 035e 863d f35e 1cbd
00000070: 9d71 5b3d 2ed9 8d3d 3e2c 9cbd bd74 7fbc
00000080: 21ba af3b 3500 cfbc 1de7 86bd 1857 873c
00000090: cfd0 98bd f8ca 85bc 2b25 5bbd e275 363c
000000a0: 6998 b1bd c90d 8bbd 1457 45bd 9158 873d
000000b0: 65db a53d e6bf 333d c707 f23c ee02 d8bc
000000c0: 6ea6 24bd ae7e 3d3d e23b 373d 3c3d 7fbb
000000d0: 8234 cdbc 8ca1 7fbd a7ae d43c f079 303d
000000e0: f7d0 733d d14d c53d 56c0 633d ba10 8b3d
000000f0: 7f92 bebc 7cff 4b3c 3051 863d 23cb 19bd
00000100: bb16 593d 6031 4b3d d972 bc3d 6e2e 603d
00000110: 8cc5 a63c ee90 40bd 230d 1cbd 53b8 043d
00000120: 1397 abbc 48f5 ba3d 46dd 19bd b198 3dbc
00000130: 65d8 4abd c394 923a bb78 df3b 8b5e ae3c
00000140: 683b 193d ad32 cabd e5c6 22bd d9b9 303d
00000150: 4ada 823c 7a0e 94bc 50d3 633c 7a14 c4bc
00000160: aad9 6dbd ecbd a03d 8a23 a6bd 2775 b0bb
00000170: 4c4c 143d 1878 a6bd f562 853d 935d a23b
00000180: 24a5 3fbb 756d 73bc 6508 a13c 31e4 c43d
00000190: 5012 bebc 34fd 50bd 1667 833d dea9 2e3d
000001a0: 38ff 9e3c e824 3a3d 02f3 283d 8e63 a0bc
000001b0: b402 40bc a679 9e3d 5ad5 5d3d 7eef d4bc
000001c0: 3b53 c73d 32f4 b53c 401d fc3c f0fa 8abc
000001d0: d3d7 85ba 0060 123c 4f69 913d 7ced edba
000001e0: 87e9 7a3d cac7 96bb 0a58 473d 210a 423d
000001f0: c624 66bd ec37 beb9 cdc0 2c3d c6c9 cc3c
-0.065808885 0.068553545 0.0732248 0.06398019 -0.023388265 0.065823615 0.013168409 -0.042220842
-0.030402752 0.012944935 0.042947214 0.031120231 0.05947311 0.03529268 -0.0038312087 0.077660486
-0.08188134 -0.022334414 0.006044127 -0.06981517 -0.03559309 0.039745875 -0.027552389 0.015614249
-0.085763514 -0.053496066 0.065609 -0.038176488 0.053575147 0.06926189 -0.07625626 -0.015591797
0.0053627645 -0.025268653 -0.0658705 0.016521022 -0.07461702 -0.016332135 -0.053502243 0.011136504
-0.08671648 -0.06789739 -0.048178747 0.066086896 0.08098487 0.04388418 0.029544724 -0.026368584
-0.040197782 0.04626339 0.044734843 -0.003894641 -0.025049452 -0.062409922 0.025962187 0.04308504
0.059525456 0.09633983 0.055603348 0.067903 -0.023263214 0.012451049 0.06558454 -0.037547242
0.053000193 0.049607635 0.09201593 0.05473178 0.02035787 -0.047013216 -0.038098466 0.032402348
-0.020946061 0.09128815 -0.03756454 -0.011572049 -0.049522776 0.001118325 0.006819812 0.021285316
0.03741017 -0.09872947 -0.03974046 0.043145988 0.015973229 -0.01807331 0.013905361 -0.023935545
-0.05806891 0.07848725 -0.08112247 -0.0053850594 0.036205575 -0.08128375 0.06513015 0.0049550026
-0.0029242719 -0.01485764 0.019657323 0.096138366 -0.023202091 -0.051022723 0.064161465 0.042642467
0.019408807 0.045445353 0.041247375 -0.019578721 -0.0117193945 0.07738046 0.054158546 -0.025993105
0.09732672 0.022211168 0.030775666 -0.01696536 -0.0010211415 0.008934021 0.07100164 -0.0018152441
0.061257865 -0.0046014534 0.048667945 0.04737294 -0.056187414 -0.0003628129 0.042176057 0.024998557

actor.2.weight f4 [5, 128]
00000000: e335 b1bd d297 91bd fe52 cdbd 2ba0 1e3c
00000010: ea29 0fbd 5928 4fbb 4839 093d 8370 2a3d
00000020: 2c80 e5bc 6525 823c 8fe1 6c3d 9dc7 633b
00000030: 7a0f b6bc 164c a4bd 4ed4 95bc 1729 9ebd
00000040: 9c7e 783d e0a1 f2bc 0b9a f9bc 40d8 403d
00000050: 12e2 933d b19b a5bb cd12 a7bc 085b 83bd
00000060: 0d58 993d eed3 4c3d e85f e23c 39dd 96bd
00000070: 9d26 443d e897 dc3c f876 9abd b07e 31bd
00000080: f108 f23c 29d3 5cbc b882 0c3d 79f5 2abd
00000090: 9332 4dbd 7bf9 9dbd b4c0 9ebc 5a7d 78bd
000000a0: 7ee6 a5bd d80b 293d 5e3c 7a3d 9992 c93b
000000b0: fc40 c0bd 8997 38bd a27d e7bc ef27 863d
000000c0: 8102 173d 4c39 93bd 3d8c 17bd 6b50 eabd
000000d0: 67df 63bd 017f 313d 6f9b 47bc b1e4 2fbd
000000e0: 79e7 993c 2c19 dabd a14f 243d 1a4d 343c
000000f0: a8ba c0bd c988 583d 5d98 57bd 263c 423d
00000100: 7c4b a93c 4e73 d1bc 2c97 b9bd 12cb 37bd
00000110: 252d b03c cb28 99bc 38e6 bfbd 91cd 72bd
00000120: 951a 82bd 0b3c ecba 98d5 b9bd 4e78 6e3d
00000130: 8486 34bd b168 afbd 1fc4 2fbc c4c7 843c
00000140: 77aa 34bb 659a 923c 845e bcbb 312f c8bd
00000150: 789e e4bc e213 823d ee5c babc 93a7 dbbd
00000160: 768d 8abd bf9b f93c 84d8 49bd 0a7e d8bc
00000170: 0042 8ebd d027 113d 1a03 2a3d 4405 0ebd
00000180: b067 983c c494 9bbc 5ef2 2b3d 0f0d 58bc
00000190: b77b 533d 07ee 33bd 0035 573d 2865 13bd
000001a0: cf7b 60bd c278 55bd dcd7 bfbd 8214 943d
000001b0: d2a0 aa3c 08dd 66bd f4af a9bc 4c22 bd3b
000001c0: 6ed9 ae3b 002c c43c 3738 9bbd 82ff 50bb
000001d0: 4e39 98bd 75ed 113d a94c 9a3d dfb6 9abd
000001e0: 0fea b8bd 16fd 44bc e2db a43c 6151 943d
000001f0: c8ad 9ebd 3b74 6cbc 9627 eabd bb19 e3bd
00000200: 3200 f8ba 470a b0bd ebdb af3d 8508 70bc
00000210: cc7d c43d 928b 973d 22c4 563d df50 fabc
00000220: 660a d23d f35d 5ebd f797 5cbc a577 8ebd
00000230: 2c24 973d 6078 843d 3ac2 1bbd 4d18 183d
00000240: 7001 42bd 498b 48bd 1d52 713d 455d 8f3d
00000250: a167 2fbd 7975 22bd 6eab 9bbc 5189 8bbd
00000260: d103 b0bd 3f78 0ebd e098 213b 9a0c e03c
00000270: ab44 b8bd 598c 8c3c a949 96bb 893b 813c
00000280: a731 3ebd e901 9e3d 7348 9c3c 83bb 13bb
00000290: f418 8abc d0cd c1bd 401b 83bc a99d 67bd
000002a0: 44b2 943d 1473 7b3d 8d90 9d3d 66f5 56bc
000002b0: 2d85 2c3d d3c3 acbd 1935 503d 521b 1abd
000002c0: 442b ad3d 16f0 fb3c a908 943d 6546 d0bb
000002d0: 30b7 1c3b 1b3a 3f3c 6387 90bd 90db 143d
000002e0: 2f10 0cbb ad3c 3bbd fc00 fb3c e62a 7abd
000002f0: ef60 023d c4f6 d83c 75c0 b53d 396e 703d
00000300: 8e1f 2e3d f2f0 88bd 2dbc a339 6214 16bd
00000310: fd2a 21bd 026b a3bc d299 743d b13c 05bb
00000320: cc92 90bc 177d 3c3c f5fc 793d 64a2 c0ba
00000330: 1dce 4cbd be94 eeba 5094 9c3d 1291 b2bd
00000340: c245 cf3c 1fc5 503d 1fc5 103c cc75 c03d
00000350: 426f a3bd 4611 a13b a0f2 6ebd 2c94 11bd
00000360: 9365 9a3c 9802 bf3c 5e83 03bc 2cce 3fbc
00000370: cb56 98bd 21b5 353d db68 13bc b3c1 95bd
00000380: f65e 833d d206 b63b 558c 7b3d b10c 9f3d
00000390: 90cb bf3d 6ebd 593d 987f b0bd 8b22 92bb
000003a0: f81b afbd f078 ea3b 9a47 343d b54c 89bd
000003b0: 4311 d53c ea2e cd3c 00a2 4e3a 134d b63c
000003c0: 2228 d3bc ab6e 953d 4c81 c33c 4217 2c3d
000003d0: 5202 4b3d 8f16 abbd 75f3 a2bd 0753 303d
000003e0: e968 c8bc 8360 543d 39df 52bd 3eab 30bd
000003f0: bc44 c8bc 3954 bebc 1d06 9d3d a00e 5bbd
-0.08652856 -0.071090356 -0.10025595 0.009681742 -0.03495208 -0.0031609742 0.033501893 0.041611206
-0.028015219 0.015886972 0.057832297 0.003475643 -0.022224177 -0.08022325 -0.018289711 -0.07722681
0.06066762 -0.029618204 -0.030468961 0.047081232 0.07220854 -0.0050539603 -0.020394707 -0.06413847
0.074874975 0.0500068 0.027633622 -0.073664136 0.047888387 0.026927903 -0.07542223 -0.04333371
0.02954528 -0.013478079 0.03430435 -0.041738007 -0.05009706 -0.077136 -0.019378997 -0.06066642
-0.081006035 0.04127106 0.061092727 0.006151509 -0.09387395 -0.04506639 -0.028258149 0.065505855
0.036867622 -0.07188663 -0.036998976 -0.1144112 -0.055632975 0.04333401 -0.012183054 -0.042942706
0.018787133 -0.106493324 0.040115003 0.011004711 -0.09410602 0.052864823 -0.05263554 0.047420643
0.020665877 -0.025567677 -0.09062037 -0.044871397 0.021505902 -0.01869621 -0.093700826 -0.059278075
-0.06352726 -0.0018023265 -0.09073943 0.0582202 -0.044073597 -0.0856489 -0.010727911 0.016208537
-0.0027567425 0.017895887 -0.005748572 -0.09774626 -0.027907595 0.063514486 -0.02274939 -0.107253216
-0.06765263 0.030469773 -0.04927875 -0.026427288 -0.06946182 0.03543836 0.041506864 -0.03467299
0.01860413 -0.018991835 0.041979186 -0.013186707 0.051631656 -0.043928172 0.05254078 -0.035985142
-0.054805573 -0.052117117 -0.09367344 0.07230474 0.020828638 -0.056363136 -0.020713784 0.005771911
0.005335978 0.023946762 -0.075790815 -0.0031890576 -0.07432805 0.035626847 0.07534153 -0.07554411
-0.09029018 -0.012023231 0.02012438 0.07242084 -0.0774799 -0.014432008 -0.11433332 -0.11088892
-0.0018920957 -0.0859571 0.08586868 -0.014650469 0.09594306 0.07399668 0.05243314 -0.03055614
0.102558896 -0.054288816 -0.013463966 -0.06956414 0.07379946 0.06468272 -0.038027026 0.03713255
-0.047364652 -0.048960958 0.0589162 0.070002116 -0.042823438 -0.039662812 -0.019002642 -0.068133004
-0.08594478 -0.034782644 0.002465777 0.027349759 -0.089974724 0.017156767 -0.0045864177 0.015775459
-0.04643407 0.07715208 0.019077515 -0.0022542186 -0.016857602 -0.09463084 -0.016004205 -0.05654684
0.07260564 0.061389044 0.076935865 -0.013120031 0.042119194 -0.08435788 0.050831888 -0.03762371
0.08455518 0.03075413 0.07228214 -0.006356048 0.00239129 0.011671568 -0.07057073 0.036342204
-0.002137195 -0.04571216 0.030640118 -0.061076067 0.031830724 0.026484855 0.08874599 0.058698867
0.04251056 -0.06686582 0.00031229985 -0.036640532 -0.039347637 -0.019948486 0.059717007 -0.0020330364
-0.017648123 0.011504433 0.061032254 -0.0014696834 -0.050001252 -0.0018202288 0.07645476 -0.08719076
0.025301818 0.05096924 0.00883606 0.09397468 -0.07980205 0.004915389 -0.058336854 -0.0355417
0.018847262 0.023316666 -0.008026926 -0.01170687 -0.074384294 0.04436219 -0.008997167 -0.07312336
0.06414597 0.0055550123 0.061413128 0.077660926 0.09364998 0.05315917 -0.086180866 -0.0044596842
-0.085502565 0.00715553 0.044013597 -0.06704084 0.026009208 0.025046784 0.0007882416 0.022253549
-0.025775973 0.07296499 0.023865364 0.042014368 0.04956276 -0.08353912 -0.07956592 0.04304793
-0.024464088 0.051849853 -0.051482413 -0.04313206 -0.024446838 -0.02323352 0.07667182 -0.053480744

actor.2.bias f4 [5]
00000000: 4cf3 cabd 5bbb a23d 9c93 39ba 485d 8e3b
00000010: f275 c93c
-0.099096864 0.079458915 -0.00070791855 0.004344616 0.024592374

critic.0.weight f4 [128, 128]
00000000: 7aab ee3d a606 923c 4d99 b6bd c9f2 44bd
00000010: 822e febb 00c8 313c 6c21 cdbc de65 2a3d
00000020: 066b b6bd b137 5d3d 2db4 cb3c c619 113c
00000030: 0bc2 f53c d2c2 903b 5855 143c 4959 a13d
00000040: 18b8 68bd 647e c8bd 63ed be3c 78d6 19bd
00000050: b4c7 8d3d 37f1 88bd d176 863d 3400 a53d
00000060: 0c5b e7bd 7d70 583d 7b78 873d 5da7 c0bd
00000070: 2c95 2dbd 08ff c1bc 542e 1abd 63db 4f3c
00000080: f706 c73c 2488 483d bc5d a03c 31e8 a0bc
00000090: 616f 3f3c 6a91 f7bc 1561 a83c 07aa bbbd
000000a0: 2528 f8bc 5cb3 96bd 68f6 3b3d 86a3 82bd
000000b0: 8a24 80bc 0471 e63d ae8a 6bbb 95eb 60ba
000000c0: 8285 8cbd cd57 e43d 4d72 bbbb cb77 a93c
000000d0: e017 233d 0d1e bc3d 14f2 babd 21fd c73c
000000e0: 7b16 693d dfaa 96bd 876a 933d aa4a 613d
000000f0: 8d75 863d 94f9 c4bc 1005 61bc 0e2e aabd
00000100: ece1 c5bd d116 513d 7079 1ebd 1603 4a3d
00000110: b034 133e 66c6 fcbc 0dad ffbc 7e89 e03a
00000120: 0ab8 8fbc aa23 97bc 4574 5dbd 47e4 9abd
00000130: 14df 1e3d d7b7 9ebd 1383 7a3d b065 c6bc
00000140: de80 79bd 0502 993c cabe 9dbb d45c abbd
00000150: 5603 a03d 5e2d b23d b3f1 6d3d 66d9 523d
00000160: 993d 103d 27a1 a93d bc0c 89bd 4306 fa3b
00000170: ad19 573d 45d9 51bd 1f76 3e3d 7114 953d
00000180: 6d83 eabc 0a12 d43d 636e cc3c 640e 6dbd
00000190: 42d4 843d d890 85bd 9100 8bbd 3968 65bd
000001a0: 9591 45bc 434e b93d e2ca a93d b815 983d
000001b0: ee7b ff3c d5e5 b0bc 2f51 1c3b 60bf 88bd
000001c0: 855d 90bd f16a 803d c97a 05bd da5e 643d
000001d0: 5950 d9bd f225 84bc 558b b73d 06b8 03bd
000001e0: 40d9 a1bc ff05 32bd 6a6a 543c 1f77 1cbd
000001f0: 675a bdbd 7d72 b2bc c747 3dbc 2f97 a23d
00000200: 97b1 a03d 3df5 60bd 685b ae3c 87bd 863d
00000210: a1ea b1bd 9773 a9bd dc4f b43c 1285 58bd
00000220: a460 903c 12b1 77bd 2a75 5ebd 00d1 73ba
00000230: f5db ae3d ab14 a6bd ecf8 8cbc 3eb7 8ebd
00000240: a061 dbbb 64ca 1dbd 80e7 6f3c 7018 10bc
00000250: 7a46 8cbd da4e 363d fe88 393d 582b 35bd
00000260: eb8e a83d 3e09 b2bd 804d 50bc f8da 87bd
00000270: 0095 6eba 2530 01bd e253 593d a572 953d
00000280: cb22 22bd 22a4 3d3d ebde 15bd b4a8 2cbd
00000290: 3686 30bd 6b14 78bd 3082 a6bb bc57 a8bc
000002a0: 6ae2 9bbd 76bd 273d 630d 82bd 2cfe e13c
000002b0: 8bf1 833d b5e0 ae3d 1d07 57bd b8f0 83bc
000002c0: 9b23 973d 066b 3cbd 1c80 2abd ac2d 9cbc
000002d0: fb48 64bd 1887 54bd dbcf 823d 6896 8abd
000002e0: 1600 683d b87d 0abc da63 473d be72 183d
000002f0: de86 aebd 318e 44bd a46e 35bd 1b7d 1bbd
00000300: 609c 64bd 0e84 88bd 5fa8 a33d a832 433c
00000310: f81f d73c 11da 13bd 1b39 34bd a61d 6fbd
00000320: 2709 953d e4e3 b33c b683 4abd b430 8fbc
00000330: a9da 823d b0b9 ac3c 3f52 5dbd ca75 91bd
00000340: abf2 88bd 27a0 ac3d 8410 e13c 3708 923d
00000350: a517 863d 1669 d4bc 8425 d0bc dba6 46bd
00000360: f07e b4bb f43e 84bd a262 d8bc d02a 31bd
00000370: 7da9 08bd 7cb6 97bc a5a2 2fbd 231d 873d
00000380: f21a 9fbd 6651 9ebd 0093 51bb 904c 0cbc
00000390: be25 0dbd 2021 fd3b 3867 82bd f72c 05bd
000003a0: ecc8 a93c b02f adbb 4c34 c83c 12d3 6cbd
000003b0: bc46 a1bc 2a4a b3bd 6013 d43c e1b3 8e3d
000003c0: e1c9 a23d ff44 3ebd 18a5 25bc 4a43 6c3d
000003d0: 768d e9bc 2a7c 02bd fbe7 833d 1898 e7bc
000003e0: ec1d a3bc caf3 88bd 387c 8cbc f797 56bd
000003f0: 172d 893d 861d 323d b09b 203c 7043 093d
0.116538 0.017825436 -0.089159586 -0.0480831 -0.007757009 0.010850906 -0.02504035 0.041601054
-0.08907132 0.05400819 0.024866188 0.0088562425 0.029999753 0.0044177556 0.009053551 0.07878358
-0.05681619 -0.09789732 0.023306554 -0.03755805 0.06922856 -0.06686633 0.06565631 0.08056679
-0.11296663 0.052841652 0.06614777 -0.09406922 -0.04237859 -0.023681179 -0.03764184 0.012686583
0.024295313 0.04895796 0.019575946 -0.019641967 0.01168427 -0.030220706 0.020554105 -0.091632895
-0.03029258 -0.07358429 0.04588929 -0.06378846 -0.015642423 0.11252025 -0.0035940814 -0.00085800263
-0.06861402 0.11149559 -0.005720413 0.020687005 0.03981769 0.09185419 -0.09128204 0.024412693
0.056906205 -0.0735681 0.07198053 0.055002846 0.0656539 -0.02404479 -0.013734117 -0.083095655
-0.09662232 0.05104715 -0.03869003 0.04931935 0.14375567 -0.030856322 -0.031210447 0.001713082
-0.017543811 -0.018449623 -0.05406596 -0.07563072 0.038786963 -0.077499084 0.06116016 -0.02421841
-0.060913913 0.01867772 -0.0048140036 -0.08367315 0.07813136 0.08700059 0.05809183 0.05147686
0.035214994 0.082826905 -0.06691882 0.007630141 0.05251472 -0.051232595 0.046499368 0.072792895
-0.028627122 0.10355003 0.02495498 -0.057875052 0.064857975 -0.065217674 -0.067872174 -0.056007598
-0.012058635 0.0904813 0.0829065 0.074260175 0.031187024 -0.021593967 0.00238521 -0.06677127
-0.070490874 0.062703975 -0.0325878 0.05575452 -0.10611028 -0.016131375 0.08962122 -0.03215792
-0.019756913 -0.04346275 0.012964824 -0.03819954 -0.092457585 -0.021783108 -0.011552758 0.07938992
0.078463726 -0.054921377 0.02128382 0.06579118 -0.0868733 -0.08274 0.022010736 -0.05286128
0.017624207 -0.0604716 -0.054310955 -0.0009300858 0.08538047 -0.08109411 -0.017208539 -0.069685444
-0.0066949874 -0.038523093 0.014642596 -0.008794889 -0.0684938 0.044508792 0.04529666 -0.04423079
0.082303844 -0.08693169 -0.01271379 -0.06633562 -0.0009101182 -0.031540055 0.053058513 0.07297257
-0.039583962 0.046299107 -0.036589544 -0.042153075 -0.043096744 -0.060566347 -0.0050814375 -0.020549648
-0.076115444 0.04095217 -0.063502096 0.027587019 0.06442555 0.08538953 -0.052497018 -0.016105995
0.07379838 -0.046000503 -0.04162608 -0.019064747 -0.055733662 -0.051886648 0.063873015 -0.06766969
0.056640707 -0.008452825 0.04867921 0.0372188 -0.085218176 -0.047987167 -0.04429497 -0.037961107
-0.055813193 -0.066658124 0.079910986 0.011913933 0.026260361 -0.036096636 -0.043999773 -0.058377884
0.07277136 0.021959253 -0.049442016 -0.017479278 0.06389362 0.021084636 -0.054033514 -0.071025446
-0.0668691 0.08428984 0.027473696 0.07130473 0.065474786 -0.025929015 -0.025408514 -0.04849897
-0.005508296 -0.0645732 -0.02641422 -0.04325372 -0.03336476 -0.018519633 -0.04287972 0.06597354
-0.07768811 -0.07730369 -0.0031978488 -0.008563176 -0.034459822 0.007724896 -0.06367344 -0.032513585
0.02072569 -0.005285226 0.024439 -0.05781848 -0.01968705 -0.0875438 0.025888145 0.06967903
0.079486616 -0.04645252 -0.010110162 0.05768136 -0.028509837 -0.031856693 0.06440731 -0.028270766
-0.019911729 -0.06687124 -0.017149076 -0.05239102 0.06698053 0.043485187 0.009802744 0.03351158

critic.0.bias f4 [128]
00000000: fa79 9ebd bc62 043d a27a 0d3e 5214 853d
00000010: 059c abbd 2d15 cabc ee8b 813d f0f9 193e
00000020: 62a6 e93d 0cbe 1abd 95ef 96bd 6e97 b23d
00000030: f241 3b3d 39ee 183e 016b 823d 9170 003e
00000040: b187 ad3d 3f3f aabd 85d4 893d d950 e9bc
00000050: f319 333d e9ab 2f3e 3783 bd3c bdbc 793d
00000060: b720 b1bd 1007 5d3d 492d 29bd af29 acbc
00000070: 36ce 8ebd e5a3 8d3d 6a26 94bd 0a0c 043e
00000080: b224 133e 1879 29be 8be2 d43d 98cf 913c
00000090: a817 343d 7a88 15be a653 b73c 14e7 c8bd
000000a0: 6e3e 18bd ee43 50bd 576e 253e 1f35 893d
000000b0: c17d 953d 92a0 96bc 5a03 95bd 9d40 05be
000000c0: 03c0 54bd 62b2 ac3d 4ef5 7fbd 4eed 163e
000000d0: 1192 e9bd 8b9f 4dbd cb14 23bd f89f f23d
000000e0: d78e 1ebd 1c47 243d 3ccf cf3c 4620 96bd
000000f0: 21ce d4bc e27c e3bc 604a c93d 5123 e5bd
00000100: b21b bfbd ea22 1fbd 2326 a33d d369 353e
00000110: 5983 143e 4cf4 003d 28e3 7e3d db7f 0b3e
00000120: ec61 ca3c 7a0f 303e e2e5 743c 5172 82bd
00000130: 756f 953d e1bb 0c3e 1bd5 71bd 254c 843d
00000140: cc19 053c 6b52 82bd f904 913d f093 f33d
00000150: 085d ddba e26a 8f3d 09cb 8a39 6119 263e
00000160: cb06 9a3d 397b ce3d 62d8 4d3d a22d 153e
00000170: 3842 0b3e 4927 f9bc e0d4 393d 0db8 893d
00000180: 2fce 20bd 8b1f 363e d9ca 053d a217 013e
00000190: c1e2 533d 7b46 d93d 8142 1a3e 8f92 4d3d
000001a0: 031e 813d 6dd8 7b3d c656 4f3e f050 2c3c
000001b0: 2cc6 32be 6960 fa3d a7fe 95bd a0d3 edba
000001c0: 5b24 3abe f3c5 d03c 6bf0 0cbe 9820 4ebe
000001d0: a54b 863c 6166 ed3d fba7 183e 4550 873d
000001e0: 097c a8bd 0ce9 3a3e d5ee 033e 7680 1dbe
000001f0: d3bb ecbc 401a 663d 980c 25bd cb40 343e
-0.07738109 0.032320723 0.13816312 0.064980164 -0.08379368 -0.0246683 0.063255176 0.1503675
0.11408688 -0.0377789 -0.073699154 0.08720289 0.045717187 0.14934625 0.063680656 0.1254294
0.08473147 -0.083128445 0.06729988 -0.028480934 0.04372592 0.17155422 0.023133857 0.06097101
-0.08648818 0.053961813 -0.041302953 -0.02101597 -0.06972925 0.06916026 -0.072338894 0.12895218
0.14369467 -0.165501 0.10394772 0.017799184 0.043967873 -0.14602843 0.022378754 -0.098097
-0.037168913 -0.050846033 0.16155373 0.06699585 0.07299376 -0.018387113 -0.0727603 -0.1301293
-0.05194093 0.08432461 -0.0624898 0.14738962 -0.11404813 -0.05020098 -0.03981475 0.11846918
-0.03871044 0.040106878 0.025367372 -0.073303744 -0.025977196 -0.02776951 0.09828639 -0.11188377
-0.09331454 -0.038851656 0.079662584 0.1771615 0.1450323 0.03148298 0.06222835 0.13622992
0.024704896 0.17193404 0.014947386 -0.063694604 0.07296649 0.13743545 -0.059041124 0.06459836
0.008123826 -0.06363376 0.070810266 0.11893451 -0.0016888687 0.07002808 0.00026472684 0.16220619
0.07520827 0.100820966 0.050255187 0.14568189 0.13599479 -0.03041424 0.04536903 0.06724558
-0.039259132 0.1778547 0.032664154 0.12606671 0.05172992 0.10609146 0.15064432 0.050188597
0.063045524 0.061485697 0.20247945 0.010517344 -0.17458409 0.1222542 -0.07323962 -0.0018144734
-0.18177931 0.025485015 -0.13763587 -0.20129621 0.016393492 0.11591793 0.1490783 0.06607107
-0.08226783 0.18252963 0.12884076 -0.15381035 -0.028898155 0.056177378 -0.040295213 0.17602842

critic.2.weight f4 [1, 128]
00000000: 4b37 e2bc cc21 d1bc 23ba 253e 28a8 fa3d
00000010: c1a7 18bd 6049 65bd 655c 27bd eb33 d33d
00000020: ca9d 7b3d 72b4 9abd 9504 5e3d 1358 fd3d
00000030: 7320 99bc 2b4e 6e3d 7d20 333d 7ee1 bf3d
00000040: edfc a43d facc 18be 23ac 993d 22aa 74bd
00000050: 151d e93d 82c4 8f3d ed49 7b3d b7a7 ddbb
00000060: 8dc1 a0bd c266 a5bd fe85 96bd 4eea f4bb
00000070: e9dd 8cbd 5a4a 8c3d 4324 e1bd 627d 143e
00000080: 81af d13d 4644 d3bd eb76 2c3d 41f5 84bd
00000090: a67a fb3d e32b d0bd fd3f c0bd f5f6 8abd
000000a0: 04a7 8cbd 120f 39bd 6400 a13d 26d5 e13d
000000b0: 78d8 c73d 45c1 0f3b e349 f6bd bebb d8bd
000000c0: 7d29 9d3c 9dea c33d 00f4 06be cd08 0e3e
000000d0: b2b0 9ebd 4a21 0dbd ccb0 adbd f190 aa3d
000000e0: eac4 31be 51a4 a9bd bacb 40bd 744e e8bd
000000f0: 59f6 71bd aa49 08be a790 8b3d 0bca f0bd
00000100: b529 47bd f225 b0bd 8c58 243d a0cb 713d
00000110: 1425 f63d 567c d93d cd70 893d e379 a03d
00000120: 9975 64bb 4763 053e 629f a6bc 6c59 7fbc
00000130: bc08 ea3d b0f2 173e 5b30 d8bd 81f3 8cbd
00000140: d643 f5bc 1979 5cbd 0871 f63d 8b68 093e
00000150: a50b 24bd 44fc 863d 3e2e bdb9 73aa dc3d
00000160: c72f 0d3e ab46 043e 4543 db3d c37e 8b3d
00000170: 8e0f aa3d 4806 17bd 7d6e 0bbc 2d56 a53d
00000180: 4720 c1bd 6998 d03d 7894 0b3e 0857 203e
00000190: e2ec 3b3a 04b3 8e3d c4fa e03d aeaa 3c3d
000001a0: 5c20 123e e7da 0b3e 5746 a83d 35a9 aebb
000001b0: 5b39 f5bd 2284 663d 1b4e 09bc d6f6 79bd
000001c0: 2a96 f2bd a8d1 a73d cb1f 0abe 05df f3bd
000001d0: a93e 06bd 8ba5 9e3d 34cc a93d e556 123e
000001e0: fc72 02be 4f95 433d 6e0c 533d 095c cebd
000001f0: fbbb 63bd b7ab 9abd 5daa cebd 60a7 e23d
-0.027614256 -0.02552881 0.16184287 0.122391045 -0.037269358 -0.05597818 -0.0408596 0.10312637
0.061429776 -0.075539485 0.05420359 0.123703144 -0.01869223 0.058180016 0.043732155 0.09369181
0.08056054 -0.14921942 0.075035356 -0.059732564 0.113825 0.07019903 0.061349798 -0.006764378
-0.07849417 -0.0807624 -0.07349776 -0.0074742204 -0.068782635 0.06850119 -0.109932445 0.14500955
0.10238553 -0.103157565 0.042105597 -0.06492091 0.12279253 -0.10164621 -0.09387205 -0.067853846
-0.06867793 -0.045180388 0.07861403 0.11026983 0.09758085 0.0021935266 -0.120258115 -0.10582684
0.019184822 0.09566233 -0.13179016 0.13870545 -0.07748546 -0.034455575 -0.08480987 0.08328427
-0.17360273 -0.08283294 -0.04706929 -0.11343089 -0.059072826 -0.1330935 0.068146996 -0.11757287
-0.04862376 -0.086009875 0.040123507 0.059032083 0.12018791 0.10619418 0.06710968 0.07835748
-0.0034860133 0.13026153 -0.020339672 -0.015585285 0.11427447 0.14838672 -0.10556098 -0.06882382
-0.029939573 -0.053826425 0.12033278 0.13418786 -0.040050168 0.065910846 -0.00036083342 0.10774698
0.13787757 0.12917583 0.1070619 0.06811287 0.08303748 -0.036871225 -0.008510229 0.08073077
-0.094299845 0.1018532 0.13630855 0.156582 0.0007168782 0.06967738 0.1098533 0.04606121
0.14270157 0.13657723 0.08216541 -0.0053302296 -0.1197383 0.056278355 -0.008380438 -0.061026417
-0.11845048 0.08194286 -0.1348869 -0.11907772 -0.0327746 0.077464186 0.08290902 0.1429096
-0.12739176 0.047749814 0.051525526 -0.10076148 -0.055599194 -0.07552283 -0.10091088 0.110670805
