models/ppo/Catan/ppo_catan_model_update350.pth (torch, 145076 bytes, 9 tensors)

shared.0.weight f4 [128, 10]
0	0x3e1481e3	0.14502673
1	0x3e21435a	0.15748349
2	0x3e0d362b	0.13790195
3	0xbdcd7d75	-0.10033695
4	0x3e34c98b	0.17655008
5	0x3ba833bc	0.0051331203
6	0x3eaec44f	0.34134147
7	0xbe604d9c	-0.21904606
8	0x3ed6db44	0.4196416
9	0xbc7949be	-0.015215335
10	0x3e1534ed	0.14570971
11	0xbe10c34a	-0.14136997
12	0xbe2c40ae	-0.16821548
13	0x3e886db3	0.26646194
14	0x3dfc6f7f	0.12325954
15	0x3e476ff1	0.19476296
16	0xbe424e87	-0.18975268
17	0xbd9fe256	-0.07806842
18	0xbe01420f	-0.12622856
19	0x3d2201ca	0.039552487
20	0xbd04babd	-0.03240465
21	0xbe1a628b	-0.15076654
22	0x3e50d075	0.2039202
23	0x3d50489c	0.050850496
24	0xbe04fec3	-0.12987809
25	0x3cff3e5f	0.03115767
26	0x3eb08d6e	0.34482902
27	0x3e701d7e	0.2344875
28	0x3e0c05a8	0.13674033
29	0xbc9a2a44	-0.018818982
30	0xbe94775e	-0.2899732
31	0x3e5eebeb	0.21769683
32	0x3db00958	0.08595532
33	0xbd6425da	-0.05570016
34	0x3e2a5318	0.1663326
35	0x3ea97a93	0.3310133
36	0x3e533d00	0.20628738
37	0xbad7ff42	-0.0016479271
38	0x3e7f597a	0.24936476
39	0xbe731e4f	-0.2374203
40	0xbe5ace22	-0.21367696
41	0xbe9c519d	-0.30531016
42	0xbdde022f	-0.1084026
43	0xbe89a35e	-0.26882452
44	0x3e107d23	0.14110236
45	0x3dcaeada	0.09908076
46	0x3e1e5cb1	0.15465046
47	0x3e3cf02a	0.1845099
48	0xbe8eb02d	-0.27868786
49	0x3d9b36fc	0.07578847
50	0x3d7f3e33	0.062315177
51	0xbdf86ab8	-0.1212973
52	0xbd98e746	-0.07465987
53	0x3c5b2bd9	0.013377153
54	0xbe5d49c3	-0.21610169
55	0xbe492e9a	-0.19646683
56	0xbe0ef50a	-0.13960662
57	0x3e4d47d1	0.20046927
58	0x3e6fe6a4	0.23427826
59	0x3ca63dfc	0.020293228
60	0x3e8d99d4	0.27656424
61	0x3e9c003f	0.30468938
62	0x3c6c38cc	0.014417838
63	0xbe4052c5	-0.18781574
64	0xbd528ff5	-0.05140682
65	0x3d0dcf4f	0.034621533
66	0xbe8a167a	-0.26970273
67	0x3edbb934	0.42914736
68	0xbca2a702	-0.019855026
69	0xbe0ff7b1	-0.1405933
70	0x3eb040fe	0.34424585
71	0xbe73db42	-0.23814109
72	0xbe13ef7f	-0.1444683
73	0xbd112e4b	-0.03544454
74	0x3de4b0f5	0.111665644
75	0xbe28a5da	-0.16469517
76	0xbe5f0f3f	-0.2178316
77	0xbe1666d3	-0.14687662
78	0x3e1a6f0e	0.15081427
79	0x3de3c597	0.11121672
80	0x3e6f7b30	0.23386836
81	0xbe9d0575	-0.30668226
82	0x3e69f36c	0.22846764
83	0x3c99cfc6	0.018775832
84	0xbe2f06cd	-0.17092438
85	0x3eae1d25	0.3400661
86	0xbdfca4f0	-0.12336147
87	0xbeace036	-0.3376481
88	0xbe696e5b	-0.22796004
89	0xbb0eb8fa	-0.0021777735
90	0x3e79f863	0.24411158
91	0x3e975481	0.2955666
92	0xbdb1abbd	-0.086753346
93	0xbd299994	-0.04140623
94	0xbcce9691	-0.02521828
95	0x3cb3208c	0.021866105
96	0x3e2fff06	0.17187127
97	0x3da82792	0.082106724
98	0x3c32b2cd	0.010906887
99	0x3e62336a	0.22089925
100	0x3e5498e6	0.20761451
101	0xbe53074d	-0.20608254
102	0xbd3ad52c	-0.045613453
103	0x3d5cdc23	0.053920876
104	0x3d6b3626	0.057424687
105	0x3e61e3d7	0.2205957
106	0x3db794db	0.08963939
107	0x3e65ce5f	0.22442006
108	0xbba3e6e3	-0.005001889
109	0x3e6e7b6c	0.23289269
110	0x3dab845a	0.083748534
111	0xbdd86e71	-0.1056794
112	0xbd6c6d2d	-0.057721306
113	0xbcee5fca	-0.02909841
114	0x3d5b37bf	0.05351996
115	0x3d6a0e87	0.05714276
116	0xbe041b6a	-0.12901083
117	0x3db44f6e	0.088042125
118	0xbecf5bcc	-0.40499723
119	0x3d26e2d4	0.040743664
120	0x3d8edf9e	0.06976245
121	0x3dec13b1	0.11527193
122	0xbd9c11ee	-0.07620607
123	0xbe2d224f	-0.16907619
124	0x3e0ace39	0.1355523
125	0x3e391d8b	0.18077676
126	0xbe48b63c	-0.19600767
127	0xbea9a0bc	-0.33130443
128	0xbe50c1ce	-0.2038643
129	0x3e4a230c	0.19739932
130	0x3e7a19f2	0.2442396
131	0x3dfcdaf6	0.12346451
132	0x3e5de74b	0.21670263
133	0x3e61e4d0	0.22059941
134	0xbde7ef73	-0.11324968
135	0x3e87308f	0.26404235
136	0xbc3f2499	-0.01166644
137	0x3def0f47	0.11672836
138	0xbcd722dd	-0.026261741
139	0x3e20972c	0.15682667
140	0x3e924a76	0.28572434
141	0xbc6ee852	-0.014581757
142	0x3ddcc629	0.107799836
143	0x3cf8d1bb	0.030373445
144	0x3d749b41	0.059718374
145	0xbb00c045	-0.0019645852
146	0x3e508066	0.2036148
147	0xbe9d5265	-0.30726925
148	0x3d90f01e	0.07077049
149	0xbe29a235	-0.16565783
150	0xbde31ab7	-0.1108908
151	0xbd6ef015	-0.05833443
152	0x3e6c17ff	0.23056029
153	0x3d6a4055	0.057190258
154	0x3e6c0d59	0.23051967
155	0x3d731e7c	0.059355244
156	0xbe5d8409	-0.21632399
157	0x3e8c82a4	0.2744342
158	0x3e84c6b1	0.2593284
159	0x3e5c577f	0.21517752
160	0x3e97afdf	0.29626366
161	0xbe4c60bc	-0.19958776
162	0x3ea03425	0.31289783
163	0xbd1a76ad	-0.037710834
164	0x3d87a26d	0.06622777
165	0x3c51160e	0.012761606
166	0x3e8bc364	0.2729751
167	0xbacbea03	-0.0015557412
168	0x3e68344d	0.22676201
169	0xbdd78300	-0.10523033
170	0x3e3767c0	0.17910671
171	0xbdcc3945	-0.09971861
172	0xbe63de2e	-0.22252724
173	0x3d819831	0.06327856
174	0x3d5f8bd5	0.054576714
175	0x3d4f1b27	0.050563004
176	0xbe71c862	-0.23611596
177	0xbe05f6fc	-0.13082498
178	0xbdc3cd31	-0.095606215
179	0xbcd7eccf	-0.026358036
180	0x3d8e37bb	0.069442235
181	0x3de36bd5	0.11104552
182	0x3d031089	0.03199819
183	0x3e7f9ace	0.24961397
184	0xbe39e73f	-0.1815462
185	0x3ebf49e1	0.37361053
186	0xbe5c403d	-0.2150888
187	0xbe6d50ff	-0.23175429
188	0xbe0d0924	-0.13773018
189	0xbcd113ad	-0.025522077
190	0x3ca0efbe	0.019645568
191	0x3e8274da	0.25479776
192	0xbe6213ab	-0.22077815
193	0xbded35b0	-0.11582506
194	0x3df549e2	0.11976983
195	0x3daa04ca	0.08301695
196	0xbe8f4caf	-0.27988192
197	0xbe30584c	-0.17221183
198	0x3e440416	0.19142184
199	0x3e5a17f1	0.21298195
200	0xbd4b873f	-0.049689528
201	0x3e87140a	0.26382476
202	0x3da54f19	0.08071727
203	0x3cd068f7	0.025440676
204	0xbe8383c4	-0.25686467
205	0xbb8b0e4d	-0.004243648
206	0xbe88d0a6	-0.26721686
207	0xbea2847a	-0.31741697
208	0xbafc9b92	-0.0019272438
209	0x3c5bb7e7	0.013410545
210	0xbe8b5946	-0.27216548
211	0x3de878cf	0.113511674
212	0x3e96cc73	0.29452857
213	0x3e1fbac2	0.15598586
214	0x3d4c21f4	0.049837068
215	0x3d537b25	0.05163111
216	0xbd8b7507	-0.068094306
217	0xbe0e4b27	-0.13895856
218	0xbd900b77	-0.07033437
219	0x3e4ad488	0.19807637
220	0x3e7218fa	0.2364234
221	0xbe6e1389	-0.2324964
222	0x3e351da4	0.17687088
223	0x3e412d92	0.1886504
224	0x3e74f692	0.23922184
225	0xbcbdfc22	-0.023191515
226	0xbcb3b9ca	-0.021939177
227	0x3cbf8f2e	0.023383703
228	0xbdf98740	-0.12184
229	0xbd33bda0	-0.043882012
230	0xbb162ff3	-0.0022916764
231	0x3e158b4f	0.14603923
232	0x3d1adf33	0.037810516
233	0xbe1f69d2	-0.15567711
234	0x3e9c6894	0.30548537
235	0xbe0a01bc	-0.13477224
236	0xbd9ea14f	-0.07745611
237	0xbdc04649	-0.09388406
238	0x3e443312	0.19160107
239	0xbe76552d	-0.2405593
240	0xbe76a432	-0.24086073
241	0x3d116393	0.035495352
242	0x3cb56bed	0.02214619
243	0xbe59cea4	-0.21270233
244	0xbda9d707	-0.08292966
245	0xbde03893	-0.10948291
246	0x3e852a8f	0.26009032
247	0xbe9d61ac	-0.3073858
248	0xbd9e4a43	-0.07729008
249	0x3d9b6c22	0.07588984
250	0xbe585dbe	-0.2112951
251	0xbe0034d7	-0.12520157
252	0xbd712269	-0.058870707
253	0x3dcf8e88	0.101346076
254	0xbe3a566b	-0.18197028
255	0xbe865891	-0.26239446

shared.0.bias f4 [128]
0	0xbed21a5b	-0.41035733
1	0xbe20624d	-0.15662499
2	0x3efba258	0.49147296
3	0xbdcd28d9	-0.10017557
4	0xbdbe94fb	-0.093057595
5	0xbe7e96c4	-0.248622
6	0x3e89503d	0.2681903
7	0xbde6f179	-0.11276526
8	0x3e485578	0.19563854
9	0x3e50dc0a	0.20396438
10	0x3db5a1ad	0.08868728
11	0x3efe113a	0.49622518
12	0x3a632e35	0.0008666248
13	0xbe8091b7	-0.25111172
14	0x3c20b549	0.009808847
15	0xbd9afeb1	-0.0756811
16	0xbd8db68d	-0.069195844
17	0x3e2caab2	0.1686199
18	0xbea18db8	-0.31553435
19	0x3e3de463	0.18544154
20	0x3d8f6928	0.07002479
21	0x3ec5844d	0.385775
22	0x3e98a086	0.2980997
23	0xbdbe5032	-0.0929264
24	0x3e5c1e87	0.2149602
25	0xbd4e8d90	-0.050427973
26	0xbe48a880	-0.19595528
27	0xbe79c73c	-0.24392408
28	0xbe84cad7	-0.25936005
29	0x3e42550e	0.18977758
30	0xbd91b6d0	-0.07114947
31	0xbe0056d2	-0.1253312
32	0xbe4f554e	-0.20247385
33	0xbe1d91a8	-0.15387595
34	0x3e937c1a	0.2880562
35	0x3e364c13	0.17802458
36	0x3ee00d66	0.43760222
37	0xbe21b678	-0.15792263
38	0x3ec245b1	0.37943795
39	0xbc8a02ab	-0.016846975
40	0xbe157031	-0.14593579
41	0xbe10cb33	-0.14140014
42	0x3eda2124	0.4260341
43	0x3dbe3688	0.09287745
44	0x3e657048	0.22406113
45	0xbe9a7c94	-0.3017317
46	0x3dcf4173	0.10119905
47	0xbe12fc97	-0.14354168
48	0xbdcd1ef2	-0.10015668
49	0x3d7008a2	0.058601983
50	0x3ddcc811	0.10780347
51	0xbe45f16f	-0.19330381
52	0x3e603796	0.21896204
53	0xbe68afb4	-0.22723275
54	0xbe99ccfd	-0.30039206
55	0x3d38ca36	0.04511472
56	0x3d65f4cf	0.05614167
57	0x3e53f16e	0.20697567
58	0x3eda8e7a	0.42686826
59	0x3d000de4	0.031263247
60	0x3ead4f3e	0.3384952
61	0xbd2fb479	-0.04289672
62	0x3e42f8d2	0.1904023
63	0x3ee314f7	0.44351932
64	0xbd9b4d08	-0.07583052
65	0xbce1066a	-0.027468879
66	0x3e74f15e	0.239202
67	0xbe84fdf6	-0.25975007
68	0xbdf92949	-0.12166078
69	0x3e86550c	0.2623676
70	0x3deaa009	0.114563055
71	0x3d41713a	0.047227122
72	0x3e3c3ced	0.18382616
73	0xbe954608	-0.29154992
74	0xbe6644e9	-0.22487225
75	0xbd5d395f	-0.05400979
76	0xbdfdc2f1	-0.12390698
77	0xbe44e9dc	-0.19229835
78	0x3eb594fd	0.35465232
79	0xbe9f1a7a	-0.31074888
80	0xbe66433c	-0.22486585
81	0x3ec8e449	0.39236668
82	0x3dd29f3e	0.10284279
83	0x3e90d296	0.28285664
84	0x3d9d7f31	0.076902755
85	0xb97eb132	-0.00024289338
86	0xbda5e664	-0.08100584
87	0x3ebab478	0.36465812
88	0xbdbb997c	-0.09160134
89	0xbe0662f4	-0.13123685
90	0xbe6b2883	-0.22964673
91	0xbe223dcc	-0.15843886
92	0x3df1c068	0.11804277
93	0x3eccf290	0.4002881
94	0xbe5bb257	-0.2145475
95	0xbd4dc5c9	-0.05023745
96	0xbeae8115	-0.34082857
97	0xbea3150e	-0.31852
98	0xbea0ea64	-0.31428826
99	0xbd251020	-0.04029858
100	0xbdf7bb38	-0.12096256
101	0xbdaeb6fa	-0.08530994
102	0x3edcaa07	0.4309847
103	0xbea1324a	-0.3148368
104	0xbe4a41c0	-0.19751644
105	0x3dea4bcf	0.114402406
106	0xbeb448e7	-0.3521187
107	0x3e336dcd	0.17522354
108	0x3edea234	0.43483126
109	0x3db84ad9	0.08998651
110	0x3e2946bf	0.16530894
111	0x3c15b50c	0.009137403
112	0x3ed6dcbb	0.4196528
113	0xbe866405	-0.26248184
114	0x3e44947f	0.19197272
115	0x3e40b684	0.18819624
116	0xbe014222	-0.12622884
117	0xbeb112cf	-0.34584662
118	0xbe1347e6	-0.14382896
119	0x3e12bb5e	0.14329287
120	0xbd8e1f51	-0.06939567
121	0x3e70ea8d	0.23526974
122	0x3d161b41	0.036647085
123	0xbbd86ab2	-0.006604516
124	0x3e97589f	0.295598
125	0xbe0d094f	-0.13773082
126	0xbdfb6753	-0.12275567
127	0x3d9813a0	0.07425618

actor.0.weight f4 [128, 128]
0	0xbd545625	-0.051839966
1	0xbc94e238	-0.018174276
2	0xbc8cc898	-0.017185494
3	0xbd3aa14e	-0.04556399
4	0xbd73a9d0	-0.059488118
5	0x3d2f8ee6	0.042860888
6	0xbd7cbdab	-0.06170432
7	0x3d82f7e7	0.0639494
8	0x3d4016d0	0.046896756
9	0x3d2bc981	0.041940216
10	0xbc337c1e	-0.010954885
11	0xbd957bda	-0.072990134
12	0x3da27b46	0.07933669
13	0xbdac1123	-0.08401706
14	0x3da2d712	0.07951178
15	0x3c597e46	0.013274735
16	0x3d55805a	0.05212436
17	0x3d8eb557	0.069681816
18	0x3d88ddd5	0.06682936
19	0x3d94dce1	0.07268692
20	0x3d685e5c	0.056730613
21	0x3d495c74	0.049160436
22	0x3c640f22	0.013919624
23	0xbce01dd5	-0.027357975
24	0x3cfd6f4b	0.030936858
25	0x3d2fb787	0.042899635
26	0x3db74fd8	0.08950776
27	0xbd3c384f	-0.045952138
28	0xbd4436e1	-0.0479039
29	0xbd63ebf7	-0.055644955
30	0x3d2efa37	0.042719092
31	0x3cd6d819	0.02622609
32	0x3c14175a	0.009038771
33	0xbca86ae8	-0.02055879
34	0x3d34e6a4	0.04416527
35	0x3d922e53	0.07137742
36	0xbc924164	-0.017853446
37	0x3da9737b	0.08273979
38	0xbd9388bd	-0.07203815
39	0xbdb6cab3	-0.089253806
40	0xbd4ff19b	-0.050767522
41	0xbdae1cda	-0.08501597
42	0xba0a5503	-0.000527695
43	0x3d80b969	0.06285364
44	0x3cd233db	0.025659492
45	0xbd04c666	-0.03241577
46	0xbcd54ff2	-0.026039097
47	0x3ac73b7e	0.0015200225
48	0xbc723ba0	-0.0147847235
49	0xbcf89842	-0.03034604
50	0x3d6a47c7	0.05719736
51	0x3d075ca2	0.033047326
52	0x3d03cd81	0.032178406
53	0xbda310fa	-0.079622224
54	0xbd086b69	-0.03330556
55	0x3d53ccb8	0.051708907
56	0x3d17265d	0.03690182
57	0x3d44eea6	0.048079155
58	0xbdaad3b1	-0.08341158
59	0xbd6d6022	-0.057953008
60	0x3d572ad5	0.052531082
61	0x3c116530	0.008874223
62	0xbd3bc070	-0.04583782
63	0xbdae80b3	-0.08520641
64	0xbd3d9f5b	-0.04629455
65	0x3da68a7a	0.08131881
66	0x3d408fae	0.047012024
67	0xbb5d384d	-0.0033755482
68	0x3be1952a	0.006884237
69	0x3d05c1f6	0.03265568
70	0xbd88bd84	-0.06676772
71	0x3d89b2e7	0.06723576
72	0x3d38aebd	0.04508852
73	0x3c2e26d5	0.010629375
74	0x3d3ed158	0.046586365
75	0xbc0c95ec	-0.008580666
76	0xbce70ee3	-0.02820534
77	0x3c1b8867	0.00949297
78	0xbdcd9670	-0.10038459
79	0x3daf77cc	0.08567771
80	0x3cf3af2b	0.029746613
81	0xbd579865	-0.05263557
82	0xbd70e42c	-0.05881135
83	0xbda9c1d6	-0.082889244
84	0xbc9cf747	-0.01916088
85	0x3d7d9ff1	0.06192011
86	0x3d1cbf30	0.038268268
87	0x3d37f7bb	0.04491399
88	0x3daf619c	0.085635394
89	0xbd8a1204	-0.067417175
90	0x3c47f915	0.012205382
91	0x3d4bcdb6	0.049756728
92	0xbba9db2d	-0.0051835985
93	0xbd73d3a5	-0.05952801
94	0xbda96a92	-0.0827228
95	0x3d408f4d	0.047011662
96	0xbda11c81	-0.07866765
97	0xbd7482c1	-0.05969501
98	0x3cc32091	0.02381924
99	0x3d0a91d4	0.03383048
100	0x3ce20ba8	0.027593449
101	0x3ab56080	0.0013837963
102	0x3da8c340	0.08240366
103	0xbd76009d	-0.06005918
104	0xbc8d5e70	-0.017256945
105	0x3d35b97e	0.044366352
106	0xbbe11433	-0.006868863
107	0x3d2c62ba	0.04208634
108	0x3d6bd76f	0.0575785
109	0xbcec29a4	-0.02882845
110	0xbc42197f	-0.011846899
111	0x3d9f2f53	0.07772698
112	0xbc35edcc	-0.0111040585
113	0x3d94e177	0.072695665
114	0xbd70d085	-0.05879261
115	0x3d689ba7	0.056789067
116	0xbd8d2832	-0.06892432
117	0x3d80192f	0.062548034
118	0x3dba4efa	0.09097095
119	0xbd09f845	-0.033684034
120	0x3d90fd3b	0.0707955
121	0x3d4ff854	0.050773934
122	0xbc1eec16	-0.009699842
123	0x3dcdfde4	0.100581914
124	0xbd030338	-0.03198549
125	0xba3e746a	-0.0007265272
126	0xbd2724ae	-0.040806465
127	0x3d7f0c69	0.062267695
128	0x3ca7f5f4	0.020503022
129	0x3cbd2630	0.023089498
130	0x3b9a9f20	0.004718676
131	0x3d41cd42	0.04731489
132	0xbd3062b3	-0.043062877
133	0xba957e80	-0.0011405498
134	0xbd75aeed	-0.059981275
135	0xbd7dbef3	-0.06194968
136	0x3d050db8	0.032483786
137	0xbd350def	-0.04420274
138	0xbd8a770e	-0.06760989
139	0xbcaa1084	-0.020759828
140	0x3c4ffa80	0.012694001
141	0xbb951f90	-0.0045508817
142	0xbd4d6344	-0.050143495
143	0xbd8855d3	-0.06656995
144	0xbd96c40e	-0.07361613
145	0x3d9643e3	0.07337167
146	0x3c932184	0.017960317
147	0xbd01ea5e	-0.03171765
148	0xbd2b07e0	-0.041755557
149	0x3cab3fe4	0.020904489
150	0xbd41b464	-0.047291175
151	0x3c5ad670	0.01335679
152	0xbd5bcc0e	-0.0536614
153	0x3dafe555	0.085886635
154	0x3ca9cac8	0.020726576
155	0xbd54d050	-0.051956475
156	0x3d12a3a2	0.035800584
157	0xbcc09600	-0.023509026
158	0x3c6f69d8	0.014612637
159	0x3c8eebb0	0.017446369
160	0xbcf8e74a	-0.030383725
161	0x3bb88720	0.0056313425
162	0xbcc7957c	-0.024363272
163	0x3d504a7e	0.05085229
164	0xbd546705	-0.05185606
165	0xbb68d700	-0.003552854
166	0xbc9102d0	-0.017701536
167	0xbd0ad735	-0.033896644
168	0x3ab6b400	0.0013939142
169	0x3d8df1c9	0.069308825
170	0x3d390bf6	0.045177422
171	0xbc124348	-0.008927174
172	0xbd040cc6	-0.032238744
173	0xb8fd1400	-0.000120677054
174	0xbd86f03a	-0.06588788
175	0xbd2b48cc	-0.04181747
176	0xbdab7580	-0.08372021
177	0xbd3047a7	-0.043037083
178	0xbc062ed0	-0.008189872
179	0x3d84c303	0.06482508
180	0x3b334f20	0.0027360395
181	0x3d54703a	0.05186484
182	0x3aa67bc0	0.0012701675
183	0x3bd937b0	0.006628953
184	0xbbd09690	-0.0063656047
185	0x3cd551a8	0.026039913
186	0x3cbe59cc	0.023236178
187	0x3d37a142	0.04483152
188	0x3cbb08b8	0.022831306
189	0x3d87449f	0.06604885
190	0xbbf39f70	-0.007434778
191	0x3cc06a34	0.023488142
192	0x3cebb96c	0.02877494
193	0x3aed0240	0.0018082336
194	0x3d49e7be	0.049293272
195	0xbcf1de2e	-0.029524889
196	0x3c2c6788	0.010522731
197	0x3b548600	0.0032428503
198	0xbda0b818	-0.07847613
199	0xbd8948be	-0.067033276
200	0xbc8ce704	-0.0172
201	0x3d305856	0.043052994
202	0xbcb20cac	-0.021734558
203	0x3d474a5e	0.048654906
204	0xbd51f064	-0.051254645
205	0xbdad402f	-0.08459508
206	0xbd03d53c	-0.032185778
207	0xbd521263	-0.051287066
208	0xbc9e1d2c	-0.01930102
209	0xbd14ffba	-0.036376692
210	0xbcf06aaa	-0.029347736
211	0xbd933309	-0.071874686
212	0xbd97816d	-0.07397733
213	0xbb400880	-0.0029301941
214	0xbd9566a0	-0.07294965
215	0x3cccf4b8	0.025019035
216	0xbd6745eb	-0.056463163
217	0xbbd14aa0	-0.00638707
218	0x3d8bf1bd	0.06833217
219	0xbcff8508	-0.031191364
220	0x3b14ea60	0.0022722706
221	0x3d90c6fd	0.07069204
222	0x3cf4a3c4	0.029863246
223	0xbc9febe0	-0.019521654
224	0xbd7ecfe2	-0.06220997
225	0x3da6dc2b	0.081474625
226	0xbcede742	-0.029040936
227	0x3d1134d0	0.035450757
228	0xbd350d34	-0.044202045
229	0x3bb7def0	0.005611293
230	0x3d1a5352	0.037677117
231	0x3c633ab8	0.01386898
232	0xbd1bf0a4	-0.03807129
233	0x3d6cca3a	0.057810046
234	0xbd8eedc5	-0.06978945
235	0xbc714328	-0.014725484
236	0xbbd56e90	-0.006513424
237	0xbd9d7176	-0.076876566
238	0x3d87c4ab	0.06629308
239	0xbd75c2dc	-0.060000286
240	0x3d8233cf	0.06357538
241	0xbc0d0840	-0.008607924
242	0x3c964820	0.018344939
243	0xbd883af7	-0.06651872
244	0x3d224dee	0.0396251
245	0xbdb06c7c	-0.08614442
246	0xbc6f15d8	-0.01459261
247	0xbd4dea3c	-0.05027221
248	0x3cdf11e0	0.027230203
249	0xbd9c7ec9	-0.0764137
250	0x3da0d413	0.0785295
251	0xbd62de2c	-0.05538766
252	0xbd827728	-0.063703835
253	0xbd166d6f	-0.036725458
254	0xbc1b95d0	-0.009496167
255	0x3d2ea51a	0.042637922

actor.0.bias f4 [128]
0	0xbd89b6ef	-0.06724345
1	0x3d8c65cd	0.068553545
2	0x3d9945ec	0.0748404
3	0x3d893920	0.06700349
4	0xbcd9e3f8	-0.026597962
5	0x3d86ce88	0.065823615
6	0x3c3bb6f9	0.011457198
7	0xbd2d1513	-0.042256426
8	0xbcd956bf	-0.026530622
9	0x3c3428c8	0.010996051
10	0x3d5e4a82	0.054270275
11	0x3ccfcbe7	0.025365783
12	0x3d772318	0.060336202
13	0x3d108f0f	0.03529268
14	0xbb7b1504	-0.0038312087
15	0x3d9805c4	0.07422975
16	0xbdb2ae6e	-0.08724676
17	0xbcb32828	-0.021869734
18	0x3c41b344	0.011822525
19	0xbd8f6172	-0.07001008
20	0xbd124a8c	-0.035715625
21	0x3d22cc92	0.039745875
22	0xbd01ccc5	-0.031689424
23	0x3c7fd2e8	0.015614249
24	0xbdb8ad15	-0.09017388
25	0xbd5b1eb1	-0.053496066
26	0x3d865e03	0.065609
27	0xbd0a5151	-0.033768956
28	0x3d5aa190	0.053376734
29	0x3d8ac203	0.06775286
30	0xbd9be674	-0.07612315
31	0xbc7f74e6	-0.015591836
32	0x3bafba21	0.0053627645
33	0xbce2f969	-0.027706819
34	0xbd877019	-0.06613178
35	0x3c85228f	0.01625183
36	0xbda0954e	-0.078409776
37	0xbca087fe	-0.019596096
38	0xbd5b252b	-0.053502243
39	0x3c75881e	0.014986066
40	0xbdb20fbc	-0.08694407
41	0xbd8a7fcd	-0.06762657
42	0xbd455714	-0.048178747
43	0x3d8b1371	0.067908175
44	0x3daf3348	0.08554703
45	0x3d3b8757	0.045783367
46	0x3cf341cd	0.029694462
47	0xbcdfbea0	-0.027312577
48	0xbd296730	-0.041358173
49	0x3d312a09	0.04325298
50	0x3d4493c5	0.047992487
51	0xbb4c2f69	-0.0031156188
52	0xbcc8e3ae	-0.024522629
53	0xbd7fa18c	-0.062409922
54	0x3cd64dc0	0.026160121
55	0x3d2b2c13	0.04179008
56	0x3d407e71	0.046995584
57	0x3dc58a69	0.0964554
58	0x3d652749	0.05594567
59	0x3d82c917	0.06386011
60	0xbcda1b18	-0.026624247
61	0x3c249067	0.010044194
62	0x3d865130	0.06558454
63	0xbd1bc2a6	-0.038027428
64	0x3d6bad07	0.05753806
65	0x3d4ad753	0.049521755
66	0x3dc684b5	0.096932806
67	0x3d602e6e	0.05473178
68	0x3c9518d2	0.018200312
69	0xbd4090ee	-0.047013216
70	0xbd237189	-0.039903197
71	0x3d1804bc	0.03711389
72	0xbcabef43	-0.020988112
73	0x3dc13fe5	0.09436015
74	0xbd19dd46	-0.03756454
75	0xbc3d98b1	-0.011572049
76	0xbd4ad865	-0.049522776
77	0xbbae7289	-0.0053237122
78	0x3bb4b0ab	0.0055142245
79	0x3cac016a	0.020996768
80	0x3d0837fa	0.03325651
81	0xbdc76369	-0.09735758
82	0xbd228b74	-0.039683774
83	0x3d448950	0.047982514
84	0x3c76c6e9	0.015062072
85	0xbc8dde1d	-0.017317826
86	0x3c5c1e8e	0.013435019
87	0xbc9e3114	-0.019310512
88	0xbd57c32e	-0.052676372
89	0x3dab04ae	0.08350502
90	0xbda6364a	-0.081158236
91	0xbb0d7ac9	-0.0021588078
92	0x3d0b74a4	0.034046784
93	0xbda67818	-0.08128375
94	0x3d8265ff	0.063671105
95	0x3b91a531	0.004444741
96	0xbb3fa524	-0.0029242719
97	0xbc8cd4d1	-0.017191323
98	0x3ca0762b	0.019587597
99	0x3dce9e6c	0.1008881
100	0xbcd8acd5	-0.0264496
101	0xbd499180	-0.049211025
102	0x3d697e2a	0.057005085
103	0x3d2e57d1	0.042564217
104	0x3c9f2397	0.01942615
105	0x3d2c7d5a	0.042111732
106	0x3d2de518	0.04245481
107	0xbca0638e	-0.019578721
108	0xbc8a38d3	-0.016872799
109	0x3da95d21	0.08269716
110	0x3d5dd55a	0.054158546
111	0xbca47427	-0.020074917
112	0x3dcfb96e	0.1014279
113	0x3ced0130	0.02893123
114	0x3cd92929	0.026508885
115	0xbc8afaf0	-0.01696536
116	0x3b944456	0.004524748
117	0x3bd6cbc4	0.0065550525
118	0x3d91e00c	0.07122812
119	0xbafa3f6d	-0.0019092389
120	0x3d8b0953	0.06788888
121	0xbb96c7ca	-0.0046014534
122	0x3d1f3f77	0.038878884
123	0x3d400776	0.046882115
124	0xbd648d8e	-0.05579906
125	0xbb0a475b	-0.002109966
126	0x3d33123b	0.043718558
127	0x3cd4234b	0.025895735

actor.2.weight f4 [5, 128]
0	0xbdb1d0ab	-0.086823784
1	0xbd9197d2	-0.071090356
2	0xbdc722b7	-0.09723418
3	0x3c2dd7d5	0.01061054
4	0xbd18cd98	-0.037305444
5	0xbb4f2859	-0.0031609742
6	0x3d093c5d	0.033504833
7	0x3d2a7087	0.04161122
8	0xbcfbbf55	-0.030730883
9	0x3c91abdc	0.017782144
10	0x3d801f41	0.06255961
11	0x3b6b27d0	0.0035881884
12	0xbcb60aa1	-0.022221865
13	0xbda44c16	-0.08022325
14	0xbc95d44e	-0.018289711
15	0xbda36af8	-0.07979387
16	0x3d777833	0.060417365
17	0xbcf2668d	-0.029589916
18	0xbd0c12e0	-0.034197688
19	0x3d40d840	0.047081232
20	0x3d93e23e	0.07220887
21	0xbba59bb1	-0.0050539603
22	0xbcb6f33e	-0.022332784
23	0xbd835b08	-0.06413847
24	0x3d990fa5	0.07473687
25	0x3d4cd3ee	0.0500068
26	0x3ce25fe8	0.027633622
27	0xbd9ccef0	-0.07656658
28	0x3d431f2f	0.04763716
29	0x3cdc7471	0.026910992
30	0xbd9a7771	-0.07542313
31	0xbd317eb0	-0.04333371
32	0x3cf208f1	0.02954528
33	0xbc7a3853	-0.015272218
34	0x3d0c82b8	0.03430435
35	0xbd3c8373	-0.046023797
36	0xbd5b9d91	-0.053617064
37	0xbda2072b	-0.079115234
38	0xbc9ec0b4	-0.019378997
39	0xbd72be18	-0.05926332
40	0xbda69f1b	-0.08135816
41	0x3d290bd8	0.04127106
42	0x3d7a3c5e	0.061092727
43	0x3ba19bc9	0.004931901
44	0xbdc78330	-0.09741819
45	0xbd449e03	-0.048002254
46	0xbce77d48	-0.028257981
47	0x3d862809	0.06550605
48	0x3d14642d	0.036228348
49	0xbd9865d6	-0.07441299
50	0xbd2345e4	-0.039861575
51	0xbdf1c83b	-0.11805769
52	0xbd718e49	-0.058973584
53	0x3d317f01	0.04333401
54	0xbc357688	-0.011075623
55	0xbd27aef1	-0.04093832
56	0x3c8fcbce	0.017553236
57	0xbddd64d9	-0.10810251
58	0x3d245835	0.040123183
59	0x3c3f3d5a	0.011672342
60	0xbdc2213e	-0.09478997
61	0x3d6e26f8	0.058142632
62	0xbd57985d	-0.05263554
63	0x3d423c9a	0.047421075
64	0x3c8dfad6	0.017331522
65	0xbcd17331	-0.025567623
66	0xbdc161de	-0.09442495
67	0xbd37cb12	-0.044871397
68	0x3cac3fdf	0.02102655
69	0xbc9928cb	-0.01869621
70	0xbdc42dbd	-0.095790364
71	0xbd806889	-0.062699385
72	0xbd821a59	-0.06352682
73	0xbb99ede9	-0.0046975506
74	0xbdb9d598	-0.09073943
75	0x3d6e784e	0.0582202
76	0xbd348684	-0.044073597
77	0xbdb18d2a	-0.08669503
78	0xbc1b95d4	-0.009496171
79	0x3c89ef6c	0.016837798
80	0xbb8a47d7	-0.0042199898
81	0x3c92ea37	0.017933948
82	0xbbbc5e58	-0.0057485513
83	0xbdcbd50b	-0.09952744
84	0xbcfd0eb4	-0.0308908
85	0x3d821434	0.0635151
86	0xbcbf7ab3	-0.023373937
87	0xbde11811	-0.109909184
88	0xbd927b79	-0.07152457
89	0x3ce84a2d	0.028355682
90	0xbd49d88b	-0.049278777
91	0xbceaa724	-0.028644152
92	0xbd9152dd	-0.07095883
93	0x3d1127d0	0.03543836
94	0x3d0bd425	0.034137864
95	0xbd0dc555	-0.03461202
96	0x3c9867b0	0.01860413
97	0xbca12aa1	-0.019673647
98	0x3d216a5d	0.039408077
99	0xbc86554d	-0.016398096
100	0x3d486c19	0.048931215
101	0xbd3e3a99	-0.0464426
102	0x3d6dda59	0.05806956
103	0xbd1364e9	-0.035984907
104	0xbd607bf8	-0.054805726
105	0xbd5ce42a	-0.05392853
106	0xbdc6ea17	-0.09712618
107	0x3d941482	0.07230474
108	0x3caaf5a7	0.02086909
109	0xbd725a2c	-0.059168026
110	0xbca9aff4	-0.020713784
111	0x3b736892	0.0037141186
112	0x3a9cc465	0.0011960386
113	0x3cce42b4	0.02517829
114	0xbd9f4812	-0.07777418
115	0xbb50ff82	-0.0031890576
116	0xbda07836	-0.078354284
117	0x3d11c41f	0.035587426
118	0x3d9a3cf3	0.075311564
119	0xbd9eee58	-0.07760304
120	0xbdb9dd75	-0.09075443
121	0xbc44fd16	-0.012023231
122	0x3c9937b8	0.018703327
123	0x3d94e660	0.07270503
124	0xbda00ce2	-0.07814957
125	0xbc6c41e3	-0.0144200055
126	0xbdf00ed1	-0.11721576
127	0xbde3b2d8	-0.11118096
128	0xbadc7e98	-0.0016822396
129	0xbdb00a47	-0.0859571
130	0x3dabefef	0.08395373
131	0xbc49575c	-0.0122888945
132	0x3dc6f043	0.09713795
133	0x3d978b92	0.07399668
134	0x3d54eff3	0.051986646
135	0xbcfaadd1	-0.03060046
136	0x3dd440cf	0.10363924
137	0xbd6a0459	-0.057133052
138	0xbc5f77d2	-0.013639407
139	0xbd81b472	-0.06333245
140	0x3d9756f0	0.07389629
141	0x3d847860	0.06468272
142	0xbd1bc23a	-0.038027026
143	0x3d1a19a6	0.037622117
144	0xbd45abec	-0.04825966
145	0xbd49fee3	-0.049315345
146	0x3d6da2a6	0.05801644
147	0x3d8f5af9	0.069997735
148	0xbd2f53d3	-0.04280455
149	0xbd227579	-0.039662812
150	0xbc9a95bc	-0.018870227
151	0xbd8b8951	-0.068133004
152	0xbdaec964	-0.08534506
153	0xbd0e783f	-0.034782644
154	0x3b2198e0	0.002465777
155	0x3cdf1f31	0.027236553
156	0xbdb822e9	-0.089910336
157	0x3c96815f	0.018372236
158	0xbb9adef7	-0.0047262865
159	0x3c813b80	0.015775442
160	0xbd3e31a7	-0.04643407
161	0x3d9ed61a	0.077556804
162	0x3c9a967c	0.018870585
163	0xbb3d1337	-0.0028850564
164	0xbc7ee04c	-0.015556406
165	0xbdbd08cd	-0.09230194
166	0xbc831b40	-0.016004205
167	0xbd6fe316	-0.058566175
168	0x3d97cab0	0.074117064
169	0x3d7c2401	0.061557774
170	0x3d9d908d	0.076935865
171	0xbc38cb66	-0.011278963
172	0x3d2d13cd	0.04225521
173	0xbdb8503b	-0.08999678
174	0x3d504032	0.05084247
175	0xbd19b986	-0.037530445
176	0x3db0286a	0.08601458
177	0x3ce70346	0.028199803
178	0x3d94f85e	0.07273935
179	0xbbb86b09	-0.005627994
180	0x3b4f4b41	0.0031630548
181	0x3c3f3a1b	0.011671568
182	0xbd93e19c	-0.07220766
183	0x3d18575a	0.03719268
184	0xbc3006f3	-0.010743844
185	0xbd336796	-0.04379996
186	0x3d018ae8	0.031626612
187	0xbd80a617	-0.06281679
188	0x3d0a01f6	0.033693276
189	0xbc164625	-0.009171997
190	0x3db5c075	0.08874599
191	0x3d6fbf6c	0.058532164
192	0x3d31ce71	0.04340977
193	0xbd88ef1f	-0.06686234
194	0x398930ed	0.0002616713
195	0xbd161462	-0.036640532
196	0xbd1e9e3c	-0.038725123
197	0xbca36b02	-0.019948486
198	0x3d796398	0.060885996
199	0xbb21b6f8	-0.0024675708
200	0xbc90c88e	-0.017673757
201	0x3c396127	0.011314667
202	0x3d79fcf5	0.061032254
203	0xbac0a264	-0.0014696834
204	0xbd4cce1d	-0.050001252
205	0xbaac6de8	-0.0013155313
206	0x3da26c9c	0.07930872
207	0xbdb69904	-0.08915904
208	0x3cd34b45	0.025792727
209	0x3d50f041	0.051010374
210	0x3c107b7c	0.0088185035
211	0x3dc175ae	0.09446274
212	0xbda242d3	-0.07922902
213	0x3ba50cbb	0.005036918
214	0xbd65aae6	-0.056071185
215	0xbd1428d6	-0.036171757
216	0x3c90fc99	0.017698573
217	0x3cbeb27d	0.02327847
218	0xbc038088	-0.00802625
219	0xbc3268a3	-0.010889205
220	0xbd9736f0	-0.07383525
221	0x3d35b521	0.04436219
222	0xbc16f84b	-0.009214471
223	0xbd9ff31a	-0.0781004
224	0x3d835ef6	0.06414597
225	0x3c076c28	0.008265533
226	0x3d801e4b	0.06255778
227	0x3d9e5f28	0.07732993
228	0x3dc01ac4	0.09380105
229	0x3d5b3a2d	0.053522278
230	0xbd6bc15e	-0.057557456
231	0xbb929086	-0.004472795
232	0xbdaf1cc4	-0.085504085
233	0x3bf78bd4	0.0075545106
234	0x3d36b175	0.04460283
235	0xbd894cb5	-0.06704084
236	0x3cedd2a0	0.029031098
237	0x3ccf306e	0.025291648
238	0x3a4ea200	0.0007882416
239	0x3cb36fa9	0.02190383
240	0xbcedb142	-0.029015187
241	0x3d91b1cb	0.071139894
242	0x3cc73a8e	0.024319913
243	0x3d2c1742	0.042014368
244	0x3d4ebe10	0.050474226
245	0xbdaa790e	-0.083238706
246	0xbda27d27	-0.07934027
247	0x3d350c67	0.04420128
248	0xbcb59d8f	-0.022169856
249	0x3d546083	0.051849853
250	0xbd4c3f0a	-0.049864806
251	0xbd2f2c5a	-0.042766906
252	0xbcd7d915	-0.02634863
253	0xbcb4e31f	-0.022080956
254	0x3d9d76e7	0.076886944
255	0xbd58e5e6	-0.052953623

actor.2.bias f4 [5]
0	0xbdd04ffd	-0.101715066
1	0x3da0f694	0.07859531
2	0xbb98c774	-0.0046624485
3	0x3b24c06f	0.0025139113
4	0x3cf15b25	0.029462406

critic.0.weight f4 [128, 128]
0	0x3df0e252	0.11761917
1	0x3c254f4d	0.010089708
2	0xbdc6e7a1	-0.097121485
3	0xbd402f09	-0.046919856
4	0xbc5f4978	-0.013628356
5	0x3c332c52	0.01093586
6	0xbcfd1157	-0.030892057
7	0x3cf5cb72	0.030004237
8	0xbdcbb40e	-0.09946452
9	0x3d49c919	0.049264047
10	0x3c92654e	0.017870571
11	0xbb9771d8	-0.0046217255
12	0x3cd4fc81	0.02599931
13	0x3a82757c	0.0009953226
14	0x3bd18126	0.0063935695
15	0x3d9b672c	0.07588038
16	0xbd7b2fad	-0.061324764
17	0xbdda68d1	-0.106645234
18	0x3c9e2008	0.019302383
19	0xbd2b6b4d	-0.041850377
20	0x3d85aa5b	0.06526633
21	0xbd8b62ff	-0.068059914
22	0x3d7345ba	0.05939267
23	0x3d9b62f4	0.07587233
24	0xbdf8f6fc	-0.121564835
25	0x3d589074	0.052872136
26	0x3d76b3d8	0.060230106
27	0xbdc0937c	-0.094031304
28	0xbd4dcc2d	-0.050243545
29	0xbcc1ff08	-0.023681179
30	0xbd322b36	-0.04349824
31	0x3bf905fe	0.0075995913
32	0x3cc9796f	0.024594037
33	0x3d4290a1	0.04750121
34	0x3c86f594	0.016474523
35	0xbd06cb52	-0.032908745
36	0x3b9ab6e7	0.0047215107
37	0xbd20c3c6	-0.039249204
38	0x3c850df2	0.016242001
39	0xbdc3462b	-0.09534868
40	0xbd22a16f	-0.039704736
41	0xbd9c1c91	-0.07622636
42	0x3d1df429	0.038562927
43	0xbd920c4a	-0.0713125
44	0xbc90a4cb	-0.017656704
45	0x3de83b07	0.113393836
46	0xbbed35d6	-0.0072390838
47	0xbbbcdf55	-0.005763928
48	0xbd8c8582	-0.06861402
49	0x3de8c3a1	0.11365438
50	0xbbf282d8	-0.0074008517
51	0x3c98c5eb	0.018649062
52	0x3d120f96	0.035659395
53	0x3daa38bb	0.08311602
54	0xbdd54306	-0.10413174
55	0x3cb130b8	0.021629676
56	0x3d3b8ad2	0.045786686
57	0xbda034f1	-0.07822598
58	0x3d869bb8	0.0657267
59	0x3d626322	0.05527032
60	0x3d8345e1	0.06409813
61	0xbce766fb	-0.028247347
62	0xbc91a633	-0.017779445
63	0xbdb37a20	-0.08763528
64	0xbddc3595	-0.107524075
65	0x3d3edcd5	0.04659732
66	0xbd196a5d	-0.03745495
67	0x3d4a3504	0.049366966
68	0x3e10b871	0.14132859
69	0xbd22c9ac	-0.03974311
70	0xbd2017b1	-0.039085094
71	0xbb21f2cd	-0.002471137
72	0xbcd6e322	-0.026231352
73	0xbc9723aa	-0.018449623
74	0xbd6ee175	-0.05832048
75	0xbd9c8cbe	-0.07644032
76	0x3d13f29e	0.03612005
77	0xbda60b5d	-0.08107636
78	0x3d59476c	0.05304663
79	0xbcc40a99	-0.023930835
80	0xbd60ce4c	-0.05488424
81	0x3c435b33	0.011923599
82	0xbbee64cf	-0.007275201
83	0xbdbb7398	-0.09152907
84	0x3d97f012	0.07418837
85	0x3dae6849	0.085159846
86	0x3d62dac2	0.055384405
87	0x3d36c724	0.04462351
88	0x3d004a03	0.031320583
89	0x3d9cd8b9	0.07658524
90	0xbd9144d3	-0.07093205
91	0x3b550f2a	0.003251026
92	0x3d4eff27	0.0505363
93	0xbd681694	-0.056662157
94	0x3d2e1ded	0.04250901
95	0x3d8a8924	0.06764439
96	0xbd0babb3	-0.034099292
97	0x3dcb9615	0.09940735
98	0x3ca7f5e2	0.020502988
99	0xbd81c0be	-0.06335591
100	0x3d862eb7	0.06551879
101	0xbd8863c1	-0.066596515
102	0xbd9f55d4	-0.07780042
103	0xbd6b58a0	-0.057457566
104	0xbc9842da	-0.018586565
105	0x3db71116	0.08938806
106	0x3da34b84	0.07973388
107	0x3d8cd99e	0.06877445
108	0x3cb50350	0.022096306
109	0xbcc1b6a5	-0.023646662
110	0x3b22d3d7	0.0024845505
111	0xbd9b08a5	-0.07570008
112	0xbd98fa7a	-0.074696496
113	0x3d806af1	0.062703975
114	0xbd1c0a95	-0.03809603
115	0x3d485cb0	0.04891652
116	0xbdd9d9a1	-0.106372125
117	0xbcb2d811	-0.021831544
118	0x3da810aa	0.082063034
119	0xbd1d32da	-0.038378574
120	0xbcd73756	-0.026271503
121	0xbd37e55e	-0.044896476
122	0x3c38a578	0.01126992
123	0xbd599dad	-0.053128887
124	0xbdc5888a	-0.096451834
125	0xbcde61f7	-0.027146323
126	0xbc55ced0	-0.013049796
127	0x3d973b31	0.07384337
128	0x3da0b197	0.078463726
129	0xbd60f53d	-0.054921377
130	0x3cae5b68	0.02128382
131	0x3d86bd87	0.06579118
132	0xbdb1eaa1	-0.0868733
133	0xbda97397	-0.08274
134	0x3cb44fdc	0.022010736
135	0xbd588512	-0.05286128
136	0x3c9060a4	0.017624207
137	0xbd77b112	-0.0604716
138	0xbd5e752a	-0.054310955
139	0xba73d100	-0.0009300858
140	0x3daedbf5	0.08538047
141	0xbda614ab	-0.08109411
142	0xbc8cf8ec	-0.017208539
143	0xbd8eb73e	-0.069685444
144	0xbbdb61a0	-0.0066949874
145	0xbd1dca64	-0.038523093
146	0x3c6fe780	0.014642596
147	0xbc101870	-0.008794889
148	0xbd8c467a	-0.0684938
149	0x3d364eda	0.044508792
150	0x3d3988fe	0.04529666
151	0xbd352b58	-0.04423079
152	0x3da88eeb	0.082303844
153	0xbdb2093e	-0.08693169
154	0xbc504d80	-0.01271379
155	0xbd87daf8	-0.06633562
156	0xba6e9500	-0.0009101182
157	0xbd013025	-0.031540055
158	0x3d5953e2	0.053058513
159	0x3d9572a5	0.07297257
160	0xbd2222cb	-0.039583962
161	0x3d3da422	0.046299107
162	0xbd15deeb	-0.036589544
163	0xbd2ca8b4	-0.042153075
164	0xbd308636	-0.043096744
165	0xbd78146b	-0.060566347
166	0xbba68230	-0.0050814375
167	0xbca857bc	-0.020549648
168	0xbd9be26a	-0.076115444
169	0x3d27bd76	0.04095217
170	0xbd820d63	-0.063502096
171	0x3ce1fe2c	0.027587019
172	0x3d83f18b	0.06442555
173	0x3daee0b5	0.08538953
174	0xbd57071d	-0.052497018
175	0xbc83f0b8	-0.016105995
176	0x3d97239b	0.07379838
177	0xbd3c6b06	-0.046000503
178	0xbd2a801c	-0.04162608
179	0xbc9c2dac	-0.019064747
180	0xbd6448fb	-0.055733662
181	0xbd548718	-0.051886648
182	0x3d82cfdb	0.063873015
183	0xbd8a9668	-0.06766969
184	0x3d680016	0.056640707
185	0xbc0a7db8	-0.008452825
186	0x3d4763da	0.04867921
187	0x3d1872be	0.0372188
188	0xbdae86de	-0.085218176
189	0xbd448e31	-0.047987167
190	0xbd356ea4	-0.04429497
191	0xbd1b7d1b	-0.037961107
192	0xbd649c60	-0.055813193
193	0xbd88840e	-0.066658124
194	0x3da3a85f	0.079910986
195	0x3c4332a8	0.011913933
196	0x3cd71ff8	0.026260361
197	0xbd13da11	-0.036096636
198	0xbd34391b	-0.043999773
199	0xbd6f1da6	-0.058377884
200	0x3d950927	0.07277136
201	0x3cb3e3e4	0.021959253
202	0xbd4a83b6	-0.049442016
203	0xbc8f30b4	-0.017479278
204	0x3d82daa9	0.06389362
205	0x3cacb9b0	0.021084636
206	0xbd5d523f	-0.054033514
207	0xbd9175ca	-0.071025446
208	0xbd88f2ab	-0.0668691
209	0x3daca027	0.08428984
210	0x3ce11084	0.027473696
211	0x3d920837	0.07130473
212	0x3d8617a5	0.065474786
213	0xbcd46916	-0.025929015
214	0xbcd02584	-0.025408514
215	0xbd46a6db	-0.04849897
216	0xbbb47ef0	-0.005508296
217	0xbd843ef4	-0.0645732
218	0xbcd862a2	-0.02641422
219	0xbd312ad0	-0.04325372
220	0xbd08a97d	-0.03336476
221	0xbc97b67c	-0.018519633
222	0xbd2fa2a5	-0.04287972
223	0x3d871d23	0.06597354
224	0xbd9f1af2	-0.07768811
225	0xbd9e5166	-0.07730369
226	0xbb519300	-0.0031978488
227	0xbc0c4c90	-0.008563176
228	0xbd0d25be	-0.034459822
229	0x3bfd2120	0.007724896
230	0xbd826738	-0.06367344
231	0xbd052cf7	-0.032513585
232	0x3ca9c8ec	0.02072569
233	0xbbad2fb0	-0.005285226
234	0x3cc8344c	0.024439
235	0xbd6cd312	-0.05781848
236	0xbca146bc	-0.01968705
237	0xbdb34a2a	-0.0875438
238	0x3cd41360	0.025888145
239	0x3d8eb3e1	0.06967903
240	0x3da2c9e1	0.079486616
241	0xbd3e44ff	-0.04645252
242	0xbc25a518	-0.010110162
243	0x3d6c434a	0.05768136
244	0xbce98d76	-0.028509837
245	0xbd027c2a	-0.031856693
246	0x3d83e7fb	0.06440731
247	0xbce79818	-0.028270766
248	0xbca31dec	-0.019911729
249	0xbd88f3ca	-0.06687124
250	0xbc8c7c38	-0.017149076
251	0xbd5697f7	-0.05239102
252	0x3d892d17	0.06698053
253	0x3d321d86	0.043485187
254	0x3c209bb0	0.009802744
255	0x3d094370	0.03351158

critic.0.bias f4 [128]
0	0xbdaf2e50	-0.08553755
1	0x3d0462bc	0.032320723
2	0x3e125a1d	0.14292188
3	0x3d8da86c	0.069168895
4	0xbdab9c05	-0.08379368
5	0xbcff05a2	-0.031130616
6	0x3d819584	0.06327346
7	0x3e1ef0ab	0.15521495
8	0x3df5c81d	0.12001059
9	0xbd57b842	-0.052665956
10	0xbd96ef95	-0.073699154
11	0x3dbb2440	0.091377735
12	0x3d3b4193	0.045716833
13	0x3e1e9b05	0.15488823
14	0x3d8b107f	0.06790256
15	0x3e0699a1	0.13144542
16	0x3db736e5	0.08946017
17	0xbdc04959	-0.0938899
18	0x3d94bdfc	0.07262799
19	0xbce950d9	-0.028480934
20	0x3d520ff7	0.051284757
21	0x3e353aa8	0.17698157
22	0x3ce656d7	0.02811758
23	0x3d79bcbd	0.06097101
24	0xbdcd9274	-0.10037699
25	0x3d5d0710	0.053961813
26	0xbd292d53	-0.04130299
27	0xbcac29af	-0.02101597
28	0xbd9efbfa	-0.077629045
29	0x3d97c0c6	0.074098155
30	0xbda18fbd	-0.07888744
31	0x3e095bc6	0.13413915
32	0x3e17c593	0.14821462
33	0xbe3384ca	-0.17531124
34	0x3ddffcc7	0.10936885
35	0x3c91cf98	0.017799184
36	0x3d46b033	0.04850788
37	0xbe1dfeb0	-0.15429187
38	0x3cb9709c	0.022636704
39	0xbddc90db	-0.107698165
40	0xbd183e6e	-0.037168913
41	0xbd50fc51	-0.051021878
42	0x3e29bd5f	0.16576146
43	0x3d926a3b	0.07149168
44	0x3d9d9137	0.07693713
45	0xbc96a092	-0.018387113
46	0xbda10c0d	-0.07863627
47	0xbe0ec1b3	-0.13941078
48	0xbd54c003	-0.05194093
49	0x3db4b46d	0.08823476
50	0xbd87afcd	-0.06625328
51	0x3e1ac635	0.15114672
52	0xbdf2220a	-0.11822899
53	0xbd4d9f8b	-0.05020098
54	0xbd43a40c	-0.04776387
55	0x3dff689f	0.12471127
56	0xbd3c8c20	-0.04603207
57	0x3d24471c	0.040106878
58	0x3ccfcf3c	0.025367372
59	0xbda672d4	-0.081273705
60	0xbcd4ce21	-0.025977196
61	0xbd155c2b	-0.03646485
62	0x3dd576dd	0.10423062
63	0xbdf403fa	-0.11914821
64	0xbdbf1bb2	-0.09331454
65	0xbd3eb60f	-0.046560343
66	0x3dad1114	0.08450523
67	0x3e3a807f	0.1821308
68	0x3e178826	0.1479803
69	0x3d15bbd0	0.036556065
70	0x3d8aa65a	0.0677001
71	0x3e102ea1	0.14080288
72	0x3cc61723	0.024180954
73	0x3e3432db	0.17597525
74	0x3c74e5e2	0.014947386
75	0xbd827251	-0.063694604
76	0x3d9eb6be	0.07749699
77	0x3e113454	0.14180118
78	0xbd8aa52a	-0.06769784
79	0x3d844c25	0.06459836
80	0x3c01673d	0.007898149
81	0xbd82526b	-0.06363376
82	0x3d98bec3	0.0745826
83	0x3dfc6784	0.123244315
84	0xbadd5d08	-0.0016888687
85	0x3d9b9dce	0.07598458
86	0x391e5fc3	0.00015103728
87	0x3e2ae124	0.16687447
88	0x3da2f8a0	0.07957578
89	0x3dd5051e	0.10401367
90	0x3d5f4056	0.054504715
91	0x3e1b05b3	0.15138893
92	0x3e0f817f	0.14014243
93	0xbcf92749	-0.03041424
94	0x3d39d4e0	0.04536903
95	0x3d932a45	0.07185797
96	0xbd40c3ce	-0.047061734
97	0x3e3f0aa6	0.18656406
98	0x3d1ac0d2	0.037781544
99	0x3e05f314	0.13081008
100	0x3d53c71a	0.05170355
101	0x3de357d7	0.111007385
102	0x3e1dd83d	0.1541452
103	0x3d65ed32	0.05613441
104	0x3d89940a	0.06717689
105	0x3d853122	0.06503512
106	0x3e545e17	0.20739017
107	0x3c2c50f0	0.010517344
108	0xbe3abe3d	-0.18236633
109	0x3e030213	0.1279376
110	0xbd95fea7	-0.07323962
111	0xbaedd3a0	-0.0018144734
112	0xbe40d644	-0.18831736
113	0x3cf88d65	0.03034086
114	0xbe166574	-0.14687139
115	0xbe571bae	-0.21006653
116	0x3c87eb7e	0.016591784
117	0x3df6ad9a	0.120448306
118	0x3e22a4c5	0.15883167
119	0x3d90c55a	0.07068892
120	0xbdb55627	-0.08854323
121	0x3e410844	0.1885081
122	0x3e0a02ca	0.13477626
123	0xbe25fe70	-0.16210341
124	0xbcecbbd3	-0.028898155
125	0x3d6e422c	0.058168575
126	0xbd4791da	-0.04872308
127	0x3e39b06a	0.18133703

critic.2.weight f4 [1, 128]
0	0xbce36db5	-0.027762273
1	0xbcd121cc	-0.02552881
2	0x3e25d5f6	0.16194901
3	0x3df825ad	0.12116561
4	0xbd18a7c1	-0.037269358
5	0xbd61e221	-0.055147294
6	0xbd275d3e	-0.040860407
7	0x3dd09805	0.101852454
8	0x3d750df4	0.05982776
9	0xbd9c2a93	-0.07625308
10	0x3d5e0495	0.05420359
11	0x3dfb3eeb	0.1226786
12	0xbc991f7d	-0.018691773
13	0x3d6cda12	0.057825156
14	0x3d2fec74	0.04295011
15	0x3dbed3db	0.09317752
16	0x3da2f06a	0.079560116
17	0xbe19c4b8	-0.15016448
18	0x3d97e493	0.07416644
19	0xbd74aa22	-0.059732564
20	0x3df20be8	0.11818677
21	0x3d8e2a4e	0.06941663
22	0x3d73dccb	0.059536736
23	0xbbdda7b7	-0.006764378
24	0xbd9f130c	-0.07767305
25	0xbda566c2	-0.0807624
26	0xbd9685fe	-0.07349776
27	0xbbf4ea4e	-0.0074742204
28	0xbd86d2e1	-0.06583191
29	0x3d898070	0.06713951
30	0xbde180dc	-0.11010906
31	0x3e13bcea	0.14427534
32	0x3dd1f0dc	0.102510184
33	0xbdd6320e	-0.10458766
34	0x3d2a0333	0.041506957
35	0xbd84f541	-0.06492091
36	0x3dfa1a1d	0.12212012
37	0xbdd10344	-0.10205701
38	0xbdbd4fd7	-0.09243744
39	0xbd8b825b	-0.06811973
40	0xbd8ca704	-0.06867793
41	0xbd38f6b8	-0.045157164
42	0x3d9f74bd	0.07785938
43	0x3de0489a	0.10951348
44	0x3dc6533f	0.09683847
45	0x3b0fc145	0.0021935266
46	0xbdf8b302	-0.12143518
47	0xbddcb5e7	-0.107768826
48	0x3c9d297d	0.019184822
49	0x3dc30365	0.09522132
50	0xbe0b1179	-0.13580884
51	0x3e10c3c2	0.14137176
52	0xbda28784	-0.07936004
53	0xbd0d214a	-0.034455575
54	0xbdab7720	-0.08372331
55	0x3db2259a	0.08698578
56	0xbe3194c8	-0.17341912
57	0xbda9a451	-0.08283294
58	0xbd40cbba	-0.04706929
59	0xbdeb723c	-0.11496398
60	0xbd71f659	-0.059072826
61	0xbe0792ea	-0.13239637
62	0x3d893e7d	0.06701372
63	0xbdf1c00d	-0.11804209
64	0xbd4729b5	-0.04862376
65	0xbdb028cb	-0.08601531
66	0x3d202e3d	0.039106596
67	0x3d6d5cd9	0.057949875
68	0x3dfd12f2	0.12357129
69	0x3dd5c49f	0.10437893
70	0x3d87b24b	0.066258036
71	0x3d9f25f7	0.07770913
72	0xbb37102f	-0.002793323
73	0x3e04af5e	0.12957522
74	0xbca69f62	-0.020339672
75	0xbc7f596c	-0.015585285
76	0x3de7ad83	0.113123916
77	0x3e1c4e5d	0.15264268
78	0xbdd9d6da	-0.10636683
79	0xbd8cf381	-0.06882382
80	0xbcf4f295	-0.029900828
81	0xbd5c7919	-0.053826425
82	0x3df4784f	0.119370095
83	0x3e08a6ff	0.13344954
84	0xbd240ba5	-0.040050168
85	0x3d8408d3	0.064469956
86	0xba05b308	-0.0005100225
87	0x3ddb3052	0.10702576
88	0x3e0bf6f0	0.13668418
89	0x3e0609d5	0.13089688
90	0x3dd927f6	0.10603325
91	0x3d8945bf	0.06702756
92	0x3da7a78a	0.081862524
93	0xbd170648	-0.036871225
94	0xbc0b6e7d	-0.008510229
95	0x3da3a541	0.07990504
96	0xbdc0291e	-0.093828425
97	0x3dd59442	0.104286686
98	0x3e0b4526	0.13600597
99	0x3e1ed138	0.15509498
100	0x3a3ca64b	0.00071964104
101	0x3d8da41d	0.06916068
102	0x3de1b809	0.1102143
103	0x3d3aca16	0.04560288
104	0x3e16b624	0.14717919
105	0x3e0c8173	0.13721256
106	0x3da8fdfd	0.082515694
107	0xbbaea935	-0.0053302296
108	0xbdf7215e	-0.12066911
109	0x3d62c9d3	0.055368256
110	0xbc094e1b	-0.008380438
111	0xbd79f6d6	-0.061026417
112	0xbdf4464a	-0.11927469
113	0x3da5b2ef	0.080907695
114	0xbe0b0aa7	-0.13578282
115	0xbdf38a4b	-0.11891612
116	0xbd067d47	-0.032834318
117	0x3d9b2405	0.075752296
118	0x3db00eaa	0.08596547
119	0x3e11b124	0.1422773
120	0xbe027d8e	-0.12743208
121	0x3d41bc67	0.047298815
122	0x3d519127	0.05116382
123	0xbdcf9830	-0.10136449
124	0xbd63bbfb	-0.055599194
125	0xbd9c40f7	-0.076295786
126	0xbdd1b1b6	-0.10238974
127	0x3de20e5b	0.11037894
