models/dqn/Monopoly/dqn_monopoly_model_final.pth (torch, 77746 bytes, 6 tensors)

net.0.weight f4 [128, 10]
00000000: 2aa5 8dbe 432a 763a 60dd 21c0 6df4 3640
00000010: 8097 513b 1c1f 043e c2a7 69be 2ed8 b1bd
00000020: bca9 ce3d 79c1 9ebe f9ab 723d 1f94 97bb
00000030: 8814 39bf 1b50 13bf 8039 e03d c305 21be
00000040: 426d 53be 58c4 063e 01fc 983e f5ec 0bbe
00000050: 6053 00bf f63d 73ba 5e47 2dbd 2124 a9be
00000060: e20d 433e fc78 e93d ac5b 183e a614 5fbe
00000070: 80c2 14be 65ba 27be f136 8a3f 9c36 82bd
00000080: 8b5b 8fbf f3da f0bd 2f94 8c3e f48e e8bd
00000090: c058 1f3d a794 15be 2bf7 5cbe f032 ac3d
000000a0: e9bb 883e ae58 eebd 7be0 903e 20d6 363e
000000b0: a6d0 473e 301f ab3d 380a 70be f8b5 02bd
000000c0: cd6c 853e 94fe 8f3d c29e e63e fd57 54bd
000000d0: 52c8 10c0 0748 be3e 167e 763e 2917 25be
000000e0: 7c15 843d 7f00 9f3e c6ee 91be 9f86 a13e
000000f0: 88e1 12bf 9823 10ba b3d8 aabe 6177 19be
00000100: 50a4 3f3d 9028 92be 203d 7bbc ca38 723e
00000110: 5262 a0be c3f9 8b3e 1a2d d8bd c82e 54be
00000120: f592 5bbe d2d6 1b3e f0e3 643d 200b cd3d
00000130: eea3 733e a0c7 94be d810 2f3e b0de f13c
00000140: e856 563d 4c33 83be f3d8 963e 115b 853e
00000150: d2d4 713e d27f 573e 5028 123d 88eb 6abe
00000160: 3029 3fbd a659 a0be b852 1a3e c882 97bd
00000170: 72f2 debd a423 81be 67c7 99be acbc 94be
00000180: 3052 393d f14e 62be 9687 563e c072 2abc
00000190: cdba b43d 3d75 91bb 70df 3abf c65a 013f
000001a0: dd18 9dbe 48c1 87be 70c5 fe3c 8053 1abc
000001b0: 3b4a 933e aad7 443e 260c 7e3e 5880 28bd
000001c0: d483 4ebe 866e 3f3e f147 a1be 8025 2c3e
000001d0: 2205 6fbe 04fb 9dbe a68e edbd 456e 823e
000001e0: 80c7 a63b 90ac 8ebc 6172 843e 87be 963e
000001f0: 12b7 10be 52cb 6c3e 1986 81be 7a9f 79be
00000200: 6083 9bbd f09b 923c e7e5 933f e43b 23bb
00000210: 9706 18c0 b8eb 5d40 6fcc 8bbe 7375 9c3e
00000220: 08c0 74bd 702d 81bc 10ad 253e 5010 9b3c
00000230: 4c3e 60be 002b 43be f2d3 033e a00b 943d
00000240: d011 77bd 8921 a03e a64c 0b3e a056 383c
00000250: 5989 983e 6295 593e 93a8 c83e 6853 07bd
00000260: 3b36 683e 621d 16bd d44c bc3d 3031 ce3c
00000270: 2395 05be 547f 99bd 1a4b 22be de20 b7bd
00000280: cb12 843f b4d5 7abd d60b 2cbd 48bf 8abe
00000290: f271 d5bd ba69 12be 2be7 9b3e b6fe 543e
000002a0: e1e6 963e 4cb2 2b3e 28eb 8e3c 9419 13bb
000002b0: 08e2 08c0 993d fd3f e7be 9fbe d8af 333d
000002c0: 454e 8abe c501 8d3e 1225 9fbe aa56 0c3e
000002d0: c48b 3a3f ce35 3bbd 6d36 a93e 64d0 903f
000002e0: da8e 96bd 76ac 1cbe 00c2 87be 4027 e8bb
000002f0: 0a8f 7d3e a3f7 3bbe 7048 2c3e 1d4b 81bc
00000300: 4fda 5c3f 335a 723e 2072 c13d 415b a13e
00000310: f0e5 333d f4ac e63d 1aa6 cfbd 59ec 803e
00000320: 2957 d2be 678f 08ba c8e6 db3c 0785 a03e
00000330: a4d7 953d ae65 89be 4764 8e3e d2dd 00be
00000340: c66c 1bbe 37e2 8abe 881b 13be f4fe 01ba
00000350: 249d 70bc 188a 79be 400d 4b3c c1de 823e
00000360: ad88 8e3e 3ae9 573e c0db e5bc d0c2 10be
00000370: 79cb 5b3f 3017 65bd 6de2 c9be 469d 1d3e
00000380: 4822 08bd fe91 283e dcd2 da3d a814 77be
00000390: 583d 94be c0be 833c 38e3 7e3d 94ad 6bbe
000003a0: 568a 603e 6240 5b3e dd5d 3bbe fcb3 d9bd
000003b0: a859 92bd ec6d 58be 82a8 603e 4695 aabd
000003c0: 39e5 30bf 6b92 97b9 b4ac 25be e6a6 063e
000003d0: c65c 01be f062 bdbd 4e8e 9cbe b271 9abe
000003e0: d781 7ebe f189 96be 2c8a 093f 9f42 0cbd
000003f0: 8ed4 2ec0 061f 5540 a939 3cbe 3845 503d
-0.27665073 0.0009390453 -2.5291367 2.8586686 0.003198117 0.12902492 -0.22817901 -0.08683811
0.10090968 -0.31006983 0.059246037 -0.0046258117 -0.72296953 -0.57544106 0.10948467 -0.15724854
-0.20647147 0.13160837 0.29879764 -0.1366461 -0.5012722 -0.0009278947 -0.04230439 -0.33035377
0.19048265 0.11400029 0.1487872 -0.2178522 -0.14527321 -0.16379698 1.0798017 -0.06358072
-1.1199812 -0.11760511 0.27456805 -0.11355391 0.038902998 -0.14607488 -0.21578662 0.08408153
0.26705864 -0.11638008 0.28296265 0.1785512 0.19513187 0.08355558 -0.23441398 -0.03191182
0.2605957 0.07030979 0.45042998 -0.051841725 -2.2622266 0.37164328 0.24071535 -0.16122116
0.0644941 0.31055066 -0.28502482 0.3154802 -0.57375383 -0.0005498468 -0.33368453 -0.14986946
0.04678756 -0.28546572 -0.015334398 0.23654476 -0.31325012 0.2733899 -0.105554774 -0.2072097
-0.21442778 0.15218666 0.05588144 0.100118876 0.23793003 -0.29058552 0.17096269 0.029525131
0.052328974 -0.25625074 0.29462394 0.2604604 0.23616341 0.21044853 0.035682976 -0.2294141
-0.04667014 -0.31318396 0.15070617 -0.073979914 -0.108860865 -0.25222504 -0.30034944 -0.29050195
0.045244396 -0.22100426 0.2095016 -0.010403335 0.08824692 -0.0044390247 -0.7299719 0.50529134
-0.30683032 -0.2651465 0.031100005 -0.009419322 0.2876757 0.19222894 0.24809322 -0.041138023
-0.20167476 0.18694505 -0.315002 0.1681118 -0.23341802 -0.30855572 -0.11599474 0.25474754
0.0050897 -0.017416269 0.25868514 0.29442236 -0.14132336 0.23124436 -0.2529762 -0.24377242
-0.07593417 0.017896622 1.1554536 -0.0024907524 -2.3754022 3.4675121 -0.27304408 0.30558357
-0.059753448 -0.015768737 0.161793 0.018928677 -0.21898764 -0.19059372 0.1287382 0.0722878
-0.06031972 0.31275585 0.13603458 0.011251122 0.29792288 0.21248391 0.39191112 -0.033038527
0.22676937 -0.036649115 0.09194341 0.025169939 -0.13045172 -0.07494989 -0.15848961 -0.08941816
1.0318235 -0.06123896 -0.042003475 -0.2709906 -0.10422124 -0.14298144 0.30449805 0.2080029
0.29473022 0.16767234 0.017446116 -0.0022445666 -2.1387959 1.9784423 -0.31200334 0.04386887
-0.2701284 0.27540413 -0.3108297 0.13704935 0.72869515 -0.04570561 0.33049336 1.1313596
-0.073514655 -0.15300164 -0.26515198 -0.007084757 0.24761596 -0.18356185 0.16824508 -0.015782887
0.8627061 0.23667221 0.09445596 0.31514934 0.043920457 0.11263457 -0.10139103 0.2518032
-0.41082123 -0.0005209357 0.026843444 0.31351492 0.07316521 -0.26835388 0.2781088 -0.12584618
-0.15178213 -0.27125713 -0.14365971 -0.00049589504 -0.014685903 -0.24369085 0.012393296 0.25560573
0.2783865 0.21085063 -0.028058887 -0.14136815 0.8585735 -0.055930316 -0.39430562 0.15392026
-0.03323582 0.16461942 0.106847495 -0.24128973 -0.28953052 0.016082168 0.06222841 -0.23015434
0.21927771 0.21411279 -0.18297525 -0.106300324 -0.07146007 -0.21135682 0.2193928 -0.08329253
-0.69099766 -0.00028910054 -0.16179162 0.13149604 -0.12633047 -0.092473865 -0.3057732 -0.30164868
-0.24854217 -0.29402116 0.5372646 -0.034243222 -2.7317233 3.3300185 -0.1838137 0.050847262

net.0.bias f4 [128]
00000000: 1de9 1241 501f 1fbf 6718 cabe e2eb fe3f
00000010: 2469 383e e1aa 4340 19f7 1cbe 50cb ae3c
00000020: f23e cdbd 33e2 82be 9aff 053f 00e4 1a3a
00000030: 88e2 7cbe c1ba 0041 3629 36be 543a 543e
00000040: 3a28 603f bb4a 1041 870f 483f b789 043f
00000050: 5470 d9be bff0 19be a63f 9c3f 1880 bf3d
00000060: 1423 d0be 4379 9840 f27b 5b3e d8d4 f2bd
00000070: c0dc 7d3c 5b38 273f 63c6 2c3f d386 0e41
00000080: 6233 7cbe 0a4d 0841 007a a4bb d3d5 12bf
00000090: 16ec 163e 4808 6fbd b259 633e 6113 303f
000000a0: 6405 0d41 a714 96be 5f9a a13e 35c1 693e
000000b0: 482d 2d3e ee82 cebd 5792 e040 1be0 8b3e
000000c0: e8a5 a5bd 1827 1c3d 3f4d 0441 2cf5 01bf
000000d0: 20a5 14bc 7b3a 0940 10e5 9cbe d34c 943e
000000e0: 445d 0541 5054 a540 a02b 723d 3728 0740
000000f0: 866e 49bf 3e9b fabd 153a 18be 3b73 703e
00000100: 006e 5dbc 086f 933d 148f 8a3f bdc4 5abe
00000110: 0013 6e3b 7629 27be b293 073e 8acd 663e
00000120: 3176 913e a559 9fbe d3f9 16bf 20fb 64bc
00000130: b84f 863f 86ed 07bf 98e1 0641 e39f 923e
00000140: 683e 0a41 d107 f73e 1dbf 0641 f744 4b3f
00000150: 205f 47bd 1c9e a53f 56e8 47be 76aa c3bd
00000160: 1d1d 273e f89a 983d 6086 cebd 749b a0be
00000170: c184 83be 26d8 493e 9659 0a3e 3951 01be
00000180: 28bd 10be 669f 4c3e 875a 61be c0ff 843c
00000190: 20f0 3fbf 624e dd3e 5e3a 643f a73a 5dbd
000001a0: e14c 523e b244 2140 4002 4440 795c 0540
000001b0: 89d6 0841 b4a3 783e b53d d4be 1afc 6c3e
000001c0: a43f 27be 6d90 9d3e 9a5f b240 1a60 57be
000001d0: ee38 44be 9bcf 993e 3885 e9bd d4f9 113e
000001e0: 9859 813d 39f4 5abe 9ec3 713e 0e45 9dbd
000001f0: f4d0 be3f 3de5 993e bc7a 1441 654e 0541
9.181912 -0.62157154 -0.39471743 1.9915736 0.18008858 3.0573046 -0.15328635 0.021337181
-0.100217715 -0.255632 0.5234314 0.00059086084 -0.2469579 8.045594 -0.17789158 0.20725375
0.8756138 9.018245 0.7814869 0.51772636 -0.42468512 -0.15033244 1.2206924 0.09350604
-0.40651762 4.7648025 0.21434 -0.11857003 0.015494525 0.65320367 0.67490214 8.907916
-0.24628976 8.518808 -0.0050194263 -0.5735752 0.14738497 -0.058357507 0.22202185 0.6877957
8.813816 -0.2931263 0.31563088 0.22827609 0.16911805 -0.100835666 7.0178638 0.27319416
-0.08088285 0.03812322 8.268859 -0.5076473 -0.009072572 2.1441944 -0.3064351 0.28964862
8.33527 5.166542 0.059123635 2.1118295 -0.7868427 -0.12236641 -0.14865907 0.23481457
-0.013514996 0.07198912 1.0824914 -0.21364112 0.0036327243 -0.1632441 0.13239935 0.22539344
0.28410485 -0.3112308 -0.5897495 -0.0139758885 1.0493078 -0.53096807 8.430077 0.2863761
8.640236 0.4824815 8.4216585 0.79402107 -0.048674703 1.2938876 -0.19522223 -0.09553997
0.163197 0.07451433 -0.10084224 -0.313686 -0.2568722 0.1971136 0.13510737 -0.1262864
-0.14134657 0.1998268 -0.2200719 0.016235232 -0.74975777 0.43223864 0.8915156 -0.054011013
0.2053714 2.5198178 3.0626373 2.083769 8.552377 0.24281198 -0.4145333 0.23143044
-0.1633287 0.3077425 5.57417 -0.21032754 -0.19162342 0.30041203 -0.114023626 0.14255458
0.06315917 -0.21382226 0.23609778 -0.07679187 1.4907517 0.30057707 9.279964 8.331639

net.2.weight f4 [128, 128]
00000000: f227 9cbd ab00 6fbd 5498 8c3d 29db 88bd
00000010: 1f50 9c3d 7c24 d1bc 8d83 233d d037 e73b
00000020: 9e68 383d 1389 ae3d d2c8 d9bc 37b8 aabd
00000030: 1009 a7bb d95e 0dbb 603b 78bb 7825 473c
00000040: ffab b3bd 43cf 8fbc f1df 573c 30d1 00bc
00000050: e016 fdbc 1340 943d e8ec e73b 1fe0 26bd
00000060: 422e a33c 0ec9 c4ba fe7b 63bd ecf3 0a3d
00000070: 6cfc 77bd b3bc 16bc 0bf0 97bd d919 8fbd
00000080: b9cb afbd 043e 1dbd 7c2b 9c3c 5d5a 5abd
00000090: f8d7 5f3c cf62 9c3d 20bd b73b 08a7 a7bd
000000a0: cb08 04bd 80b3 a5bd 08cf 36bd 6287 723d
000000b0: 0064 863b 19fc 5b3d 2886 f3bc bcab 57bd
000000c0: 7406 d23c 40ec 81bc 4d71 663d 9dae 2e3d
000000d0: 39c9 b33d ccbe 0b3c 7b6e 9f3d d3d5 a13d
000000e0: 4bad f7bc 6e6d b6bd ba01 793d 5d37 3c3c
000000f0: 1f9a 0e3d e855 a23c 084f 21bc cc5c 92bd
00000100: a857 2bbd 7a1f 6cbd 6ae6 543c bb60 233d
00000110: 1c15 c83c 5b1d 57bd e204 b3bd 85db 2dbd
00000120: f0a0 39bc 5a37 8bbd ede0 223c 24d4 48bd
00000130: fcfd 09bd 7d41 99bb ba7a 423d 1ffa a53d
00000140: 31a7 db3c 6cdc d43b 7e66 6c3d 8840 cebc
00000150: 1514 b33d 6924 98bd e84c 243c aa86 38bd
00000160: 5b12 0b3d 2497 df3c c0d3 fd3b f3c9 86bd
00000170: 893a aa3d d42c 2cbd 64b9 0cbd eec5 083d
00000180: 3ada a4bd 02b3 453d 22bc 583d 698b 90bd
00000190: 184d 7e3d 0144 8e3d 5721 e33c 3c99 2cbc
000001a0: 781f 603c b67a b9bd ce3d e1b7 cd51 903c
000001b0: 5b6a 14bd ac4f 083d 2a7a a23c 0da9 a43d
000001c0: 87d3 9437 3248 5ebd 0356 463d 32e3 58bd
000001d0: a2fb 81bd 60ad dd3b c893 edbc 2c8a 383d
000001e0: e896 58bd c7a8 b4bd b02b 78bd 408b ad3c
000001f0: e7bf 74bd ffa9 923d cc52 e13c 649d 2ebd
00000200: dd55 963d f987 1ebd e262 1b3d 3595 9a3d
00000210: 2e97 403d 5cd4 25bd 1793 843d e300 853d
00000220: 08c5 4d3c 3e8d 5dbd 0b97 57bd f0f8 da3b
00000230: b088 cebb 00dd 5dba 80c3 2aba 2c34 e3bc
00000240: a6aa 3b3d bfd1 95bd b971 9d3d 027d 773d
00000250: 10a3 253c cdd3 833d 8e53 94bd 569a 7bbd
00000260: 8c4c c63c d7b3 97bd f4ec a4bd 5a63 02bd
00000270: 2601 023d cfe0 943d 10da 093d df95 1cbd
00000280: 50d1 ffbc 2879 a3bd bf24 973d 0d0d 0abd
00000290: 577a 4ebd 3b53 26bd 7706 a5bd 883b 91bd
000002a0: d852 0f3d 3808 a53c ec35 1dbd 9353 853d
000002b0: 0331 02bd a6f6 02bd 3c9e bb3c 92be 75bd
000002c0: 8de1 9b3d d02b b1bc 7df3 11bd 60f2 ba3c
000002d0: 13c9 58bd 21f9 38bd a5c4 823d c8cb f83c
000002e0: bc87 5cbd 9078 043d 4980 9a3d 84bc 88bd
000002f0: 70e4 82bb 86cc 84bd a453 b0bd 8960 1dbd
00000300: 0092 76bc f67a f2bc 6e37 4a3d 7053 2fbc
00000310: 6ae8 62bd 4ef9 45bd 46e6 573d 38ac edbc
00000320: 5968 853d 9450 9fbd 587f 53bd 8012 1dbc
00000330: eb69 4dbd ecdf a2bc 22af 43bd dbb1 8d3d
00000340: 9625 a5bd 7648 413d 1620 2b3d 363d 623d
00000350: 78cd bfbc fc39 3fbd 59e5 a6bd c01c 8ebb
00000360: 2e69 413d 638d b3bd d148 a03d a037 e7bb
00000370: d57c a0bd b0db 263c 1ad6 8bbd e65a 06bd
00000380: 8cf1 d63c 9636 8ebd d028 a53c 2beb af3d
00000390: 3766 a6bd 40ad d7ba 8435 0c3d 2a9c 0a3d
000003a0: 16cb 91bd c4c8 b23c f629 afbd 00fb c6bb
000003b0: 683c 6bbc f8cf a73c babe 42bd d0c9 ebbb
000003c0: 502b 02bd 32f6 323d a7d3 8f3d 7bf6 883d
000003d0: 1ff2 45bd 56c8 613d 4a05 debc f8b5 9bbc
000003e0: dfbb 94bd 1092 b7bb 78ec 5b3c 7d86 a93d
000003f0: 104e e93b f249 2e3d aea4 303d b2ad 94bd
-0.076248065 -0.058350246 0.06864992 -0.066824265 0.076324694 -0.025530092 0.03992038 0.007056214
0.045021646 0.085222386 -0.026585016 -0.083359174 -0.005097516 -0.0021571426 -0.0037877187 0.012154929
-0.0877304 -0.017554885 0.01317595 -0.007862374 -0.030894697 0.07238784 0.007077802 -0.040741082
0.019919518 -0.0015013532 -0.05553817 0.03392403 -0.060543463 -0.009200263 -0.074188314 -0.06987352
-0.08583779 -0.03838922 0.019063704 -0.053308833 0.013662331 0.07636034 0.0056072623 -0.081861556
-0.032234948 -0.080908775 -0.044631034 0.059211142 0.0041012764 0.053707216 -0.029727057 -0.052654013
0.025637843 -0.015859723 0.056260396 0.042646993 0.087786146 0.008529376 0.07784744 0.07902112
-0.030234 -0.08907591 0.060792662 0.011487809 0.03481495 0.019816354 -0.009845503 -0.07146606
-0.041831642 -0.057647206 0.012994388 0.03988717 0.024424128 -0.05251823 -0.08741166 -0.04244568
-0.011329874 -0.06797667 0.009941322 -0.049030438 -0.033689484 -0.0046769963 0.047480322 0.081043474
0.026813122 0.006496003 0.05771493 -0.025177255 0.08744065 -0.0742882 0.0100281015 -0.0450503
0.033953052 0.02729375 0.00774619 -0.065814875 0.08311946 -0.04203494 -0.03435649 0.033391885
-0.08049436 0.04826642 0.052913792 -0.070578404 0.06208524 0.069465645 0.027725859 -0.010534581
0.013679378 -0.090566084 -2.685087e-05 0.01761713 -0.03623424 0.033279106 0.019833643 0.080400564
1.7741475e-05 -0.05426807 0.04842187 -0.052951045 -0.06346823 0.0067650527 -0.029001132 0.045053646
-0.05287829 -0.08821254 -0.06058854 0.021184564 -0.059753325 0.071613304 0.027505301 -0.04263057
0.07340596 -0.038703892 0.0379361 0.0754799 0.047019176 -0.040485725 0.06473368 0.0649431
0.012559183 -0.054089777 -0.05263428 0.0066825077 -0.0063029155 -0.00084634125 -0.0006514117 -0.027734838
0.04581704 -0.073153965 0.076877065 0.06042195 0.010109678 0.06436882 -0.07242499 -0.061426483
0.024206422 -0.074073486 -0.08053008 -0.03183303 0.031739376 0.07269441 0.033655226 -0.038228866
-0.031227738 -0.07982093 0.07380056 -0.033703852 -0.05040964 -0.04060672 -0.08057874 -0.07091433
0.034991115 0.02014552 -0.038381502 0.06510081 -0.031785022 -0.031973504 0.0229026 -0.059996195
0.0761138 -0.021627337 -0.0356326 0.022820652 -0.052926134 -0.045159463 0.06385163 0.030370608
-0.053840384 0.03234154 0.07544 -0.066765815 -0.003994517 -0.06484322 -0.08609703 -0.03842214
-0.015049458 -0.029599648 0.049369268 -0.010701045 -0.05539743 -0.04833346 0.05270984 -0.029012784
0.06514043 -0.07779041 -0.051635116 -0.00958693 -0.05014984 -0.019882165 -0.04777444 0.06918689
-0.080638096 0.047188245 0.041778646 0.055234157 -0.023413405 -0.046686158 -0.08149213 -0.0043369234
0.047219448 -0.08767202 0.078263886 -0.0070561916 -0.0783631 0.0101842135 -0.06827946 -0.03280153
0.026238225 -0.06944005 0.020161062 0.085897766 -0.08124965 -0.0016454831 0.034230724 0.033840336
-0.07118814 0.021824248 -0.08552925 -0.006072402 -0.014357664 0.02048491 -0.047545172 -0.007195689
-0.031779587 0.04369182 0.07022791 0.066876374 -0.048326608 0.055122696 -0.027102131 -0.019007668
-0.07262396 -0.005602129 0.013423078 0.08277605 0.0071199015 0.04255099 0.0431258 -0.07259692

net.2.bias f4 [128]
00000000: f9ea 953d 05cc 83bd 353e 7ebd a29a 0abe
00000010: bd62 87bd 590b 3c3d 9e1b ae3c b09d b9bc
00000020: 9375 edbd 71f0 43bd 6020 673d 6362 94bd
00000030: 5dc6 273f ae4c 98bc 827a d4bd fbfd fabb
00000040: 43d6 ca3b 3c18 2e3c 2da5 1dbc e030 eb3e
00000050: 0236 96bd f746 4abd 1932 cbbf 31a8 e83a
00000060: c093 673e ba49 49bd d7d9 a4bd e3a9 cf3d
00000070: 7638 ee3c e417 acbc d24c 37bd 5acb 97bd
00000080: 9290 cfbc 2245 08bd ce49 72bd 4b7a 8dbd
00000090: f558 a4bd 24cc 95bd 9611 933d f627 693d
000000a0: 2b65 943e 1b8d 323d 4ba8 adbd 6f46 0a41
000000b0: d71c f1bd 0a9b db3a ed5b 84bd 400a eb3b
000000c0: f091 1d40 9f30 6ebd 86fa 9cbd d313 88bd
000000d0: a90d 17bd 204c 69bb 7de7 04be 279d 0dbd
000000e0: 0534 2d3f 65d4 6fbd 80f8 eb3b 5822 43bd
000000f0: bfaa 393d 9e06 93bd 07d2 91bd 22a7 21bd
00000100: 4e85 903d 8aa3 213d 18b6 9abc ed3b e0bd
00000110: c86a dcbd 7731 913d fd5a a9ba 0879 b43c
00000120: a2a2 5c3d 83e8 a1bc 5eb0 cc3c 90eb 4a3e
00000130: 520c a5bd fc98 abbd c766 2dbd 1eca 53bd
00000140: 3c82 0d41 a519 a73e fd1a 973d ff69 b23a
00000150: 1365 843d 1552 2fbd 7e80 21bc b438 38bc
00000160: 75c1 bfbd 7a50 093f 9614 c6bd 836e 803d
00000170: 74d1 833c efed d7bd 2582 d1bc 3e5d b1bd
00000180: db45 35bd 21f4 4abd 0521 203d bc77 f5bd
00000190: 1ecc b03c 1bf7 0c41 ff9d 1cbd 33e4 09bd
000001a0: c02d 15be aa0f debd dfea 6ebd 897a f2bd
000001b0: 0352 4abd 1797 12bd 2fff a5bd 89e8 cc3c
000001c0: 677f 1cbd 34a3 eabd e004 eebd 837d 4dbd
000001d0: cc62 3a3d f004 47bc 7181 8abd b6d5 993c
000001e0: d460 923d 5f37 99bd 857b 5abd b695 ae3c
000001f0: c558 8a3d 3787 423e e6e1 02bc a12b 87bc
0.07320208 -0.06435398 -0.062071044 -0.1353555 -0.0661063 0.04590926 0.021253403 -0.0226582
-0.11594691 -0.047836725 0.05642736 -0.07245328 0.65537053 -0.018591251 -0.10374929 -0.0076596714
0.006190093 0.010625895 -0.0096219005 0.45935726 -0.0733452 -0.049384084 -1.5874664 0.001775032
0.22614956 -0.049142577 -0.08049362 0.10139825 0.029079657 -0.021007486 -0.044750996 -0.07411833
-0.025337491 -0.033269055 -0.059152417 -0.06908091 -0.0802478 -0.07314327 0.071810886 0.056922875
0.28983435 0.0435916 -0.08479365 8.642196 -0.11773079 0.0016754579 -0.06462846 0.0071728528
2.4620323 -0.058151837 -0.07664971 -0.06644406 -0.03687826 -0.0035598353 -0.12978931 -0.0345737
0.676575 -0.058552165 0.0072012544 -0.047640175 0.04532885 -0.071789965 -0.07120138 -0.03946603
0.07056676 0.039462604 -0.018885657 -0.1094893 -0.107625544 0.07089513 -0.0012920793 0.022030368
0.053866036 -0.01976419 0.024986442 0.19816422 -0.080589905 -0.08378789 -0.042334344 -0.051706426
8.8442955 0.32636753 0.073781945 0.0013611912 0.06464591 -0.04280289 -0.009857295 -0.011243988
-0.09363071 0.5363842 -0.09671895 0.062710784 0.016091086 -0.10543429 -0.025574753 -0.08660363
-0.044256072 -0.049549226 0.03909399 -0.11985728 0.021581706 8.8103285 -0.038236614 -0.033664893
-0.14568233 -0.108428314 -0.05832946 -0.11839778 -0.04939462 -0.03578862 -0.08105313 0.025013225
-0.038207438 -0.1145691 -0.116220236 -0.050168525 0.045504376 -0.012147173 -0.0676297 0.018778663
0.07147375 -0.07481264 -0.053340454 0.021311622 0.06755213 0.18996893 -0.007988429 -0.016500296

net.4.weight f4 [6, 128]
00000000: d087 373c fc20 ff3c 3ae8 a33c 6b9c 283c
00000010: b204 a6bc 1ec1 f6bb 0975 9abd 245a 883c
00000020: 417a f4bc b321 41bd 857d 6eba fe10 c9bc
00000030: 7d67 263b cb06 9b3c bbcb 10bd c102 2eba
00000040: 8cdb 01bb 77a3 153c 1560 7cbc 4c19 b53c
00000050: 1fb2 853d 26a1 163d ef63 04be 65d4 82bd
00000060: 1d83 fa3d b4bd 07bc 0f67 013d ceb2 923b
00000070: deae 233c 4dc7 b23d 4460 73bc 0959 b2bc
00000080: 2686 ac3d 8e9c 083d 6c85 cabc ebbe 2f3a
00000090: 4cc7 8c3d c7de a4bb 96f7 3dbd 49c5 e9bd
000000a0: 4e71 a13d 360a ffbc 4fba d2bd aca6 d73e
000000b0: 7920 4b3b 94d2 32bd 1b59 813d 80af a33c
000000c0: f3d0 07bd f08c 573b e00a a33c 1ca3 e1bc
000000d0: 94cf ca3c 53d5 b4bd baf5 413d 492d 993d
000000e0: d5d8 883c 6a07 2c3d 31fc 75bd 1002 39bd
000000f0: e867 6ebc ed5f da3c 89bd 3abd 8e3a a33d
00000100: 3878 6abc 4f96 9f3d d88e 3ebc 71c2 abbd
00000110: 67a0 3dbc 3dc5 f4bc 2e82 99bb eb57 8f3d
00000120: c002 11bc 21dd 97bc 966e c5ba fe4e 46bc
00000130: 6606 8bbd 623c 65bd 777e c8bc abb5 56bd
00000140: a00c a63e 75d8 fa3c 05b5 bdbb 4375 22bd
00000150: 142c 063c 8286 10bd d6ff f5bc f978 50bc
00000160: 2f3f e63c 454a c9bb d319 60bd 68b5 e03c
00000170: fc34 b03d 2e91 023d bdcb ce3c 2ff2 dcba
00000180: 5b49 673d c49a 0c3d aa3d 8fbd fd28 50bd
00000190: d27a 523d c40a b23e 3577 83bc b77e 4d3d
000001a0: ca0f 40bd 8848 eb3b 4db2 0f3d 003a 68bc
000001b0: af68 a23c 83c3 61bd c893 7dbd 668b 293d
000001c0: 172d 2dbd 36a6 46bd f73e afbd f4a3 e83c
000001d0: e18a 0b3d 72d7 0ebd 1b0f b33c bac8 293d
000001e0: 89c0 93be 0166 9dbd 4f3c f73c 8f4e 863c
000001f0: 6069 83bc ae24 093d c2c5 423d 2b65 c3bb
00000200: 30e4 72bd 081d a8bd 156a 81bd 45fa b2bd
00000210: 1108 b4bd 1f0c afbc b925 f33c a7dc b43b
00000220: 8491 a5bd 7a9f a239 177f f43d 2b8d 36bd
00000230: e7ca 813d 30fc c2bb 850b b1bc 37b1 0dbc
00000240: 35af 09bc ddf0 90bd 62b3 8d3c ef75 4f3d
00000250: a872 41bc 5068 cf3c ccf2 8ebd 0aab d6bc
00000260: dd10 dd3d 66a1 cebb a074 aa3d 25e5 b93d
00000270: c479 d6bc edb4 77bd 6667 bbbc 6340 8a3d
00000280: 9f4e 083d 7a48 e6bb 49c4 7bbd 7308 13bd
00000290: 75aa a43c a6f1 913d b41e 12bd 7a5a 64bd
000002a0: b86b 873d a2ad 6b3d a3ce 813d d4df ae3e
000002b0: 8d38 d93c 8693 e33c 18eb 15bd 4803 1e3c
000002c0: 44e1 9a3d c8f7 14bb bc9d 24bd d98c 573d
000002d0: 0c98 9dbc b137 803d 0164 843b 0fc9 9c3d
000002e0: 1471 53bc cc4c 88bd 1bc6 01bb 4e12 30bd
000002f0: bed9 b43b 9e22 233d 701a 453d 20c3 4a3d
00000300: b08b 0f3d 52df 483d c8a7 38bc 941c f73c
00000310: d6fe 1d3c 32c5 5abb 977f 743d 9479 c53c
00000320: faee 9dbd 4a13 823d 4b22 c23c 0fac 9cba
00000330: f9c8 173d d516 aabd d728 1abb 862a 743d
00000340: 3591 c73e e86d 0f3e 0b43 c23d 1602 d93d
00000350: 1a65 45bd 5158 12bd 6be4 a33d 94b8 0fbc
00000360: 8b0e 50bb 55c8 0bbc fc97 a73c 5f77 6bbd
00000370: d0da 9bbc 7a08 4d3c 8545 a83d ce0b 2abd
00000380: 0fa5 9ebc d6b7 773d 0e0a 29bd a09f 1d3e
00000390: 714d 28bd 038f b33e 0247 3d3d 30fd 80bc
000003a0: 71cc e13c 3a74 933c 48ed 2d3d 0431 d0bc
000003b0: ed63 ab3d 2760 8e3d 47f2 43bd 80dc 873c
000003c0: fd83 1c3c d89a 1cbc 999e 273c 9ae5 a6bd
000003d0: cc37 f83d 34ac bebc 0139 863d 20fa 8b3c
000003e0: 3840 66be 55be fe3b 5b85 243d c525 49bd
000003f0: b84a 133c 8d56 40bc 8935 9f3d c5b4 9c3d
0.011201814 0.031143658 0.020008195 0.010291199 -0.02026591 -0.0075303456 -0.07541854 0.016644545
-0.029843451 -0.04715128 -0.00090976834 -0.024544235 0.0025391274 0.018924138 -0.035350543 -0.00066379836
-0.0019814698 0.009133211 -0.015403767 0.022106789 0.065281145 0.036774777 -0.12928747 -0.06388167
0.12232039 -0.008284975 0.031592425 0.0044768816 0.009990422 0.0872942 -0.0148544945 -0.02177097
0.08424024 0.033352427 -0.024721824 0.0006704169 0.0687395 -0.00503144 -0.046378694 -0.11414582
0.07882939 -0.031132799 -0.10289442 0.42119348 0.0030994697 -0.043657854 0.06315824 0.019981146
-0.033158254 0.0032890402 0.019902647 -0.027543597 0.024757184 -0.08829751 0.047353484 0.074793406
0.016704956 0.041999258 -0.06005496 -0.045167983 -0.01455114 0.02665707 -0.04559091 0.07970153
-0.014310889 0.07792341 -0.011630736 -0.08386696 -0.011573887 -0.029879207 -0.004684708 0.06999191
-0.008850753 -0.01853806 -0.0015062864 -0.012103794 -0.0678833 -0.05596579 -0.024474366 -0.052419346
0.32431507 0.030620793 -0.0057894015 -0.03966261 0.00818922 -0.035284527 -0.030029219 -0.012724155
0.0281063 -0.006142887 -0.054712128 0.027430251 0.08603856 0.031876735 0.025243634 -0.0016856844
0.05646644 0.034327284 -0.06994183 -0.05082034 0.05138666 0.3477384 -0.016048053 0.050169673
-0.046890058 0.0071802773 0.03508215 -0.0141739845 0.019825308 -0.055118095 -0.061908513 0.041392706
-0.04227933 -0.048498355 -0.085569315 0.028398491 0.034067992 -0.034873433 0.021857789 0.041451193
-0.2885783 -0.07685471 0.030180125 0.016394882 -0.016041458 0.033482246 0.047551878 -0.005962988
-0.059299648 -0.08208662 -0.06319062 -0.087391414 -0.08790601 -0.021368084 0.029681074 0.005519468
-0.080843955 0.00031017867 0.11938303 -0.044568222 0.06337529 -0.0059504732 -0.021611938 -0.008648208
-0.008403589 -0.07077191 0.01729745 0.05064958 -0.011807121 0.025318295 -0.069799036 -0.026204605
0.10794232 -0.0063058613 0.08323026 0.09076909 -0.02618111 -0.06047528 -0.022876453 0.06750562
0.033278104 -0.007027683 -0.06146649 -0.03589673 0.020100811 0.07126169 -0.035673812 -0.055750348
0.066123426 0.057538636 0.06338241 0.34155142 0.026516223 0.027780306 -0.036601156 0.009644337
0.07562497 -0.0022730697 -0.04018949 0.052624557 -0.01923754 0.06260622 0.0040402417 0.076555364
-0.012905378 -0.06655273 -0.0019801918 -0.042986207 0.005519121 0.039827935 0.048120916 0.049502492
0.035045326 0.0490411 -0.011270471 0.030164994 0.009643277 -0.0033381698 0.05969199 0.024105825
-0.07711597 0.06351335 0.023697993 -0.0011953133 0.037056897 -0.08305136 -0.0023522878 0.059610866
0.38977972 0.1400677 0.09485444 0.10596101 -0.04819212 -0.035728756 0.08002552 -0.008772034
-0.003174695 -0.00853165 0.020458214 -0.057486888 -0.019025236 0.012514228 0.08216385 -0.041515164
-0.019365815 0.060478054 -0.041269355 0.15392923 -0.04108948 0.35070047 0.046210296 -0.01574573
0.027563306 0.017999757 0.042462617 -0.025413997 0.08368669 0.06951933 -0.047838476 0.016584635
0.009552953 -0.009558402 0.010230684 -0.08149262 0.121200174 -0.023275472 0.065538414 0.017087042
-0.22485435 0.007774154 0.04016624 -0.049108285 0.008989982 -0.011739385 0.07773883 0.076516666

net.4.bias f4 [6]
00000000: 192e 0a41 a748 2e40 4d27 1440 2f3a 1940
00000010: 5f1d 2e40 2dac 4c40
8.636254 2.7231843 2.3148987 2.3941762 2.7205427 3.1980088
