models/dqn/Monopoly/dqn_monopoly_model_ep200.pth (torch, 77746 bytes, 6 tensors)

net.0.weight f4 [128, 10]
0.13496438 0.1487174 -0.9373066 0.5814705 0.003198117 0.12902492 -0.22817901 -0.08683811
0.10090968 -0.31006983 0.059246037 -0.0046258117 -0.72296953 -0.57544106 0.10948467 -0.15724854
-0.20647147 0.13160837 0.29879764 -0.1366461 -0.5012722 -0.0009278947 -0.04230439 -0.33035377
0.19048265 0.11400029 0.1487872 -0.2178522 -0.14527321 -0.16379698 1.0396212 0.012538736
-0.37291512 0.25546905 0.27456805 -0.11355391 0.038902998 -0.14607488 -0.21578662 0.08408153
0.26705864 -0.11638008 0.28296265 0.1785512 0.19513187 0.08355558 -0.23441398 -0.03191182
0.2605957 0.07030979 0.5498273 0.05493385 -0.8874592 -0.053643793 0.24071535 -0.16122116
0.0644941 0.31055066 -0.28502482 0.3154802 -0.57375383 -0.0005498468 -0.33368453 -0.14986946
0.04678756 -0.28546572 -0.015334398 0.23654476 -0.31325012 0.2733899 -0.105554774 -0.2072097
-0.21442778 0.15218666 0.05588144 0.100118876 0.23793003 -0.29058552 0.17096269 0.029525131
0.052328974 -0.25625074 0.29462394 0.2604604 0.23616341 0.21044853 0.035682976 -0.2294141
-0.04667014 -0.31318396 0.15070617 -0.073979914 -0.108860865 -0.25222504 -0.30034944 -0.29050195
0.045244396 -0.22100426 0.2095016 -0.010403335 0.08824692 -0.0044390247 -0.7299719 0.50529134
-0.30683032 -0.2651465 0.031100005 -0.009419322 0.2876757 0.19222894 0.24809322 -0.041138023
-0.20167476 0.18694505 -0.315002 0.1681118 -0.23341802 -0.30855572 -0.11599474 0.25474754
0.0050897 -0.017416269 0.25868514 0.29442236 -0.14132336 0.23124436 -0.2529762 -0.24377242
-0.07593417 0.017896622 1.4714159 -0.005444582 -1.0122471 1.2681807 -0.27304408 0.30558357
-0.059753448 -0.015768737 0.161793 0.018928677 -0.21898764 -0.19059372 0.1287382 0.0722878
-0.06031972 0.31275585 0.13603458 0.011251122 0.29792288 0.21248391 0.39191112 -0.033038527
0.22676937 -0.036649115 0.09194341 0.025169939 -0.13045172 -0.07494989 -0.15848961 -0.08941816
0.88363826 -0.01968524 -0.6151326 -0.23875485 -0.10422124 -0.14298144 0.30449805 0.2080029
0.29473022 0.16767234 0.48650482 0.06542923 -0.64201766 0.08886679 -0.31200334 0.04386887
-0.2701284 0.27540413 -0.3108297 0.13704935 0.6822138 -0.01575983 0.058096383 1.212656
-0.073514655 -0.15300164 -0.26515198 -0.007084757 0.24761596 -0.18356185 0.1680866 -0.006754351
0.85549206 0.20781633 0.09445596 0.31514934 0.043920457 0.11263457 -0.10139103 0.2518032
-0.41082123 -0.0005209357 0.026843444 0.31351492 0.07316521 -0.26835388 0.2781088 -0.12584618
-0.15178213 -0.27125713 -0.14365971 -0.00049589504 -0.014685903 -0.24369085 0.012393296 0.25560573
0.2783865 0.21085063 -0.028058887 -0.14136815 0.818102 -0.008204786 -0.7443666 0.2439155
-0.03323582 0.16461942 0.106847495 -0.24128973 -0.28953052 0.016082168 0.06222841 -0.23015434
0.21927771 0.21411279 -0.18297525 -0.106300324 -0.07146007 -0.21135682 0.2193928 -0.08329253
-0.69099766 -0.00028910054 -0.16179162 0.13149604 -0.12633047 -0.092473865 -0.3057732 -0.30164868
-0.24854217 -0.29402116 0.6523015 0.064967364 -0.9375223 0.5435383 -0.1838137 0.050847262
00000000: 1a34 0a3e 6049 183e 53f3 6fbf 40db 143f
00000010: 8097 513b 1c1f 043e c2a7 69be 2ed8 b1bd
00000020: bca9 ce3d 79c1 9ebe f9ab 723d 1f94 97bb
00000030: 8814 39bf 1b50 13bf 8039 e03d c305 21be
00000040: 426d 53be 58c4 063e 01fc 983e f5ec 0bbe
00000050: 6053 00bf f63d 73ba 5e47 2dbd 2124 a9be
00000060: e20d 433e fc78 e93d ac5b 183e a614 5fbe
00000070: 80c2 14be 65ba 27be 4f12 853f 456f 4d3c
00000080: bbee bebe d7cc 823e 2f94 8c3e f48e e8bd
00000090: c058 1f3d a794 15be 2bf7 5cbe f032 ac3d
000000a0: e9bb 883e ae58 eebd 7be0 903e 20d6 363e
000000b0: a6d0 473e 301f ab3d 380a 70be f8b5 02bd
000000c0: cd6c 853e 94fe 8f3d 7bc1 0c3f 5102 613d
000000d0: 8730 63bf 98b9 5bbd 167e 763e 2917 25be
000000e0: 7c15 843d 7f00 9f3e c6ee 91be 9f86 a13e
000000f0: 88e1 12bf 9823 10ba b3d8 aabe 6177 19be
00000100: 50a4 3f3d 9028 92be 203d 7bbc ca38 723e
00000110: 5262 a0be c3f9 8b3e 1a2d d8bd c82e 54be
00000120: f592 5bbe d2d6 1b3e f0e3 643d 200b cd3d
00000130: eea3 733e a0c7 94be d810 2f3e b0de f13c
00000140: e856 563d 4c33 83be f3d8 963e 115b 853e
00000150: d2d4 713e d27f 573e 5028 123d 88eb 6abe
00000160: 3029 3fbd a659 a0be b852 1a3e c882 97bd
00000170: 72f2 debd a423 81be 67c7 99be acbc 94be
00000180: 3052 393d f14e 62be 9687 563e c072 2abc
00000190: cdba b43d 3d75 91bb 70df 3abf c65a 013f
000001a0: dd18 9dbe 48c1 87be 70c5 fe3c 8053 1abc
000001b0: 3b4a 933e aad7 443e 260c 7e3e 5880 28bd
000001c0: d483 4ebe 866e 3f3e f147 a1be 8025 2c3e
000001d0: 2205 6fbe 04fb 9dbe a68e edbd 456e 823e
000001e0: 80c7 a63b 90ac 8ebc 6172 843e 87be 963e
000001f0: 12b7 10be 52cb 6c3e 1986 81be 7a9f 79be
00000200: 6083 9bbd f09b 923c 5b57 bc3f 7768 b2bb
00000210: 5091 81bf bf53 a23f 6fcc 8bbe 7375 9c3e
00000220: 08c0 74bd 702d 81bc 10ad 253e 5010 9b3c
00000230: 4c3e 60be 002b 43be f2d3 033e a00b 943d
00000240: d011 77bd 8921 a03e a64c 0b3e a056 383c
00000250: 5989 983e 6295 593e 93a8 c83e 6853 07bd
00000260: 3b36 683e 621d 16bd d44c bc3d 3031 ce3c
00000270: 2395 05be 547f 99bd 1a4b 22be de20 b7bd
00000280: 1e36 623f f142 a1bc 5479 1dbf 277c 74be
00000290: f271 d5bd ba69 12be 2be7 9b3e b6fe 543e
000002a0: e1e6 963e 4cb2 2b3e 2917 f93e c3ff 853d
000002b0: 455b 24bf cbff b53d e7be 9fbe d8af 333d
000002c0: 454e 8abe c501 8d3e 1225 9fbe aa56 0c3e
000002d0: 90a5 2e3f c21a 81bc 79f6 6d3d 5038 9b3f
000002e0: da8e 96bd 76ac 1cbe 00c2 87be 4027 e8bb
000002f0: 0a8f 7d3e a3f7 3bbe e51e 2c3e 9a53 ddbb
00000300: 8701 5b3f cecd 543e 2072 c13d 415b a13e
00000310: f0e5 333d f4ac e63d 1aa6 cfbd 59ec 803e
00000320: 2957 d2be 678f 08ba c8e6 db3c 0785 a03e
00000330: a4d7 953d ae65 89be 4764 8e3e d2dd 00be
00000340: c66c 1bbe 37e2 8abe 881b 13be f4fe 01ba
00000350: 249d 70bc 188a 79be 400d 4b3c c1de 823e
00000360: ad88 8e3e 3ae9 573e c0db e5bc d0c2 10be
00000370: 226f 513f 5e6d 06bc cf8e 3ebf fcc4 793e
00000380: 4822 08bd fe91 283e dcd2 da3d a814 77be
00000390: 583d 94be c0be 833c 38e3 7e3d 94ad 6bbe
000003a0: 568a 603e 6240 5b3e dd5d 3bbe fcb3 d9bd
000003b0: a859 92bd ec6d 58be 82a8 603e 4695 aabd
000003c0: 39e5 30bf 6b92 97b9 b4ac 25be e6a6 063e
000003d0: c65c 01be f062 bdbd 4e8e 9cbe b271 9abe
000003e0: d781 7ebe f189 96be 3bfd 263f 9c0d 853d
000003f0: 7601 70bf 5325 0b3f a939 3cbe 3845 503d

net.0.bias f4 [128]
1.6528279 -0.62157154 -0.39471743 1.1202984 0.18008858 1.0877725 -0.15328635 0.021337181
-0.100217715 -0.255632 0.5234314 0.00059086084 -0.2469579 1.1334777 -0.17789158 0.20725375
0.76122785 1.4933093 0.7586265 0.5238751 -0.42468512 -0.15033244 1.1547521 0.09350604
-0.40651762 1.0772729 0.21434 -0.11857003 0.015494525 0.6250325 0.559916 1.4459672
-0.24628976 1.4633677 -0.0050194263 -0.5735752 0.14738497 -0.058357507 0.22202185 0.6877957
1.6808797 -0.2931263 0.31563088 0.22827609 0.16911805 -0.100835666 1.3175544 0.27319416
-0.08088285 0.03812322 1.3275902 -0.5076473 -0.009072572 1.1725321 -0.3064351 0.28964862
1.0139228 1.2150291 0.059123635 1.3134054 -0.7868427 -0.12236641 -0.14865907 0.23481457
-0.013514996 0.07198912 0.99213386 -0.21364112 0.0036327243 -0.1632441 0.13239935 0.22539344
0.28410485 -0.3112308 -0.5897495 -0.0139758885 0.97311574 -0.53096807 1.406752 0.2863761
1.433079 0.42461458 1.156555 0.79402107 -0.048674703 1.0164938 -0.19522223 -0.09553997
0.163197 0.07451433 -0.10084224 -0.313686 -0.2568722 0.1971136 0.13510737 -0.1262864
-0.14134657 0.1998268 -0.2200719 0.016235232 -0.74975777 0.3610107 0.8962545 -0.054011013
0.2053714 0.981857 1.0306531 1.1163337 1.2493962 0.24281198 -0.4145333 0.23143044
-0.1633287 0.3077425 1.2385203 -0.21032754 -0.19162342 0.30041203 -0.114023626 0.13805227
0.06315917 -0.21382226 0.23609778 -0.07679187 1.345891 0.30057707 1.3028356 1.2810912
00000000: dd8f d33f 501f 1fbf 6718 cabe f065 8f3f
00000010: 2469 383e 213c 8b3f 19f7 1cbe 50cb ae3c
00000020: f23e cdbd 33e2 82be 9aff 053f 00e4 1a3a
00000030: 88e2 7cbe cc15 913f 3629 36be 543a 543e
00000040: d4df 423f c224 bf3f 5935 423f ae1c 063f
00000050: 5470 d9be bff0 19be ebce 933f 1880 bf3d
00000060: 1423 d0be 14e4 893f f27b 5b3e d8d4 f2bd
00000070: c0dc 7d3c 2102 203f a856 0f3f 7415 b93f
00000080: 6233 7cbe a24f bb3f 007a a4bb d3d5 12bf
00000090: 16ec 163e 4808 6fbd b259 633e 6113 303f
000000a0: 1127 d73f a714 96be 5f9a a13e 35c1 693e
000000b0: 482d 2d3e ee82 cebd 9fa5 a83f 1be0 8b3e
000000c0: e8a5 a5bd 1827 1c3d 7aee a93f 2cf5 01bf
000000d0: 20a5 14bc 8815 963f 10e5 9cbe d34c 943e
000000e0: 39c8 813f 1386 9b3f a02b 723d ab1d a83f
000000f0: 866e 49bf 3e9b fabd 153a 18be 3b73 703e
00000100: 006e 5dbc 086f 933d 7cfc 7d3f bdc4 5abe
00000110: 0013 6e3b 7629 27be b293 073e 8acd 663e
00000120: 3176 913e a559 9fbe d3f9 16bf 20fb 64bc
00000130: 1d1e 793f 86ed 07bf 7310 b43f e39f 923e
00000140: 226f b73f 1567 d93e ff09 943f f744 4b3f
00000150: 205f 47bd 781c 823f 56e8 47be 76aa c3bd
00000160: 1d1d 273e f89a 983d 6086 cebd 749b a0be
00000170: c184 83be 26d8 493e 9659 0a3e 3951 01be
00000180: 28bd 10be 669f 4c3e 875a 61be c0ff 843c
00000190: 20f0 3fbf 65d6 b83e ef70 653f a73a 5dbd
000001a0: e14c 523e fb5a 7b3f 71ec 833f 06e4 8e3f
000001b0: 37ec 9f3f b4a3 783e b53d d4be 1afc 6c3e
000001c0: a43f 27be 6d90 9d3e d587 9e3f 1a60 57be
000001d0: ee38 44be 9bcf 993e 3885 e9bd 935d 0d3e
000001e0: 9859 813d 39f4 5abe 9ec3 713e 0e45 9dbd
000001f0: 2846 ac3f 3de5 993e 51c3 a63f ccfa a33f

net.2.weight f4 [128, 128]
-0.076248065 -0.058350246 0.06864992 -0.066824265 0.076324694 -0.025530092 0.03992038 0.007056214
0.045021646 0.085222386 -0.026585016 -0.083359174 -0.005097516 -0.0021571426 -0.0037877187 0.012154929
-0.0877304 -0.017554885 0.01317595 -0.007862374 -0.030894697 0.07238784 0.007077802 -0.040741082
0.019919518 -0.0015013532 -0.05553817 0.03392403 -0.060543463 -0.009200263 -0.074188314 -0.06987352
-0.08583779 -0.03838922 0.019063704 -0.053308833 0.013662331 0.07636034 0.0056072623 -0.081861556
-0.032234948 -0.080908775 -0.044631034 0.059211142 0.0041012764 0.053707216 -0.029727057 -0.052654013
0.025637843 -0.015859723 0.056260396 0.042646993 0.087786146 0.008529376 0.07784744 0.07902112
-0.030234 -0.08907591 0.060792662 0.011487809 0.03481495 0.019816354 -0.009845503 -0.07146606
-0.041831642 -0.057647206 0.012994388 0.03988717 0.024424128 -0.05251823 -0.08741166 -0.04244568
-0.011329874 -0.06797667 0.009941322 -0.049030438 -0.033689484 -0.0046769963 0.047480322 0.081043474
0.026813122 0.006496003 0.05771493 -0.025177255 0.08744065 -0.0742882 0.0100281015 -0.0450503
0.033953052 0.02729375 0.00774619 -0.065814875 0.08311946 -0.04203494 -0.03435649 0.033391885
-0.08049436 0.04826642 0.052913792 -0.070578404 0.06208524 0.069465645 0.027725859 -0.010534581
0.013679378 -0.090566084 -2.685087e-05 0.01761713 -0.03623424 0.033279106 0.019833643 0.080400564
1.7741475e-05 -0.05426807 0.04842187 -0.052951045 -0.06346823 0.0067650527 -0.029001132 0.045053646
-0.05287829 -0.08821254 -0.06058854 0.021184564 -0.059753325 0.071613304 0.027505301 -0.04263057
0.07340596 -0.038703892 0.0379361 0.0754799 0.047019176 -0.040485725 0.06473368 0.0649431
0.012559183 -0.054089777 -0.05263428 0.0066825077 -0.0063029155 -0.00084634125 -0.0006514117 -0.027734838
0.04581704 -0.073153965 0.076877065 0.06042195 0.010109678 0.06436882 -0.07242499 -0.061426483
0.024206422 -0.074073486 -0.08053008 -0.03183303 0.031739376 0.07269441 0.033655226 -0.038228866
-0.031227738 -0.07982093 0.07380056 -0.033703852 -0.05040964 -0.04060672 -0.08057874 -0.07091433
0.034991115 0.02014552 -0.038381502 0.06510081 -0.031785022 -0.031973504 0.0229026 -0.059996195
0.0761138 -0.021627337 -0.0356326 0.022820652 -0.052926134 -0.045159463 0.06385163 0.030370608
-0.053840384 0.03234154 0.07544 -0.066765815 -0.003994517 -0.06484322 -0.08609703 -0.03842214
-0.015049458 -0.029599648 0.049369268 -0.010701045 -0.05539743 -0.04833346 0.05270984 -0.029012784
0.06514043 -0.07779041 -0.051635116 -0.00958693 -0.05014984 -0.019882165 -0.04777444 0.06918689
-0.080638096 0.047188245 0.041778646 0.055234157 -0.023413405 -0.046686158 -0.08149213 -0.0043369234
0.047219448 -0.08767202 0.078263886 -0.0070561916 -0.0783631 0.0101842135 -0.06827946 -0.03280153
0.026238225 -0.06944005 0.020161062 0.085897766 -0.08124965 -0.0016454831 0.034230724 0.033840336
-0.07118814 0.021824248 -0.08552925 -0.006072402 -0.014357664 0.02048491 -0.047545172 -0.007195689
-0.031779587 0.04369182 0.07022791 0.066876374 -0.048326608 0.055122696 -0.027102131 -0.019007668
-0.07262396 -0.005602129 0.013423078 0.08277605 0.0071199015 0.04255099 0.0431258 -0.07259692
00000000: f227 9cbd ab00 6fbd 5498 8c3d 29db 88bd
00000010: 1f50 9c3d 7c24 d1bc 8d83 233d d037 e73b
00000020: 9e68 383d 1389 ae3d d2c8 d9bc 37b8 aabd
00000030: 1009 a7bb d95e 0dbb 603b 78bb 7825 473c
00000040: ffab b3bd 43cf 8fbc f1df 573c 30d1 00bc
00000050: e016 fdbc 1340 943d e8ec e73b 1fe0 26bd
00000060: 422e a33c 0ec9 c4ba fe7b 63bd ecf3 0a3d
00000070: 6cfc 77bd b3bc 16bc 0bf0 97bd d919 8fbd
00000080: b9cb afbd 043e 1dbd 7c2b 9c3c 5d5a 5abd
00000090: f8d7 5f3c cf62 9c3d 20bd b73b 08a7 a7bd
000000a0: cb08 04bd 80b3 a5bd 08cf 36bd 6287 723d
000000b0: 0064 863b 19fc 5b3d 2886 f3bc bcab 57bd
000000c0: 7406 d23c 40ec 81bc 4d71 663d 9dae 2e3d
000000d0: 39c9 b33d ccbe 0b3c 7b6e 9f3d d3d5 a13d
000000e0: 4bad f7bc 6e6d b6bd ba01 793d 5d37 3c3c
000000f0: 1f9a 0e3d e855 a23c 084f 21bc cc5c 92bd
00000100: a857 2bbd 7a1f 6cbd 6ae6 543c bb60 233d
00000110: 1c15 c83c 5b1d 57bd e204 b3bd 85db 2dbd
00000120: f0a0 39bc 5a37 8bbd ede0 223c 24d4 48bd
00000130: fcfd 09bd 7d41 99bb ba7a 423d 1ffa a53d
00000140: 31a7 db3c 6cdc d43b 7e66 6c3d 8840 cebc
00000150: 1514 b33d 6924 98bd e84c 243c aa86 38bd
00000160: 5b12 0b3d 2497 df3c c0d3 fd3b f3c9 86bd
00000170: 893a aa3d d42c 2cbd 64b9 0cbd eec5 083d
00000180: 3ada a4bd 02b3 453d 22bc 583d 698b 90bd
00000190: 184d 7e3d 0144 8e3d 5721 e33c 3c99 2cbc
000001a0: 781f 603c b67a b9bd ce3d e1b7 cd51 903c
000001b0: 5b6a 14bd ac4f 083d 2a7a a23c 0da9 a43d
000001c0: 87d3 9437 3248 5ebd 0356 463d 32e3 58bd
000001d0: a2fb 81bd 60ad dd3b c893 edbc 2c8a 383d
000001e0: e896 58bd c7a8 b4bd b02b 78bd 408b ad3c
000001f0: e7bf 74bd ffa9 923d cc52 e13c 649d 2ebd
00000200: dd55 963d f987 1ebd e262 1b3d 3595 9a3d
00000210: 2e97 403d 5cd4 25bd 1793 843d e300 853d
00000220: 08c5 4d3c 3e8d 5dbd 0b97 57bd f0f8 da3b
00000230: b088 cebb 00dd 5dba 80c3 2aba 2c34 e3bc
00000240: a6aa 3b3d bfd1 95bd b971 9d3d 027d 773d
00000250: 10a3 253c cdd3 833d 8e53 94bd 569a 7bbd
00000260: 8c4c c63c d7b3 97bd f4ec a4bd 5a63 02bd
00000270: 2601 023d cfe0 943d 10da 093d df95 1cbd
00000280: 50d1 ffbc 2879 a3bd bf24 973d 0d0d 0abd
00000290: 577a 4ebd 3b53 26bd 7706 a5bd 883b 91bd
000002a0: d852 0f3d 3808 a53c ec35 1dbd 9353 853d
000002b0: 0331 02bd a6f6 02bd 3c9e bb3c 92be 75bd
000002c0: 8de1 9b3d d02b b1bc 7df3 11bd 60f2 ba3c
000002d0: 13c9 58bd 21f9 38bd a5c4 823d c8cb f83c
000002e0: bc87 5cbd 9078 043d 4980 9a3d 84bc 88bd
000002f0: 70e4 82bb 86cc 84bd a453 b0bd 8960 1dbd
00000300: 0092 76bc f67a f2bc 6e37 4a3d 7053 2fbc
00000310: 6ae8 62bd 4ef9 45bd 46e6 573d 38ac edbc
00000320: 5968 853d 9450 9fbd 587f 53bd 8012 1dbc
00000330: eb69 4dbd ecdf a2bc 22af 43bd dbb1 8d3d
00000340: 9625 a5bd 7648 413d 1620 2b3d 363d 623d
00000350: 78cd bfbc fc39 3fbd 59e5 a6bd c01c 8ebb
00000360: 2e69 413d 638d b3bd d148 a03d a037 e7bb
00000370: d57c a0bd b0db 263c 1ad6 8bbd e65a 06bd
00000380: 8cf1 d63c 9636 8ebd d028 a53c 2beb af3d
00000390: 3766 a6bd 40ad d7ba 8435 0c3d 2a9c 0a3d
000003a0: 16cb 91bd c4c8 b23c f629 afbd 00fb c6bb
000003b0: 683c 6bbc f8cf a73c babe 42bd d0c9 ebbb
000003c0: 502b 02bd 32f6 323d a7d3 8f3d 7bf6 883d
000003d0: 1ff2 45bd 56c8 613d 4a05 debc f8b5 9bbc
000003e0: dfbb 94bd 1092 b7bb 78ec 5b3c 7d86 a93d
000003f0: 104e e93b f249 2e3d aea4 303d b2ad 94bd

net.2.bias f4 [128]
0.07320208 -0.06435398 -0.062071044 -0.071826085 -0.03434276 0.04590926 0.04971419 0.047503393
-0.08418445 -0.047836725 0.08810201 -0.04068882 0.6841995 0.013082266 -0.07203074 0.022829361
0.03795514 0.036592454 0.030897258 0.58983004 -0.041580174 -0.049384084 0.4761125 0.001775032
0.29316932 -0.017378686 -0.049297903 0.12154161 0.06073865 -0.021007486 -0.018556735 -0.04235283
0.03037234 -0.033269055 -0.059152417 -0.037472196 -0.048531923 -0.031394806 0.071810886 0.15062419
0.3359646 0.075351365 -0.08479365 1.4202586 -0.11773079 0.033440843 -0.03286277 0.0071728528
1.3872832 -0.031935573 -0.07664971 -0.053529512 -0.03687826 -0.0035598353 -0.08228572 -0.017469738
0.7795019 -0.050749794 0.14965804 -0.047640175 0.13662975 -0.040034804 -0.07120138 -0.03946603
0.10232422 0.039462604 -0.018885657 -0.07772672 -0.107625544 0.07854217 0.030472416 0.022030368
0.053866036 0.011993564 0.065218076 0.22990488 -0.080589905 -0.08378789 -0.007448027 -0.051706426
1.580435 0.38493142 0.0710318 0.0013611912 0.09641068 -0.019642629 -0.009857295 -0.011243988
-0.06660966 0.6161415 -0.06497415 0.062710784 0.047853835 -0.07813269 -0.081834845 -0.0768363
-0.016217114 -0.049549226 0.03909399 -0.090642355 0.053207107 1.5195043 -0.0064722598 -0.0018994423
-0.11391739 -0.07022495 0.025739558 -0.086632475 -0.020980323 -0.007399045 -0.08105313 0.05677765
-0.0064421277 -0.08280386 -0.08447748 -0.018407337 0.050356474 0.019616254 -0.0676297 0.018778663
0.560909 -0.07481264 -0.018288348 0.053075667 0.06755213 0.21416603 0.022421598 0.015263084
00000000: f9ea 953d 05cc 83bd 353e 7ebd 8e19 93bd
00000010: feaa 0cbd 590b 3c3d 1ba1 4b3d eb92 423d
00000020: e668 acbd 71f0 43bd d46e b43d 52a9 26bd
00000030: b327 2f3f 0057 563c da84 93bd a404 bb3c
00000040: d976 1b3d f8e1 153d 3f1c fd3c 1aff 163f
00000050: f94f 2abd f746 4abd 05c5 f33e 31a8 e83a
00000060: 4a1a 963e bf5d 8ebc 99ec 49bd cfea f83d
00000070: 17c9 783d e417 acbc 4b04 98bc 297a 2dbd
00000080: 6acf f83c 2245 08bd ce49 72bd 727c 19bd
00000090: 69c9 46bd d797 00bd 9611 933d 3a3d 1a3e
000000a0: 8d03 ac3e d151 9a3d 4ba8 adbd 09cb b53f
000000b0: d71c f1bd 44f9 083d 1d9b 06bd 400a eb3b
000000c0: 7f92 b13f e0ce 02bd 86fa 9cbd c341 5bbd
000000d0: a90d 17bd 204c 69bb 6a85 a8bd b21c 8fbc
000000e0: 708d 473f 04df 4fbd f53f 193e 5822 43bd
000000f0: abe8 0b3e 89fb 23bd 07d2 91bd 22a7 21bd
00000100: 5c8f d13d 8aa3 213d 18b6 9abc 302f 9fbd
00000110: c86a dcbd b8da a03d 4aa1 f93c 0879 b43c
00000120: a2a2 5c3d a780 443c 0e91 853d 2f6c 6b3e
00000130: 520c a5bd fc98 abbd 940e f4bb 1eca 53bd
00000140: b24b ca3f bb15 c53e 1f79 913d ff69 b23a
00000150: f672 c53d 94e9 a0bc 7e80 21bc b438 38bc
00000160: a56a 88bd 73bb 1d3f 2b11 85bd 836e 803d
00000170: 6202 443d 0804 a0bd 0799 a7bd 5a5c 9dbd
00000180: c1d9 84bc 21f4 4abd 0521 203d b3a2 b9bd
00000190: b2ef 593d 1e7f c23f 4015 d4bb b5f6 f8ba
000001a0: 854d e9bd 19d2 8fbd c4db d23c 5e6c b1bd
000001b0: edde abbc b073 f2bb 2fff a5bd ae8f 683d
000001c0: 7c18 d3bb 1295 a9bd 8702 adbd fcca 96bc
000001d0: 9742 4e3d 44b2 a03c 7181 8abd b6d5 993c
000001e0: bb97 0f3f 5f37 99bd 72d1 95bc df65 593d
000001f0: c558 8a3d 574e 5b3e 80ad b73c 0412 7a3c

net.4.weight f4 [6, 128]
0.011201814 0.031143658 0.020008195 -0.05323893 -0.052030653 -0.0075303456 -0.044428494 0.016934957
-0.061593067 -0.04715128 0.02672882 -0.05630974 0.0025568707 -0.012803927 -0.035350543 -0.004152802
0.029783547 0.017298035 -0.05525023 0.0050273314 0.065281145 0.036774777 -0.04720093 -0.06388167
-0.034664538 -0.008284975 -0.00016904193 0.01358177 0.009990422 0.0872942 -0.015714377 -0.053536665
0.0844718 0.033352427 -0.024721824 -0.010545062 0.036973797 -0.03684785 -0.046378694 -0.07416891
-0.027617428 -0.062842764 -0.10289442 0.093505435 0.0030994697 -0.075420894 0.031394564 0.019981146
0.06864303 0.0032890402 0.019902647 0.056389105 0.024757184 -0.08829751 0.016568683 0.105841585
0.008017244 0.041999258 0.013763973 -0.045167983 -0.014425538 -0.005108364 -0.04559091 0.07970153
-0.014310889 0.07792341 -0.011630736 -0.08386696 -0.011573887 -0.021852989 -0.03645033 0.06999191
-0.008850753 -0.023040513 -0.012543861 -0.012103794 -0.0678833 -0.05596579 0.029675959 -0.052419346
0.09408499 -0.0031013426 0.0005810594 -0.03966261 -0.023286223 0.008830621 -0.030029219 -0.012724155
0.0598721 0.0031453248 -0.054712128 0.027430251 0.054277845 0.062083535 0.033490874 0.018710531
0.024705965 0.034327284 -0.06994183 -0.021283515 0.05138666 0.11399298 -0.047813553 0.08193398
-0.046890058 -0.037273332 0.020731421 -0.0141739845 0.025458543 -0.0868839 -0.061908513 0.041392706
-0.07404491 -0.08026257 -0.085569315 0.028398491 0.010184311 -0.034873433 0.021857789 0.041451193
-0.010696551 -0.07685471 -0.00076443417 -0.015370637 -0.016041458 -0.009519478 0.060620375 -0.005962988
-0.059299648 -0.08208662 -0.06319062 -0.087391414 -0.08790601 -0.021368084 0.06144253 0.027258432
-0.080843955 0.00031017867 -0.007467859 -0.044568222 0.019568715 -0.0059504732 0.010087959 -0.008648208
-0.008403589 -0.046584733 -0.018398764 -0.015283248 -0.011807121 0.025318295 -0.020173222 -0.026204605
0.03061039 -0.0063058613 0.08323026 0.015380269 -0.02618111 -0.06047528 -0.022876453 0.06750562
0.033278104 -0.007027683 -0.06146649 -0.03589673 0.020100811 0.03949643 -0.035673812 0.029799711
0.00425329 0.057538636 0.06338241 0.075675465 0.026516223 0.027780306 -0.036601156 0.009644337
0.06233166 -0.0022730697 -0.04018949 -0.058705416 -0.01923754 0.06260622 -0.06608645 0.01222932
0.018227823 -0.034790814 0.010181793 -0.042986207 0.028933702 0.039827935 0.048120916 0.049502492
0.035045326 0.0490411 -0.011270471 0.030164994 0.009643277 -0.025991 0.05969199 0.024105825
-0.07711597 0.06351335 0.023698179 -0.0011953133 0.037056897 -0.08305136 -0.044634596 0.059610866
0.11392277 0.009236768 0.025883963 0.10596101 -0.04819212 -0.012123638 0.08002552 -0.008772034
-0.034940485 0.018801682 0.020458214 -0.057486888 -0.019025236 0.027346592 0.004534915 -0.043063864
0.008526541 0.060478054 -0.041269355 -0.06346166 -0.04108948 0.08565318 0.046210296 -0.01574573
0.027563306 -0.04581219 0.019389462 -0.05717931 -0.010072396 0.03457465 -0.047838476 0.016584635
0.009552953 -0.009558402 -0.021522425 -0.08149262 0.020365307 -0.023275472 0.065538414 0.017087042
0.0076017263 0.007774154 0.0032840734 -0.049108285 0.008989982 0.022244163 0.025359988 0.076516666
00000000: d087 373c fc20 ff3c 3ae8 a33c 1011 5abd
00000010: 181e 55bd 1ec1 f6bb a7fa 35bd 2ebb 8a3c
00000020: 0349 7cbd b321 41bd 66f6 da3c 0ba5 66bd
00000030: 2c91 273b 90c7 51bc bbcb 10bd 3a14 88bb
00000040: a0fc f33c 9cb4 8d3c 114e 62bd 50bc a43b
00000050: 1fb2 853d 26a1 163d c355 41bd 65d4 82bd
00000060: 67fc 0dbd b4bd 07bc d940 31b9 1286 5e3c
00000070: deae 233c 4dc7 b23d 70bb 80bc 4349 5bbd
00000080: 8dff ac3d 8e9c 083d 6c85 cabc 32c5 2cbc
00000090: d671 173d c5ed 16bd 96f7 3dbd dfe5 97bd
000000a0: f23d e2bc b5b3 80bd 4fba d2bd c77f bf3d
000000b0: 7920 4b3b 4576 9abd 9697 003d 80af a33c
000000c0: b894 8c3d f08c 573b e00a a33c 43f8 663d
000000d0: 94cf ca3c 53d5 b4bd 0cbb 873c 79c3 d83d
000000e0: c25a 033c 6a07 2c3d 4982 613c 1002 39bd
000000f0: 1759 6cbc 1064 a7bb 89bd 3abd 8e3a a33d
00000100: 3878 6abc 4f96 9f3d d88e 3ebc 71c2 abbd
00000110: 67a0 3dbc 0a05 b3bc f14c 15bd eb57 8f3d
00000120: c002 11bc 75bf bcbc c484 4dbc fe4e 46bc
00000130: 6606 8bbd 623c 65bd ff1a f33c abb5 56bd
00000140: a2af c03d e53f 4bbb 3c52 183a 4375 22bd
00000150: c0c2 bebc 4fae 103c d6ff f5bc f978 50bc
00000160: 723c 753d cb21 4e3b d319 60bd 68b5 e03c
00000170: 7252 5e3d 4e4b 7e3d ba2d 093d d446 993c
00000180: 2a64 ca3c c49a 0c3d aa3d 8fbd c45a aebc
00000190: d27a 523d 2775 e93d 25d8 43bd 01cd a73d
000001a0: ca0f 40bd ecab 18bd f1d4 a93c 003a 68bc
000001b0: 6f8e d03c 30f0 b1bd c893 7dbd 668b 293d
000001c0: dca4 97bd b460 a4bd f73e afbd f4a3 e83c
000001d0: 19dc 263c 72d7 0ebd 1b0f b33c bac8 293d
000001e0: 9640 2fbc 0166 9dbd 4f64 48ba 20d5 7bbc
000001f0: 6069 83bc 96f7 1bbc 124d 783d 2b65 c3bb
00000200: 30e4 72bd 081d a8bd 156a 81bd 45fa b2bd
00000210: 1108 b4bd 1f0c afbc 2aab 7b3d 134d df3c
00000220: 8491 a5bd 7a9f a239 f1b4 f4bb 2b8d 36bd
00000230: 924e a03c 30fc c2bb f747 253c 37b1 0dbc
00000240: 35af 09bc a2cf 3ebd 01b9 96bc 9766 7abc
00000250: a872 41bc 5068 cf3c 5042 a5bc 0aab d6bc
00000260: a4c2 fa3c 66a1 cebb a074 aa3d 86fd 7b3c
00000270: c479 d6bc edb4 77bd 6667 bbbc 6340 8a3d
00000280: 9f4e 083d 7a48 e6bb 49c4 7bbd 7308 13bd
00000290: 75aa a43c 02c7 213d b41e 12bd 861e f43c
000002a0: 2f5f 8b3b a2ad 6b3d a3ce 813d bdfb 9a3d
000002b0: 8d38 d93c 8693 e33c 18eb 15bd 4803 1e3c
000002c0: 7c4f 7f3d c8f7 14bb bc9d 24bd 1775 70bd
000002d0: 0c98 9dbc b137 803d 5558 87bd 7c5d 483c
000002e0: 8452 953c d080 0ebd 89d1 263c 4e12 30bd
000002f0: 5f06 ed3c 9e22 233d 701a 453d 20c3 4a3d
00000300: b08b 0f3d 52df 483d c8a7 38bc 941c f73c
00000310: d6fe 1d3c 14eb d4bc 977f 743d 9479 c53c
00000320: faee 9dbd 4a13 823d af22 c23c 0fac 9cba
00000330: f9c8 173d d516 aabd c4d2 36bd 862a 743d
00000340: 5750 e93d d055 173c 9b0a d43c 1602 d93d
00000350: 1a65 45bd 39a2 46bc 6be4 a33d 94b8 0fbc
00000360: c11d 0fbd fc05 9a3c fc97 a73c 5f77 6bbd
00000370: d0da 9bbc f605 e03c a099 943b bc63 30bd
00000380: e8b2 0b3c d6b7 773d 0e0a 29bd 30f8 81bd
00000390: 714d 28bd ef6a af3d 0247 3d3d 30fd 80bc
000003a0: 71cc e13c 90a5 3bbd a6d6 9e3c da34 6abd
000003b0: b106 25bc 269e 0d3d 47f2 43bd 80dc 873c
000003c0: fd83 1c3c d89a 1cbc cc4f b0bc 9ae5 a6bd
000003d0: 25d5 a63c 34ac bebc 0139 863d 20fa 8b3c
000003e0: e717 f93b 55be fe3b 9c39 573b c525 49bd
000003f0: b84a 133c 6439 b63c c0bf cf3c c5b4 9c3d

net.4.bias f4 [6]
1.2780068 0.8501884 0.65286064 0.47089988 0.6756697 0.78733283
00000000: ba95 a33f f2a5 593f e021 273f ca19 f13e
00000010: b1f8 2c3f a58e 493f
