models/dqn/Monopoly/dqn_monopoly_model_ep100.pth (torch, 77746 bytes, 6 tensors)

net.0.weight f4 [128, 10]
0.07785285 0.17137481 -0.5029856 1.0844177 0.003198117 0.12902492 -0.22817901 -0.08683811
0.10090968 -0.31006983 0.09692439 0.11204233 -0.50858474 -0.37099093 0.10948467 -0.15724854
-0.20647147 0.13160837 0.29879764 -0.1366461 -0.45550212 0.022705184 -0.1559276 -0.38376224
0.19048265 0.11400029 0.1487872 -0.2178522 -0.14527321 -0.16379698 0.95324653 0.033998054
0.045456897 0.7829643 0.27456805 -0.11355391 0.038902998 -0.14607488 -0.21578662 0.08408153
0.26705864 -0.11638008 0.28296265 0.1785512 0.19513187 0.08355558 -0.23441398 -0.03191182
0.2605957 0.07030979 0.49458724 0.079286136 -0.4970428 0.43803447 0.24071535 -0.16122116
0.0644941 0.31055066 -0.28502482 0.3154802 -0.4248783 0.07780972 -0.3366952 -0.10219198
0.04678756 -0.28546572 -0.015334398 0.23654476 -0.31325012 0.2733899 -0.105554774 -0.2072097
-0.21442778 0.15218666 0.05588144 0.100118876 0.23793003 -0.29058552 0.17096269 0.029525131
0.052328974 -0.25625074 0.29462394 0.2604604 0.23616341 0.21044853 0.035682976 -0.2294141
-0.04667014 -0.31318396 0.15070617 -0.073979914 -0.108860865 -0.25222504 -0.30034944 -0.29050195
0.045244396 -0.22100426 0.2095016 -0.010403335 0.16256137 0.020576123 -0.60103625 0.5122451
-0.30683032 -0.2651465 0.031100005 -0.009419322 0.2876757 0.19222894 0.24809322 -0.041138023
-0.20167476 0.18694505 -0.315002 0.1681118 -0.23341802 -0.30855572 -0.11599474 0.25474754
0.0050897 -0.017416269 0.25868514 0.29442236 -0.14132336 0.23124436 -0.2529762 -0.24377242
-0.07593417 0.017896622 1.3301297 -0.007722673 -0.46653005 1.744734 -0.27304408 0.30558357
-0.059753448 -0.015768737 0.161793 0.018928677 -0.21898764 -0.19059372 0.1287382 0.0722878
-0.06031972 0.31275585 0.13603458 0.011251122 0.29792288 0.21248391 0.31265953 -0.01573959
0.1514585 -0.07731435 0.09194341 0.025169939 -0.13045172 -0.07494989 -0.15848961 -0.08941816
0.81601673 -0.005427591 -0.44282654 0.032178864 -0.10422124 -0.14298144 0.30449805 0.2080029
0.29473022 0.16767234 0.40991327 0.07672087 -0.22931169 0.6052911 -0.31200334 0.04386887
-0.2701284 0.27540413 -0.3108297 0.13704935 0.6511175 0.0090784365 0.26191816 1.494823
-0.073514655 -0.15300164 -0.26515198 -0.007084757 0.24761596 -0.18356185 0.20389697 0.058331516
0.8147562 0.4274382 0.09445596 0.31514934 0.043920457 0.11263457 -0.10139103 0.2518032
-0.41082123 -0.0005209357 0.026843444 0.31351492 0.07316521 -0.26835388 0.2781088 -0.12584618
-0.15178213 -0.27125713 -0.14365971 -0.00049589504 -0.014685903 -0.24369085 0.012393296 0.25560573
0.2783865 0.21085063 -0.028058887 -0.14136815 0.75809115 0.027023008 -0.40702122 0.69366544
-0.03323582 0.16461942 0.106847495 -0.24128973 -0.28953052 0.016082168 0.06222841 -0.23015434
0.21927771 0.21411279 -0.18297525 -0.106300324 -0.07146007 -0.21135682 0.2193928 -0.08329253
-0.6292835 0.009358897 -0.22961123 0.09327317 -0.12633047 -0.092473865 -0.3057732 -0.30164868
-0.24854217 -0.29402116 0.5763379 0.07781053 -0.529208 1.0426298 -0.1838137 0.050847262
00000000: 5171 9f3d e17c 2f3e aac3 00bf 33ce 8a3f
00000010: 8097 513b 1c1f 043e c2a7 69be 2ed8 b1bd
00000020: bca9 ce3d 79c1 9ebe 4b80 c63d 7376 e53d
00000030: 9c32 02bf 86f2 bdbe 8039 e03d c305 21be
00000040: 426d 53be 58c4 063e 01fc 983e f5ec 0bbe
00000050: 9337 e9be 3900 ba3c 7cab 1fbe 7c7c c4be
00000060: e20d 433e fc78 e93d ac5b 183e a614 5fbe
00000070: 80c2 14be 65ba 27be f707 743f 8b41 0b3d
00000080: 0331 3a3d 5970 483f 2f94 8c3e f48e e8bd
00000090: c058 1f3d a794 15be 2bf7 5cbe f032 ac3d
000000a0: e9bb 883e ae58 eebd 7be0 903e 20d6 363e
000000b0: a6d0 473e 301f ab3d 380a 70be f8b5 02bd
000000c0: cd6c 853e 94fe 8f3d 8a3a fd3e c560 a23d
000000d0: 657c febe 0e46 e03e 167e 763e 2917 25be
000000e0: 7c15 843d 7f00 9f3e c6ee 91be 9f86 a13e
000000f0: a689 d9be b45a 9f3d 5063 acbe 074a d1bd
00000100: 50a4 3f3d 9028 92be 203d 7bbc ca38 723e
00000110: 5262 a0be c3f9 8b3e 1a2d d8bd c82e 54be
00000120: f592 5bbe d2d6 1b3e f0e3 643d 200b cd3d
00000130: eea3 733e a0c7 94be d810 2f3e b0de f13c
00000140: e856 563d 4c33 83be f3d8 963e 115b 853e
00000150: d2d4 713e d27f 573e 5028 123d 88eb 6abe
00000160: 3029 3fbd a659 a0be b852 1a3e c882 97bd
00000170: 72f2 debd a423 81be 67c7 99be acbc 94be
00000180: 3052 393d f14e 62be 9687 563e c072 2abc
00000190: 7d76 263e 428f a83c 83dd 19bf 7f22 033f
000001a0: dd18 9dbe 48c1 87be 70c5 fe3c 8053 1abc
000001b0: 3b4a 933e aad7 443e 260c 7e3e 5880 28bd
000001c0: d483 4ebe 866e 3f3e f147 a1be 8025 2c3e
000001d0: 2205 6fbe 04fb 9dbe a68e edbd 456e 823e
000001e0: 80c7 a63b 90ac 8ebc 6172 843e 87be 963e
000001f0: 12b7 10be 52cb 6c3e 1986 81be 7a9f 79be
00000200: 6083 9bbd f09b 923c b141 aa3f 7a0e fdbb
00000210: 07dd eebe 7253 df3f 6fcc 8bbe 7375 9c3e
00000220: 08c0 74bd 702d 81bc 10ad 253e 5010 9b3c
00000230: 4c3e 60be 002b 43be f2d3 033e a00b 943d
00000240: d011 77bd 8921 a03e a64c 0b3e a056 383c
00000250: 5989 983e 6295 593e e914 a03e 50f0 80bc
00000260: f017 1b3e fc56 9ebd d44c bc3d 3031 ce3c
00000270: 2395 05be 547f 99bd 1a4b 22be de20 b7bd
00000280: 79e6 503f efd9 b1bb 29ba e2be fccd 033d
00000290: f271 d5bd ba69 12be 2be7 9b3e b6fe 543e
000002a0: e1e6 963e 4cb2 2b3e 27e0 d13e d51f 9d3d
000002b0: afd0 6abe 5cf4 1a3f e7be 9fbe d8af 333d
000002c0: 454e 8abe c501 8d3e 1225 9fbe aa56 0c3e
000002d0: a3af 263f b9bd 143c 231a 863e 5c56 bf3f
000002e0: da8e 96bd 76ac 1cbe 00c2 87be 4027 e8bb
000002f0: 0a8f 7d3e a3f7 3bbe 5eca 503e 07ed 6e3d
00000300: dd93 503f 2ed9 da3e 2072 c13d 415b a13e
00000310: f0e5 333d f4ac e63d 1aa6 cfbd 59ec 803e
00000320: 2957 d2be 678f 08ba c8e6 db3c 0785 a03e
00000330: a4d7 953d ae65 89be 4764 8e3e d2dd 00be
00000340: c66c 1bbe 37e2 8abe 881b 13be f4fe 01ba
00000350: 249d 70bc 188a 79be 400d 4b3c c1de 823e
00000360: ad88 8e3e 3ae9 573e c0db e5bc d0c2 10be
00000370: 4312 423f 5b5f dd3c 1665 d0be 0f94 313f
00000380: 4822 08bd fe91 283e dcd2 da3d a814 77be
00000390: 583d 94be c0be 833c 38e3 7e3d 94ad 6bbe
000003a0: 568a 603e 6240 5b3e dd5d 3bbe fcb3 d9bd
000003b0: a859 92bd ec6d 58be 82a8 603e 4695 aabd
000003c0: b918 21bf 0f56 193c 351f 6bbe 0106 bf3d
000003d0: c65c 01be f062 bdbd 4e8e 9cbe b271 9abe
000003e0: d781 7ebe f189 96be e18a 133f 215b 9f3d
000003f0: 2d7a 07bf e574 853f a939 3cbe 3845 503d

net.0.bias f4 [128]
0.72644776 -0.4015865 -0.35447314 0.28710493 0.18008858 0.23987229 -0.09212933 0.021337181
-0.100217715 -0.255632 0.29786736 0.00059086084 -0.2469579 0.3784156 -0.17789158 0.24054047
0.47272006 0.61981636 0.44587776 0.33484146 -0.42468512 -0.15033244 0.5258702 0.09350604
-0.4017852 0.19360285 0.21434 -0.11857003 0.015494525 0.5006232 0.23719245 0.60606694
-0.24628976 0.60392493 -0.0050194263 -0.4021918 0.14738497 -0.058357507 0.22202185 0.3333858
0.79307866 -0.2931263 0.31563088 0.23400792 0.16911805 -0.09268918 0.5662817 0.27319416
-0.08088285 0.03812322 0.47617346 -0.18227082 -0.009072572 0.3914674 -0.3064351 0.28964862
0.13371444 0.51625985 0.059123635 0.4363153 -0.65130925 -0.12236641 -0.14865907 -0.1597994
-0.013514996 0.07198912 0.55255634 -0.17169227 0.0036327243 -0.1632441 0.13239935 0.22539344
0.28410485 -0.3112308 -0.4563775 -0.0139758885 0.65604395 -0.5165679 0.5198875 0.2863761
0.5609917 0.24053995 0.270487 0.1948117 -0.048674703 0.19211963 -0.19522223 -0.09553997
-0.012942682 0.07451433 -0.10084224 -0.313686 -0.2568722 0.22887847 0.05941423 -0.1262864
-0.14134657 0.1998268 -0.2200719 0.016235232 -0.67264223 0.30098927 0.49393326 -0.054011013
-0.012995265 0.14432077 0.18099333 0.2537469 0.38932416 0.27230975 -0.2605593 0.23143044
0.0027991463 0.3077425 0.37004682 -0.21032754 -0.19162342 0.30041203 -0.114023626 0.1359965
0.06315917 -0.21382226 0.23609778 -0.07679187 0.6619262 0.30057707 0.4829829 0.37319878
00000000: 7bf8 393f bf9c cdbe 817d b5be 6bff 923e
00000010: 2469 383e 15a1 753e 4dae bcbd 50cb ae3c
00000020: f23e cdbd 33e2 82be 1282 983e 00e4 1a3a
00000030: 88e2 7cbe b1bf c13e 3629 36be 3e50 763e
00000040: 5d08 f23e 49ac 1e3f 174a e43e 5770 ab3e
00000050: 5470 d9be bff0 19be 6e9f 063f 1880 bf3d
00000060: cab6 cdbe d33f 463e f27b 5b3e d8d4 f2bd
00000070: c0dc 7d3c d828 003f 94e2 723e 3427 1b3f
00000080: 6233 7cbe d39a 1a3f 007a a4bb 15ec cdbe
00000090: 16ec 163e 4808 6fbd b259 633e 8bb1 aa3e
000000a0: 3407 4b3f a714 96be 5f9a a13e c69f 6f3e
000000b0: 482d 2d3e d3d3 bdbd d6f7 103f 1be0 8b3e
000000c0: e8a5 a5bd 1827 1c3d 02cd f33e 34a5 3abe
000000d0: 20a5 14bc 6a6e c83e 10e5 9cbe d34c 943e
000000e0: 70ec 083e 9b29 043f a02b 723d b864 df3e
000000f0: 34bc 26bf 3e9b fabd 153a 18be 74a2 23be
00000100: 006e 5dbc 086f 933d 5574 0d3f 19d0 2fbe
00000110: 0013 6e3b 7629 27be b293 073e 8acd 663e
00000120: 3176 913e a559 9fbe 50aa e9be 20fb 64bc
00000130: 7ff2 273f cb3d 04bf 5917 053f e39f 923e
00000140: 279d 0f3f 1b50 763e 467d 8a3e b87c 473e
00000150: 205f 47bd 02bb 443e 56e8 47be 76aa c3bd
00000160: 8b0d 54bc f89a 983d 6086 cebd 749b a0be
00000170: c184 83be 1e5f 6a3e 565c 733d 3951 01be
00000180: 28bd 10be 669f 4c3e 875a 61be c0ff 843c
00000190: 4832 2cbf 441b 9a3e d2e4 fc3e a73a 5dbd
000001a0: 18ea 54bc d3c8 133e 5156 393e 1deb 813e
000001b0: 7f55 c73e 2f6c 8b3e 0768 85be 1afc 6c3e
000001c0: e271 373b 6d90 9d3e c776 bd3e 1a60 57be
000001d0: ee38 44be 9bcf 993e 3885 e9bd ab42 0b3e
000001e0: 9859 813d 39f4 5abe 9ec3 713e 0e45 9dbd
000001f0: ff73 293f 3de5 993e 8949 f73e e913 bf3e

net.2.weight f4 [128, 128]
-0.076248065 -0.058350246 0.06864992 -0.066824265 0.076324694 -0.025530092 0.03992038 0.007056214
0.045021646 0.085222386 -0.026585016 -0.083359174 -0.005097516 -0.0021571426 -0.0037877187 0.012154929
-0.0877304 -0.017554885 0.01317595 -0.007862374 -0.030894697 0.07238784 0.007077802 -0.040741082
0.019919518 -0.0015013532 -0.05553817 0.03392403 -0.060543463 -0.009200263 -0.074188314 -0.06987352
-0.08583779 -0.03838922 0.019063704 -0.053308833 0.013662331 0.07636034 0.0056072623 -0.081861556
-0.032234948 -0.080908775 -0.044631034 0.059211142 0.0041012764 0.053707216 -0.029727057 -0.052654013
0.025637843 -0.015859723 0.056260396 0.042646993 0.087786146 0.008529376 0.07784744 0.07902112
-0.030234 -0.08907591 0.060792662 0.011487809 0.03481495 0.019816354 -0.009845503 -0.07146606
-0.041831642 -0.057647206 0.012994388 0.03988717 0.024424128 -0.05251823 -0.08741166 -0.04244568
-0.011329874 -0.06797667 0.009941322 -0.049030438 -0.033689484 -0.0046769963 0.047480322 0.081043474
0.026813122 0.006496003 0.05771493 -0.025177255 0.08744065 -0.0742882 0.0100281015 -0.0450503
0.033953052 0.02729375 0.00774619 -0.065814875 0.08311946 -0.04203494 -0.03435649 0.033391885
-0.08049436 0.04826642 0.052913792 -0.070578404 0.06208524 0.069465645 0.027725859 -0.010534581
0.013679378 -0.090566084 -2.685087e-05 0.01761713 -0.03623424 0.033279106 0.019833643 0.080400564
1.7741475e-05 -0.05426807 0.04842187 -0.052951045 -0.06346823 0.0067650527 -0.029001132 0.045053646
-0.05287829 -0.08821254 -0.06058854 0.021184564 -0.059753325 0.071613304 0.027505301 -0.04263057
0.07340596 -0.038703892 0.0379361 0.0754799 0.047019176 -0.040485725 0.06473368 0.0649431
0.012559183 -0.054089777 -0.05263428 0.0066825077 -0.0063029155 -0.00084634125 -0.0006514117 -0.027734838
0.04581704 -0.073153965 0.076877065 0.06042195 0.010109678 0.06436882 -0.07242499 -0.061426483
0.024206422 -0.074073486 -0.08053008 -0.03183303 0.031739376 0.07269441 0.033655226 -0.038228866
-0.031227738 -0.07982093 0.07380056 -0.033703852 -0.05040964 -0.04060672 -0.08057874 -0.07091433
0.034991115 0.02014552 -0.038381502 0.06510081 -0.031785022 -0.031973504 0.0229026 -0.059996195
0.0761138 -0.021627337 -0.0356326 0.022820652 -0.052926134 -0.045159463 0.06385163 0.030370608
-0.053840384 0.03234154 0.07544 -0.066765815 -0.003994517 -0.06484322 -0.08609703 -0.03842214
-0.015049458 -0.029599648 0.049369268 -0.010701045 -0.05539743 -0.04833346 0.05270984 -0.029012784
0.06514043 -0.07779041 -0.051635116 -0.00958693 -0.05014984 -0.019882165 -0.04777444 0.06918689
-0.080638096 0.047188245 0.041778646 0.055234157 -0.023413405 -0.046686158 -0.08149213 -0.0043369234
0.047219448 -0.08767202 0.078263886 -0.0070561916 -0.0783631 0.0101842135 -0.06827946 -0.03280153
0.026238225 -0.06944005 0.020161062 0.085897766 -0.08124965 -0.0016454831 0.034230724 0.033840336
-0.07118814 0.021824248 -0.08552925 -0.006072402 -0.014357664 0.02048491 -0.047545172 -0.007195689
-0.031779587 0.04369182 0.07022791 0.066876374 -0.048326608 0.055122696 -0.027102131 -0.019007668
-0.07262396 -0.005602129 0.013423078 0.08277605 0.0071199015 0.04255099 0.0431258 -0.07259692
00000000: f227 9cbd ab00 6fbd 5498 8c3d 29db 88bd
00000010: 1f50 9c3d 7c24 d1bc 8d83 233d d037 e73b
00000020: 9e68 383d 1389 ae3d d2c8 d9bc 37b8 aabd
00000030: 1009 a7bb d95e 0dbb 603b 78bb 7825 473c
00000040: ffab b3bd 43cf 8fbc f1df 573c 30d1 00bc
00000050: e016 fdbc 1340 943d e8ec e73b 1fe0 26bd
00000060: 422e a33c 0ec9 c4ba fe7b 63bd ecf3 0a3d
00000070: 6cfc 77bd b3bc 16bc 0bf0 97bd d919 8fbd
00000080: b9cb afbd 043e 1dbd 7c2b 9c3c 5d5a 5abd
00000090: f8d7 5f3c cf62 9c3d 20bd b73b 08a7 a7bd
000000a0: cb08 04bd 80b3 a5bd 08cf 36bd 6287 723d
000000b0: 0064 863b 19fc 5b3d 2886 f3bc bcab 57bd
000000c0: 7406 d23c 40ec 81bc 4d71 663d 9dae 2e3d
000000d0: 39c9 b33d ccbe 0b3c 7b6e 9f3d d3d5 a13d
000000e0: 4bad f7bc 6e6d b6bd ba01 793d 5d37 3c3c
000000f0: 1f9a 0e3d e855 a23c 084f 21bc cc5c 92bd
00000100: a857 2bbd 7a1f 6cbd 6ae6 543c bb60 233d
00000110: 1c15 c83c 5b1d 57bd e204 b3bd 85db 2dbd
00000120: f0a0 39bc 5a37 8bbd ede0 223c 24d4 48bd
00000130: fcfd 09bd 7d41 99bb ba7a 423d 1ffa a53d
00000140: 31a7 db3c 6cdc d43b 7e66 6c3d 8840 cebc
00000150: 1514 b33d 6924 98bd e84c 243c aa86 38bd
00000160: 5b12 0b3d 2497 df3c c0d3 fd3b f3c9 86bd
00000170: 893a aa3d d42c 2cbd 64b9 0cbd eec5 083d
00000180: 3ada a4bd 02b3 453d 22bc 583d 698b 90bd
00000190: 184d 7e3d 0144 8e3d 5721 e33c 3c99 2cbc
000001a0: 781f 603c b67a b9bd ce3d e1b7 cd51 903c
000001b0: 5b6a 14bd ac4f 083d 2a7a a23c 0da9 a43d
000001c0: 87d3 9437 3248 5ebd 0356 463d 32e3 58bd
000001d0: a2fb 81bd 60ad dd3b c893 edbc 2c8a 383d
000001e0: e896 58bd c7a8 b4bd b02b 78bd 408b ad3c
000001f0: e7bf 74bd ffa9 923d cc52 e13c 649d 2ebd
00000200: dd55 963d f987 1ebd e262 1b3d 3595 9a3d
00000210: 2e97 403d 5cd4 25bd 1793 843d e300 853d
00000220: 08c5 4d3c 3e8d 5dbd 0b97 57bd f0f8 da3b
00000230: b088 cebb 00dd 5dba 80c3 2aba 2c34 e3bc
00000240: a6aa 3b3d bfd1 95bd b971 9d3d 027d 773d
00000250: 10a3 253c cdd3 833d 8e53 94bd 569a 7bbd
00000260: 8c4c c63c d7b3 97bd f4ec a4bd 5a63 02bd
00000270: 2601 023d cfe0 943d 10da 093d df95 1cbd
00000280: 50d1 ffbc 2879 a3bd bf24 973d 0d0d 0abd
00000290: 577a 4ebd 3b53 26bd 7706 a5bd 883b 91bd
000002a0: d852 0f3d 3808 a53c ec35 1dbd 9353 853d
000002b0: 0331 02bd a6f6 02bd 3c9e bb3c 92be 75bd
000002c0: 8de1 9b3d d02b b1bc 7df3 11bd 60f2 ba3c
000002d0: 13c9 58bd 21f9 38bd a5c4 823d c8cb f83c
000002e0: bc87 5cbd 9078 043d 4980 9a3d 84bc 88bd
000002f0: 70e4 82bb 86cc 84bd a453 b0bd 8960 1dbd
00000300: 0092 76bc f67a f2bc 6e37 4a3d 7053 2fbc
00000310: 6ae8 62bd 4ef9 45bd 46e6 573d 38ac edbc
00000320: 5968 853d 9450 9fbd 587f 53bd 8012 1dbc
00000330: eb69 4dbd ecdf a2bc 22af 43bd dbb1 8d3d
00000340: 9625 a5bd 7648 413d 1620 2b3d 363d 623d
00000350: 78cd bfbc fc39 3fbd 59e5 a6bd c01c 8ebb
00000360: 2e69 413d 638d b3bd d148 a03d a037 e7bb
00000370: d57c a0bd b0db 263c 1ad6 8bbd e65a 06bd
00000380: 8cf1 d63c 9636 8ebd d028 a53c 2beb af3d
00000390: 3766 a6bd 40ad d7ba 8435 0c3d 2a9c 0a3d
000003a0: 16cb 91bd c4c8 b23c f629 afbd 00fb c6bb
000003b0: 683c 6bbc f8cf a73c babe 42bd d0c9 ebbb
000003c0: 502b 02bd 32f6 323d a7d3 8f3d 7bf6 883d
000003d0: 1ff2 45bd 56c8 613d 4a05 debc f8b5 9bbc
000003e0: dfbb 94bd 1092 b7bb 78ec 5b3c 7d86 a93d
000003f0: 104e e93b f249 2e3d aea4 303d b2ad 94bd

net.2.bias f4 [128]
0.07320208 -0.06435398 -0.037459023 -0.071826085 -0.03434276 0.04590926 0.04971419 0.058675643
-0.08418445 -0.047836725 0.08810201 -0.04068882 0.4753562 0.013082266 -0.04282009 0.02928241
0.03795514 0.036592454 0.030897258 0.36057073 -0.041580174 -0.049384084 0.44303167 0.001775032
0.27001148 -0.006282037 -0.049297903 0.13238123 0.09737361 -0.021007486 -0.018556735 -0.04235283
0.036369525 -0.033269055 -0.059152417 -0.037472196 -0.03319554 -0.028302407 0.071810886 0.1242019
0.3439977 0.075351365 -0.08479365 0.5272427 -0.087941125 0.033440843 -0.03286277 0.0071728528
0.50260884 -0.031935573 -0.04868511 -0.053529512 -0.03687826 -0.0035598353 -0.08228572 0.0054130554
0.5034958 -0.050749794 0.17792107 -0.047640175 0.16142015 -0.040034804 -0.07120138 -0.03946603
0.11368487 0.039462604 -0.018885657 -0.07772672 -0.107625544 0.08896498 0.030472416 0.022030368
0.053866036 0.019159757 0.065218076 0.22990488 -0.080589905 -0.08378789 0.0012035366 -0.051706426
0.67658305 0.3331374 0.0710318 0.034503177 0.1177435 -0.013677165 -0.009857295 -0.011243988
-0.06660966 0.42614743 -0.06497415 0.062710784 0.047853835 -0.07813269 -0.081834845 -0.06972043
-0.016217114 -0.049549226 0.03909399 -0.090642355 0.053207107 0.58904916 -0.0064722598 -0.0018994423
-0.08614399 -0.07022495 0.025739558 -0.086632475 -0.0060238983 -0.007399045 -0.08105313 0.05677765
-0.0064421277 -0.08280386 -0.08447748 -0.018407337 0.050356474 0.031860888 -0.0676297 0.047827177
0.45747575 -0.06917659 -0.02160637 0.053075667 0.06755213 0.2249951 0.022421598 0.015263084
00000000: f9ea 953d 05cc 83bd a26e 19bd 8e19 93bd
00000010: feaa 0cbd 590b 3c3d 1ba1 4b3d df55 703d
00000020: e668 acbd 71f0 43bd d46e b43d 52a9 26bd
00000030: e361 f33e 0057 563c 1e64 2fbd aae1 ef3c
00000040: d976 1b3d f8e1 153d 3f1c fd3c ba9c b83e
00000050: f94f 2abd f746 4abd 0cd5 e23e 31a8 e83a
00000060: f23e 8a3e 8cd9 cdbb 99ec 49bd f28e 073e
00000070: d16b c73d e417 acbc 4b04 98bc 297a 2dbd
00000080: 36f8 143d 2245 08bd ce49 72bd 727c 19bd
00000090: 0cf8 07bd 73da e7bc 9611 933d 915d fe3d
000000a0: 7720 b03e d151 9a3d 4ba8 adbd 61f9 063f
000000b0: 7a1a b4bd 44f9 083d 1d9b 06bd 400a eb3b
000000c0: f9aa 003f e0ce 02bd 0a6a 47bd c341 5bbd
000000d0: a90d 17bd 204c 69bb 6a85 a8bd 0060 b13b
000000e0: 1ae5 003f 04df 4fbd f130 363e 5822 43bd
000000f0: 534b 253e 89fb 23bd 07d2 91bd 22a7 21bd
00000100: 9dd3 e83d 8aa3 213d 18b6 9abc 302f 9fbd
00000110: c86a dcbd 4533 b63d 4aa1 f93c 0879 b43c
00000120: a2a2 5c3d ecf4 9c3c 0e91 853d 2f6c 6b3e
00000130: 520c a5bd fc98 abbd fdbf 9d3a 1eca 53bd
00000140: 8c34 2d3f fc90 aa3e 1f79 913d 3453 0d3d
00000150: 8123 f13d 3016 60bc 7e80 21bc b438 38bc
00000160: a56a 88bd ff2f da3e 2b11 85bd 836e 803d
00000170: 6202 443d 0804 a0bd 0799 a7bd 96c9 8ebd
00000180: c1d9 84bc 21f4 4abd 0521 203d b3a2 b9bd
00000190: b2ef 593d edcb 163f 4015 d4bb b5f6 f8ba
000001a0: 436c b0bd 19d2 8fbd c4db d23c 5e6c b1bd
000001b0: 1f64 c5bb b073 f2bb 2fff a5bd ae8f 683d
000001c0: 7c18 d3bb 1295 a9bd 8702 adbd fcca 96bc
000001d0: 9742 4e3d 9080 023d 7181 8abd 6ee6 433d
000001e0: 433a ea3e 75ac 8dbd d8ff b0bc df65 593d
000001f0: c558 8a3d 1e65 663e 80ad b73c 0412 7a3c

net.4.weight f4 [6, 128]
0.011201814 0.031143658 0.05175116 -0.05323893 -0.052030653 -0.0075303456 -0.044428494 0.017455729
-0.061593067 -0.04715128 0.02672882 -0.05630974 0.020324273 -0.012803927 -0.004602998 -0.0041706567
0.029783547 0.017298035 -0.05525023 0.038471036 0.065281145 0.036774777 0.026824923 -0.06388167
0.0022535145 -0.008753179 -0.00016904193 0.013879984 0.011328802 0.0872942 -0.015714377 -0.053536665
0.08450129 0.033352427 -0.024721824 -0.010545062 0.036883816 -0.036866236 -0.046378694 -0.009946738
0.0062028808 -0.062842764 -0.10289442 0.08244782 0.034864165 -0.075420894 0.031394564 0.019981146
0.07622434 0.0032890402 -0.040476706 0.056389105 0.024757184 -0.08829751 0.016568683 0.07741634
0.03337432 0.041999258 -0.0043886052 -0.045167983 -0.0012880169 -0.005108364 -0.04559091 0.07970153
0.0023881176 0.07792341 -0.011630736 -0.08386696 -0.011573887 -0.022435874 -0.03645033 0.06999191
-0.008850753 -0.023091532 -0.012543861 -0.012103794 -0.0678833 -0.05596579 0.029756106 -0.052419346
0.07180542 0.021031909 0.0005810594 -0.071761005 0.015690776 0.008906484 -0.030029219 -0.012724155
0.0598721 0.01637589 -0.054712128 0.027430251 0.054277845 0.062083535 0.033490874 0.018837878
0.024705965 0.034327284 -0.06994183 -0.021283515 0.05138666 0.095871076 -0.047813553 0.08193398
-0.011994474 -0.037273332 0.020731421 -0.0141739845 0.02552468 -0.0868839 -0.061908513 0.041392706
-0.07404491 -0.08026257 -0.085569315 0.028398491 0.010184311 -0.039519846 0.021857789 0.073212184
0.022366721 -0.0769462 0.018748844 -0.015370637 -0.016041458 -0.0072969324 0.060620375 -0.005962988
-0.059299648 -0.08208662 -0.06319062 -0.087391414 -0.08790601 -0.021368084 0.06144253 0.027249524
-0.080843955 0.00031017867 -0.007467859 -0.044568222 0.056448292 -0.0059504732 0.055956334 -0.008650753
-0.008403589 -0.046584733 -0.018398764 0.011061514 -0.011807121 0.025318295 0.018971993 -0.026204605
0.0018860293 0.01626603 0.08323026 0.015373659 -0.026442468 -0.06047528 -0.022876453 0.06750562
0.033278104 -0.007027683 -0.06146649 -0.03589673 0.021863135 0.03949643 -0.035673812 0.023172846
-0.0026496493 0.057538636 0.06338241 0.06604221 -0.0052484646 0.027780306 -0.036601156 0.009644337
0.08097028 -0.0022730697 0.058329232 -0.058705416 -0.01923754 0.06260622 -0.06608645 -0.022911638
0.036216088 -0.034790814 -0.0005716267 -0.042986207 -0.003915463 0.039827935 0.048120916 0.049502492
0.019790998 0.0490411 -0.011270471 0.030164994 0.009643277 -0.031958707 0.05969199 0.024105825
-0.07711597 0.06351335 0.023698179 -0.0011953133 0.037056897 -0.08305136 -0.044634596 0.059610866
0.09695316 0.0106604975 0.025883963 0.07058851 0.012710889 -0.012149059 0.08002552 -0.008772034
-0.034940485 0.048242223 0.020458214 -0.057486888 -0.019025236 0.027346592 0.004534915 -0.043063864
0.008526541 0.060478054 -0.041269355 -0.06346166 -0.04108948 0.071386665 0.046210296 -0.01574573
0.059292354 -0.04581219 0.019389462 -0.05717931 -0.010072396 0.03457465 -0.047838476 0.016584635
0.009552953 -0.009558402 -0.021522425 -0.08149262 0.020365307 -0.024569381 0.065538414 -0.017838612
0.007899214 0.007774154 0.0052368175 -0.049108285 0.008989982 0.02221727 0.025359988 0.076516666
00000000: d087 373c fc20 ff3c 06f9 533d 1011 5abd
00000010: 181e 55bd 1ec1 f6bb a7fa 35bd 51ff 8e3c
00000020: 0349 7cbd b321 41bd 66f6 da3c 0ba5 66bd
00000030: 177f a63c 90c7 51bc bfd4 96bb 01aa 88bb
00000040: a0fc f33c 9cb4 8d3c 114e 62bd ce93 1d3d
00000050: 1fb2 853d 26a1 163d f1bf db3c 65d4 82bd
00000060: b3af 133b 7e69 0fbc d940 31b9 df68 633c
00000070: 719c 393c 4dc7 b23d 70bb 80bc 4349 5bbd
00000080: 030f ad3d 8e9c 083d 6c85 cabc 32c5 2cbc
00000090: 7c13 173d 0d01 17bd 96f7 3dbd a5f7 22bc
000000a0: 8941 cb3b b5b3 80bd 4fba d2bd 67da a83d
000000b0: bacd 0e3d 4576 9abd 9697 003d 80af a33c
000000c0: 821b 9c3d f08c 573b e7ca 25bd 43f8 663d
000000d0: 94cf ca3c 53d5 b4bd 0cbb 873c 758c 9e3d
000000e0: 83b3 083d 6a07 2c3d 4ace 8fbb 1002 39bd
000000f0: add2 a8ba 1064 a7bb 89bd 3abd 8e3a a33d
00000100: f781 1c3b 4f96 9f3d d88e 3ebc 71c2 abbd
00000110: 67a0 3dbc 70cb b7bc f14c 15bd eb57 8f3d
00000120: c002 11bc 742a bdbc c484 4dbc fe4e 46bc
00000130: 6606 8bbd 623c 65bd 14c3 f33c abb5 56bd
00000140: b80e 933d 1c4b ac3c 3c52 183a 6ff7 92bd
00000150: f189 803c 80ec 113c d6ff f5bc f978 50bc
00000160: 723c 753d bb26 863c d319 60bd 68b5 e03c
00000170: 7252 5e3d 4e4b 7e3d ba2d 093d e551 9a3c
00000180: 2a64 ca3c c49a 0c3d aa3d 8fbd c45a aebc
00000190: d27a 523d 0e58 c43d 25d8 43bd 01cd a73d
000001a0: 7884 44bc ecab 18bd f1d4 a93c 003a 68bc
000001b0: 2219 d13c 30f0 b1bd c893 7dbd 668b 293d
000001c0: dca4 97bd b460 a4bd f73e afbd f4a3 e83c
000001d0: 19dc 263c 90df 21bd 1b0f b33c 45f0 953d
000001e0: 6a3a b73c f895 9dbd 2d97 993c 20d5 7bbc
000001f0: 6069 83bc 1b1b efbb 124d 783d 2b65 c3bb
00000200: 30e4 72bd 081d a8bd 156a 81bd 45fa b2bd
00000210: 1108 b4bd 1f0c afbc 2aab 7b3d 653a df3c
00000220: 8491 a5bd 7a9f a239 f1b4 f4bb 2b8d 36bd
00000230: 5336 673d 30fc c2bb 7832 653d e3bb 0dbc
00000240: 35af 09bc a2cf 3ebd 01b9 96bc 5a3b 353c
00000250: a872 41bc 5068 cf3c 276b 9b3c 0aab d6bc
00000260: a434 f73a 5640 853c a074 aa3d cde1 7b3c
00000270: e09d d8bc edb4 77bd 6667 bbbc 6340 8a3d
00000280: 9f4e 083d 7a48 e6bb 49c4 7bbd 7308 13bd
00000290: 511a b33c 02c7 213d b41e 12bd fbd4 bd3c
000002a0: bda5 2dbb a2ad 6b3d a3ce 813d 2341 873d
000002b0: 50fb abbb 8693 e33c 18eb 15bd 4803 1e3c
000002c0: bfd3 a53d c8f7 14bb a2ea 6e3d 1775 70bd
000002d0: 0c98 9dbc b137 803d 5558 87bd 30b1 bbbc
000002e0: 5257 143d d080 0ebd 38d9 15ba 4e12 30bd
000002f0: 494d 80bb 9e22 233d 701a 453d 20c3 4a3d
00000300: bb20 a23c 52df 483d c8a7 38bc 941c f73c
00000310: d6fe 1d3c 22e7 02bd 977f 743d 9479 c53c
00000320: faee 9dbd 4a13 823d af22 c23c 0fac 9cba
00000330: f9c8 173d d516 aabd c4d2 36bd 862a 743d
00000340: 618f c63d 5ea9 2e3c 9b0a d43c b590 903d
00000350: 5541 503c d90c 47bc 6be4 a33d 94b8 0fbc
00000360: c11d 0fbd a399 453d fc97 a73c 5f77 6bbd
00000370: d0da 9bbc f605 e03c a099 943b bc63 30bd
00000380: e8b2 0b3c d6b7 773d 0e0a 29bd 30f8 81bd
00000390: 714d 28bd 2c33 923d 0247 3d3d 30fd 80bc
000003a0: 8adc 723d 90a5 3bbd a6d6 9e3c da34 6abd
000003b0: b106 25bc 269e 0d3d 47f2 43bd 80dc 873c
000003c0: fd83 1c3c d89a 1cbc cc4f b0bc 9ae5 a6bd
000003d0: 25d5 a63c ba45 c9bc 0139 863d 4822 92bc
000003e0: b46b 013c 55be fe3b 9c99 ab3b c525 49bd
000003f0: b84a 133c fe00 b63c c0bf cf3c c5b4 9c3d

net.4.bias f4 [6]
0.41703674 0.3672792 0.38343883 0.2915425 0.3496559 0.37153545
00000000: d785 d53e 050c bc3e 1852 c43e 0f45 953e
00000010: 1906 b33e e539 be3e
