models/dqn/Monopoly/dqn_monopoly_model_ep400.pth (torch, 77746 bytes, 6 tensors)

net.0.weight f4 [128, 10]
0	0x3dba6edb	0.09103175
1	0x3dd779b1	0.10521258
2	0xc0150f08	-2.3290424
3	0x3eccaea2	0.39976984
4	0x3b519780	0.003198117
5	0x3e041f1c	0.12902492
6	0xbe69a7c2	-0.22817901
7	0xbdb1d82e	-0.08683811
8	0x3dcea9bc	0.10090968
9	0xbe9ec179	-0.31006983
10	0x3d72abf9	0.059246037
11	0xbb97941f	-0.0046258117
12	0xbf391488	-0.72296953
13	0xbf13501b	-0.57544106
14	0x3de03980	0.10948467
15	0xbe2105c3	-0.15724854
16	0xbe536d42	-0.20647147
17	0x3e06c458	0.13160837
18	0x3e98fc01	0.29879764
19	0xbe0becf5	-0.1366461
20	0xbf005360	-0.5012722
21	0xba733df6	-0.0009278947
22	0xbd2d475e	-0.04230439
23	0xbea92421	-0.33035377
24	0x3e430de2	0.19048265
25	0x3de978fc	0.11400029
26	0x3e185bac	0.1487872
27	0xbe5f14a6	-0.2178522
28	0xbe14c280	-0.14527321
29	0xbe27ba65	-0.16379698
30	0x3f8a2b15	1.0794398
31	0xbca7fff1	-0.020507785
32	0xbf959d12	-1.1688559
33	0x3d25e4d1	0.04050142
34	0x3e8c942f	0.27456805
35	0xbde88ef4	-0.11355391
36	0x3d1f58c0	0.038902998
37	0xbe1594a7	-0.14607488
38	0xbe5cf72b	-0.21578662
39	0x3dac32f0	0.08408153
40	0x3e88bbe9	0.26705864
41	0xbdee58ae	-0.11638008
42	0x3e90e07b	0.28296265
43	0x3e36d620	0.1785512
44	0x3e47d0a6	0.19513187
45	0x3dab1f30	0.08355558
46	0xbe700a38	-0.23441398
47	0xbd02b5f8	-0.03191182
48	0x3e856ccd	0.2605957
49	0x3d8ffe94	0.07030979
50	0x3f027830	0.5096464
51	0xbb4ed56a	-0.003156031
52	0xc004fd7d	-2.0779717
53	0xbec1af76	-0.3782918
54	0x3e767e16	0.24071535
55	0xbe251729	-0.16122116
56	0x3d84157c	0.0644941
57	0x3e9f007f	0.31055066
58	0xbe91eec6	-0.28502482
59	0x3ea1869f	0.3154802
60	0xbf12e188	-0.57375383
61	0xba102398	-0.0005498468
62	0xbeaad8b3	-0.33368453
63	0xbe197761	-0.14986946
64	0x3d3fa450	0.04678756
65	0xbe922890	-0.28546572
66	0xbc7b3d20	-0.015334398
67	0x3e7238ca	0.23654476
68	0xbea06252	-0.31325012
69	0x3e8bf9c3	0.2733899
70	0xbdd82d1a	-0.105554774
71	0xbe542ec8	-0.2072097
72	0xbe5b92f5	-0.21442778
73	0x3e1bd6d2	0.15218666
74	0x3d64e3f0	0.05588144
75	0x3dcd0b20	0.100118876
76	0x3e73a3ee	0.23793003
77	0xbe94c7a0	-0.29058552
78	0x3e2f10d8	0.17096269
79	0x3cf1deb0	0.029525131
80	0x3d5656e8	0.052328974
81	0xbe83334c	-0.25625074
82	0x3e96d8f3	0.29462394
83	0x3e855b11	0.2604604
84	0x3e71d4d2	0.23616341
85	0x3e577fd2	0.21044853
86	0x3d122850	0.035682976
87	0xbe6aeb88	-0.2294141
88	0xbd3f2930	-0.04667014
89	0xbea059a6	-0.31318396
90	0x3e1a52b8	0.15070617
91	0xbd9782c8	-0.073979914
92	0xbddef272	-0.108860865
93	0xbe8123a4	-0.25222504
94	0xbe99c767	-0.30034944
95	0xbe94bcac	-0.29050195
96	0x3d395230	0.045244396
97	0xbe624ef1	-0.22100426
98	0x3e568796	0.2095016
99	0xbc2a72c0	-0.010403335
100	0x3db4bacd	0.08824692
101	0xbb91753d	-0.0044390247
102	0xbf3adf70	-0.7299719
103	0x3f015ac6	0.50529134
104	0xbe9d18dd	-0.30683032
105	0xbe87c148	-0.2651465
106	0x3cfec570	0.031100005
107	0xbc1a5380	-0.009419322
108	0x3e934a3b	0.2876757
109	0x3e44d7aa	0.19222894
110	0x3e7e0c26	0.24809322
111	0xbd288058	-0.041138023
112	0xbe4e83d4	-0.20167476
113	0x3e3f6e86	0.18694505
114	0xbea147f1	-0.315002
115	0x3e2c2580	0.1681118
116	0xbe6f0522	-0.23341802
117	0xbe9dfb04	-0.30855572
118	0xbded8ea6	-0.11599474
119	0x3e826e45	0.25474754
120	0x3ba6c780	0.0050897
121	0xbc8eac90	-0.017416269
122	0x3e847261	0.25868514
123	0x3e96be87	0.29442236
124	0xbe10b712	-0.14132336
125	0x3e6ccb52	0.23124436
126	0xbe818619	-0.2529762
127	0xbe799f7a	-0.24377242
128	0xbd9b8360	-0.07593417
129	0x3c929bf0	0.017896622
130	0x3fc1e032	1.5146544
131	0x3ad8d046	0.0016541563
132	0xc01b859c	-2.4300299
133	0x3f86206f	1.0478648
134	0xbe8bcc6f	-0.27304408
135	0x3e9c7573	0.30558357
136	0xbd74c008	-0.059753448
137	0xbc812d70	-0.015768737
138	0x3e25ad10	0.161793
139	0x3c9b1050	0.018928677
140	0xbe603e4c	-0.21898764
141	0xbe432b00	-0.19059372
142	0x3e03d3f2	0.1287382
143	0x3d940ba0	0.0722878
144	0xbd7711d0	-0.06031972
145	0x3ea02189	0.31275585
146	0x3e0b4ca6	0.13603458
147	0x3c3856a0	0.011251122
148	0x3e988959	0.29792288
149	0x3e599562	0.21248391
150	0x3ec8a893	0.39191112
151	0xbd075368	-0.033038527
152	0x3e68363b	0.22676937
153	0xbd161d62	-0.036649115
154	0x3dbc4cd4	0.09194341
155	0x3cce3130	0.025169939
156	0xbe059523	-0.13045172
157	0xbd997f54	-0.07494989
158	0xbe224b1a	-0.15848961
159	0xbdb720de	-0.08941816
160	0x3f86f690	1.0543995
161	0xbd1dce43	-0.038526785
162	0xbd2c0bd6	-0.042003475
163	0xbe8abf48	-0.2709906
164	0xbdd571f2	-0.10422124
165	0xbe1269ba	-0.14298144
166	0x3e9be72b	0.30449805
167	0x3e54feb6	0.2080029
168	0x3e96e6e1	0.29473022
169	0x3e2bb24c	0.16767234
170	0x3eec2be1	0.46127227
171	0x3cdd3220	0.02700144
172	0xbffd4e20	-1.9789467
173	0xbe0989ca	-0.13431469
174	0xbe9fbee7	-0.31200334
175	0x3d33afd8	0.04386887
176	0xbe8a4e45	-0.2701284
177	0x3e8d01c5	0.27540413
178	0xbe9f2512	-0.3108297
179	0x3e0c56aa	0.13704935
180	0x3f3a8bc4	0.72869515
181	0xbd3b35ce	-0.04570561
182	0x3ea9366d	0.33049336
183	0x3f90d064	1.1313596
184	0xbd968eda	-0.073514655
185	0xbe1cac76	-0.15300164
186	0xbe87c200	-0.26515198
187	0xbbe82740	-0.007084757
188	0x3e7d8f0a	0.24761596
189	0xbe3bf7a3	-0.18356185
190	0x3e2c4870	0.16824508
191	0xbc814b1d	-0.015782887
192	0x3f5cda4f	0.8627061
193	0x3e725a33	0.23667221
194	0x3dc17220	0.09445596
195	0x3ea15b41	0.31514934
196	0x3d33e5f0	0.043920457
197	0x3de6acf4	0.11263457
198	0xbdcfa61a	-0.10139103
199	0x3e80ec59	0.2518032
200	0xbed25729	-0.41082123
201	0xba088f67	-0.0005209357
202	0x3cdbe6c8	0.026843444
203	0x3ea08507	0.31351492
204	0x3d95d7a4	0.07316521
205	0xbe8965ae	-0.26835388
206	0x3e8e6447	0.2781088
207	0xbe00ddd2	-0.12584618
208	0xbe1b6cc6	-0.15178213
209	0xbe8ae237	-0.27125713
210	0xbe131b88	-0.14365971
211	0xba01fef4	-0.00049589504
212	0xbc709d24	-0.014685903
213	0xbe798a18	-0.24369085
214	0x3c4b0d40	0.012393296
215	0x3e82dec1	0.25560573
216	0x3e8e88ad	0.2783865
217	0x3e57e93a	0.21085063
218	0xbce5dbc0	-0.028058887
219	0xbe10c2d0	-0.14136815
220	0x3f619e4e	0.8813218
221	0xbd077b4d	-0.033076573
222	0xbec9e26d	-0.39430562
223	0x3e1d9d46	0.15392026
224	0xbd082248	-0.03323582
225	0x3e2891fe	0.16461942
226	0x3ddad2dc	0.106847495
227	0xbe7714a8	-0.24128973
228	0xbe943d58	-0.28953052
229	0x3c83bec0	0.016082168
230	0x3d7ee338	0.06222841
231	0xbe6bad94	-0.23015434
232	0x3e608a56	0.21927771
233	0x3e5b4062	0.21411279
234	0xbe3b5ddd	-0.18297525
235	0xbdd9b3fc	-0.106300324
236	0xbd9259a8	-0.07146007
237	0xbe586dec	-0.21135682
238	0x3e60a882	0.2193928
239	0xbdaa9546	-0.08329253
240	0xbf30e539	-0.69099766
241	0xb997926b	-0.00028910054
242	0xbe25acb4	-0.16179162
243	0x3e06a6e6	0.13149604
244	0xbe015cc6	-0.12633047
245	0xbdbd62f0	-0.092473865
246	0xbe9c8e4e	-0.3057732
247	0xbe9a71b2	-0.30164868
248	0xbe7e81d7	-0.24854217
249	0xbe9689f1	-0.29402116
250	0x3f20054d	0.6250809
251	0x3ca66570	0.020312041
252	0xc010a609	-2.260134
253	0x3e9bfceb	0.304664
254	0xbe3c39a9	-0.1838137
255	0x3d504538	0.050847262

net.0.bias f4 [128]
0	0x405e63c5	3.4748394
1	0xbf1f1f50	-0.62157154
2	0xbeca1867	-0.39471743
3	0x40001906	2.0015273
4	0x3e386924	0.18008858
5	0x402ca8da	2.697806
6	0xbe1cf719	-0.15328635
7	0x3caecb50	0.021337181
8	0xbdcd3ef2	-0.100217715
9	0xbe82e233	-0.255632
10	0x3f05ff9a	0.5234314
11	0x3a1ae400	0.00059086084
12	0xbe7ce288	-0.2469579
13	0x40378716	2.86762
14	0xbe362936	-0.17789158
15	0x3e543a54	0.20725375
16	0x3f65ec60	0.89813805
17	0x40505c66	3.2556396
18	0x3f480f87	0.7814869
19	0x3f0489b7	0.51772636
20	0xbed97054	-0.42468512
21	0xbe19f0bf	-0.15033244
22	0x3f9f27b3	1.243399
23	0x3dbf8018	0.09350604
24	0xbed02314	-0.40651762
25	0x4033766a	2.8041024
26	0x3e5b7bf2	0.21434
27	0xbdf2d4d8	-0.11857003
28	0x3c7ddcc0	0.015494525
29	0x3f27385b	0.65320367
30	0x3f312e21	0.6921101
31	0x404c38c2	3.1909642
32	0xbe7c3362	-0.24628976
33	0x4051dffc	3.279296
34	0xbba47a00	-0.0050194263
35	0xbf12d5d3	-0.5735752
36	0x3e16ec16	0.14738497
37	0xbd6f0848	-0.058357507
38	0x3e6359b2	0.22202185
39	0x3f301361	0.6877957
40	0x405f4e6e	3.489162
41	0xbe9614a7	-0.2931263
42	0x3ea19a5f	0.31563088
43	0x3e69c135	0.22827609
44	0x3e2d2d48	0.16911805
45	0xbdce82ee	-0.100835666
46	0x403d7807	2.960451
47	0x3e8be01b	0.27319416
48	0xbda5a5e8	-0.08088285
49	0x3d1c2718	0.03812322
50	0x4047ed3e	3.123855
51	0xbf01f52c	-0.5076473
52	0xbc14a520	-0.009072572
53	0x400b42b2	2.1759458
54	0xbe9ce510	-0.3064351
55	0x3e944cd3	0.28964862
56	0x40341d5c	2.814292
57	0x401f276d	2.4867814
58	0x3d722ba0	0.059123635
59	0x40072837	2.1118295
60	0xbf496e86	-0.7868427
61	0xbdfa9b3e	-0.12236641
62	0xbe183a15	-0.14865907
63	0x3e70733b	0.23481457
64	0xbc5d6e00	-0.013514996
65	0x3d936f08	0.07198912
66	0x3f8a8f14	1.0824914
67	0xbe5ac4bd	-0.21364112
68	0x3b6e1300	0.0036327243
69	0xbe272976	-0.1632441
70	0x3e0793b2	0.13239935
71	0x3e66cd8a	0.22539344
72	0x3e917631	0.28410485
73	0xbe9f59a5	-0.3112308
74	0xbf16f9d3	-0.5897495
75	0xbc64fb20	-0.0139758885
76	0x3f8a5f97	1.0810422
77	0xbf07ed86	-0.53096807
78	0x404c3318	3.1906185
79	0x3e929fe3	0.2863761
80	0x40532d64	3.2996454
81	0x3ef707d1	0.4824815
82	0x403ddb35	2.9665043
83	0x3f4b44f7	0.79402107
84	0xbd475f20	-0.048674703
85	0x3fa9ae6c	1.3256354
86	0xbe47e856	-0.19522223
87	0xbdc3aa76	-0.09553997
88	0x3e271d1d	0.163197
89	0x3d989af8	0.07451433
90	0xbdce8660	-0.10084224
91	0xbea09b74	-0.313686
92	0xbe8384c1	-0.2568722
93	0x3e49d826	0.1971136
94	0x3e0a5996	0.13510737
95	0xbe015139	-0.1262864
96	0xbe10bd28	-0.14134657
97	0x3e4c9f66	0.1998268
98	0xbe615a87	-0.2200719
99	0x3c84ffc0	0.016235232
100	0xbf3ff020	-0.74975777
101	0x3edd4e62	0.43223864
102	0x3f643a5e	0.8915156
103	0xbd5d3aa7	-0.054011013
104	0x3e524ce1	0.2053714
105	0x40215b0a	2.5211816
106	0x40291717	2.6420343
107	0x4007cd8b	2.1219203
108	0x4043d81f	3.060066
109	0x3e78a3b4	0.24281198
110	0xbed43db5	-0.4145333
111	0x3e6cfc1a	0.23143044
112	0xbe273fa4	-0.1633287
113	0x3e9d906d	0.3077425
114	0x4045788b	3.0854824
115	0xbe57601a	-0.21032754
116	0xbe4438ee	-0.19162342
117	0x3e99cf9b	0.30041203
118	0xbde98538	-0.114023626
119	0x3e11f9d4	0.14255458
120	0x3d815998	0.06315917
121	0xbe5af439	-0.21382226
122	0x3e71c39e	0.23609778
123	0xbd9d450e	-0.07679187
124	0x3fc2dab8	1.5222998
125	0x3e99e53d	0.30057707
126	0x404b74d4	3.1790056
127	0x4045de25	3.0916836

net.2.weight f4 [128, 128]
0	0xbd9c27f2	-0.076248065
1	0xbd6f00ab	-0.058350246
2	0x3d8c9854	0.06864992
3	0xbd88db29	-0.066824265
4	0x3d9c501f	0.076324694
5	0xbcd1247c	-0.025530092
6	0x3d23838d	0.03992038
7	0x3be737d0	0.007056214
8	0x3d38689e	0.045021646
9	0x3dae8913	0.085222386
10	0xbcd9c8d2	-0.026585016
11	0xbdaab837	-0.083359174
12	0xbba70910	-0.005097516
13	0xbb0d5ed9	-0.0021571426
14	0xbb783b60	-0.0037877187
15	0x3c472578	0.012154929
16	0xbdb3abff	-0.0877304
17	0xbc8fcf43	-0.017554885
18	0x3c57dff1	0.01317595
19	0xbc00d130	-0.007862374
20	0xbcfd16e0	-0.030894697
21	0x3d944013	0.07238784
22	0x3be7ece8	0.007077802
23	0xbd26e01f	-0.040741082
24	0x3ca32e42	0.019919518
25	0xbac4c90e	-0.0015013532
26	0xbd637bfe	-0.05553817
27	0x3d0af3ec	0.03392403
28	0xbd77fc6c	-0.060543463
29	0xbc16bcb3	-0.009200263
30	0xbd97f00b	-0.074188314
31	0xbd8f19d9	-0.06987352
32	0xbdafcbb9	-0.08583779
33	0xbd1d3e04	-0.03838922
34	0x3c9c2b7c	0.019063704
35	0xbd5a5a5d	-0.053308833
36	0x3c5fd7f8	0.013662331
37	0x3d9c62cf	0.07636034
38	0x3bb7bd20	0.0056072623
39	0xbda7a708	-0.081861556
40	0xbd0408cb	-0.032234948
41	0xbda5b380	-0.080908775
42	0xbd36cf08	-0.044631034
43	0x3d728762	0.059211142
44	0x3b866400	0.0041012764
45	0x3d5bfc19	0.053707216
46	0xbcf38628	-0.029727057
47	0xbd57abbc	-0.052654013
48	0x3cd20674	0.025637843
49	0xbc81ec40	-0.015859723
50	0x3d66714d	0.056260396
51	0x3d2eae9d	0.042646993
52	0x3db3c939	0.087786146
53	0x3c0bbecc	0.008529376
54	0x3d9f6e7b	0.07784744
55	0x3da1d5d3	0.07902112
56	0xbcf7ad4b	-0.030234
57	0xbdb66d6e	-0.08907591
58	0x3d7901ba	0.060792662
59	0x3c3c375d	0.011487809
60	0x3d0e9a1f	0.03481495
61	0x3ca255e8	0.019816354
62	0xbc214f08	-0.009845503
63	0xbd925ccc	-0.07146606
64	0xbd2b57a8	-0.041831642
65	0xbd6c1f7a	-0.057647206
66	0x3c54e66a	0.012994388
67	0x3d2360bb	0.03988717
68	0x3cc8151c	0.024424128
69	0xbd571d5b	-0.05251823
70	0xbdb304e2	-0.08741166
71	0xbd2ddb85	-0.04244568
72	0xbc39a0f0	-0.011329874
73	0xbd8b375a	-0.06797667
74	0x3c22e0ed	0.009941322
75	0xbd48d424	-0.049030438
76	0xbd09fdfc	-0.033689484
77	0xbb99417d	-0.0046769963
78	0x3d427aba	0.047480322
79	0x3da5fa1f	0.081043474
80	0x3cdba731	0.026813122
81	0x3bd4dc6c	0.006496003
82	0x3d6c667e	0.05771493
83	0xbcce4088	-0.025177255
84	0x3db31415	0.08744065
85	0xbd982469	-0.0742882
86	0x3c244ce8	0.0100281015
87	0xbd3886aa	-0.0450503
88	0x3d0b125b	0.033953052
89	0x3cdf9724	0.02729375
90	0x3bfdd3c0	0.00774619
91	0xbd86c9f3	-0.065814875
92	0x3daa3a89	0.08311946
93	0xbd2c2cd4	-0.04203494
94	0xbd0cb964	-0.03435649
95	0x3d08c5ee	0.033391885
96	0xbda4da3a	-0.08049436
97	0x3d45b302	0.04826642
98	0x3d58bc22	0.052913792
99	0xbd908b69	-0.070578404
100	0x3d7e4d18	0.06208524
101	0x3d8e4401	0.069465645
102	0x3ce32157	0.027725859
103	0xbc2c993c	-0.010534581
104	0x3c601f78	0.013679378
105	0xbdb97ab6	-0.090566084
106	0xb7e13dce	-2.685087e-05
107	0x3c9051cd	0.01761713
108	0xbd146a5b	-0.03623424
109	0x3d084fac	0.033279106
110	0x3ca27a2a	0.019833643
111	0x3da4a90d	0.080400564
112	0x3794d387	1.7741475e-05
113	0xbd5e4832	-0.05426807
114	0x3d465603	0.04842187
115	0xbd58e332	-0.052951045
116	0xbd81fba2	-0.06346823
117	0x3bddad60	0.0067650527
118	0xbced93c8	-0.029001132
119	0x3d388a2c	0.045053646
120	0xbd5896e8	-0.05287829
121	0xbdb4a8c7	-0.08821254
122	0xbd782bb0	-0.06058854
123	0x3cad8b40	0.021184564
124	0xbd74bfe7	-0.059753325
125	0x3d92a9ff	0.071613304
126	0x3ce152cc	0.027505301
127	0xbd2e9d64	-0.04263057
128	0x3d9655dd	0.07340596
129	0xbd1e87f9	-0.038703892
130	0x3d1b62e2	0.0379361
131	0x3d9a9535	0.0754799
132	0x3d40972e	0.047019176
133	0xbd25d45c	-0.040485725
134	0x3d849317	0.06473368
135	0x3d8500e3	0.0649431
136	0x3c4dc508	0.012559183
137	0xbd5d8d3e	-0.054089777
138	0xbd57970b	-0.05263428
139	0x3bdaf8f0	0.0066825077
140	0xbbce88b0	-0.0063029155
141	0xba5ddd00	-0.00084634125
142	0xba2ac380	-0.0006514117
143	0xbce3342c	-0.027734838
144	0x3d3baaa6	0.04581704
145	0xbd95d1bf	-0.073153965
146	0x3d9d71b9	0.076877065
147	0x3d777d02	0.06042195
148	0x3c25a310	0.010109678
149	0x3d83d3cd	0.06436882
150	0xbd94538e	-0.07242499
151	0xbd7b9a56	-0.061426483
152	0x3cc64c8c	0.024206422
153	0xbd97b3d7	-0.074073486
154	0xbda4ecf4	-0.08053008
155	0xbd02635a	-0.03183303
156	0x3d020126	0.031739376
157	0x3d94e0cf	0.07269441
158	0x3d09da10	0.033655226
159	0xbd1c95df	-0.038228866
160	0xbcffd150	-0.031227738
161	0xbda37928	-0.07982093
162	0x3d9724bf	0.07380056
163	0xbd0a0d0d	-0.033703852
164	0xbd4e7a57	-0.05040964
165	0xbd26533b	-0.04060672
166	0xbda50677	-0.08057874
167	0xbd913b88	-0.07091433
168	0x3d0f52d8	0.034991115
169	0x3ca50838	0.02014552
170	0xbd1d35ec	-0.038381502
171	0x3d855393	0.06510081
172	0xbd023103	-0.031785022
173	0xbd02f6a6	-0.031973504
174	0x3cbb9e3c	0.0229026
175	0xbd75be92	-0.059996195
176	0x3d9be18d	0.0761138
177	0xbcb12bd0	-0.021627337
178	0xbd11f37d	-0.0356326
179	0x3cbaf260	0.022820652
180	0xbd58c913	-0.052926134
181	0xbd38f921	-0.045159463
182	0x3d82c4a5	0.06385163
183	0x3cf8cbc8	0.030370608
184	0xbd5c87bc	-0.053840384
185	0x3d047890	0.03234154
186	0x3d9a8049	0.07544
187	0xbd88bc84	-0.066765815
188	0xbb82e470	-0.003994517
189	0xbd84cc86	-0.06484322
190	0xbdb053a4	-0.08609703
191	0xbd1d6089	-0.03842214
192	0xbc769200	-0.015049458
193	0xbcf27af6	-0.029599648
194	0x3d4a376e	0.049369268
195	0xbc2f5370	-0.010701045
196	0xbd62e86a	-0.05539743
197	0xbd45f94e	-0.04833346
198	0x3d57e646	0.05270984
199	0xbcedac38	-0.029012784
200	0x3d856859	0.06514043
201	0xbd9f5094	-0.07779041
202	0xbd537f58	-0.051635116
203	0xbc1d1280	-0.00958693
204	0xbd4d69eb	-0.05014984
205	0xbca2dfec	-0.019882165
206	0xbd43af22	-0.04777444
207	0x3d8db1db	0.06918689
208	0xbda52596	-0.080638096
209	0x3d414876	0.047188245
210	0x3d2b2016	0.041778646
211	0x3d623d36	0.055234157
212	0xbcbfcd78	-0.023413405
213	0xbd3f39fc	-0.046686158
214	0xbda6e559	-0.08149213
215	0xbb8e1cc0	-0.0043369234
216	0x3d41692e	0.047219448
217	0xbdb38d63	-0.08767202
218	0x3da048d1	0.078263886
219	0xbbe737a0	-0.0070561916
220	0xbda07cd5	-0.0783631
221	0x3c26dbb0	0.0101842135
222	0xbd8bd61a	-0.06827946
223	0xbd065ae6	-0.03280153
224	0x3cd6f18c	0.026238225
225	0xbd8e3696	-0.06944005
226	0x3ca528d0	0.020161062
227	0x3dafeb2b	0.085897766
228	0xbda66637	-0.08124965
229	0xbad7ad40	-0.0016454831
230	0x3d0c3584	0.034230724
231	0x3d0a9c2a	0.033840336
232	0xbd91cb16	-0.07118814
233	0x3cb2c8c4	0.021824248
234	0xbdaf29f6	-0.08552925
235	0xbbc6fb00	-0.006072402
236	0xbc6b3c68	-0.014357664
237	0x3ca7cff8	0.02048491
238	0xbd42beba	-0.047545172
239	0xbbebc9d0	-0.007195689
240	0xbd022b50	-0.031779587
241	0x3d32f632	0.04369182
242	0x3d8fd3a7	0.07022791
243	0x3d88f67b	0.066876374
244	0xbd45f21f	-0.048326608
245	0x3d61c856	0.055122696
246	0xbcde054a	-0.027102131
247	0xbc9bb5f8	-0.019007668
248	0xbd94bbdf	-0.07262396
249	0xbbb79210	-0.005602129
250	0x3c5bec78	0.013423078
251	0x3da9867d	0.08277605
252	0x3be94e10	0.0071199015
253	0x3d2e49f2	0.04255099
254	0x3d30a4ae	0.0431258
255	0xbd94adb2	-0.07259692

net.2.bias f4 [128]
0	0x3d95eaf9	0.07320208
1	0xbd83cc05	-0.06435398
2	0xbd7e3e35	-0.062071044
3	0xbd93198e	-0.071826085
4	0xbd0caafe	-0.03434276
5	0x3d3c0b59	0.04590926
6	0x3cae1b9e	0.021253403
7	0x3c150a8f	0.009096756
8	0xbdac68e6	-0.08418445
9	0xbd43f071	-0.047836725
10	0x3db46ed4	0.08810201
11	0xbd26a952	-0.04068882
12	0x3f2ec5f6	0.68270814
13	0x3c565700	0.013082266
14	0xbd9384da	-0.07203074
15	0xbbfafdfb	-0.0076596714
16	0x3d1b76d9	0.03795514
17	0x3d15e1f8	0.036592454
18	0x3cfd1c3f	0.030897258
19	0x3f17141f	0.5901508
20	0xbd2a4ff9	-0.041580174
21	0xbd4a46f7	-0.049384084
22	0x3d258458	0.040409416
23	0x3ae8a831	0.001775032
24	0x3eb07f89	0.34472302
25	0xbc8e5dbf	-0.017378686
26	0xbd49ec99	-0.049297903
27	0x3df132b4	0.11777249
28	0x3d78c917	0.06073865
29	0xbcac17e4	-0.021007486
30	0xbd374cd2	-0.044750996
31	0xbd97cb5a	-0.07411833
32	0x3bd2803d	0.0064239786
33	0xbd084522	-0.033269055
34	0xbd7249ce	-0.059152417
35	0xbd8d7a4b	-0.06908091
36	0xbd46c969	-0.048531923
37	0xbd517b24	-0.051142827
38	0x3d931196	0.071810886
39	0x3e55641c	0.2083897
40	0x3ef44b78	0.47713828
41	0x3d9a51d1	0.075351365
42	0xbdada84b	-0.08479365
43	0x405060f4	3.2559175
44	0xbdf11cd7	-0.11773079
45	0x3d08f944	0.033440843
46	0xbd069b1d	-0.03286277
47	0x3beb0a40	0.0071728528
48	0x40238e83	2.5555732
49	0xbd6e309f	-0.058151837
50	0xbd9cfa86	-0.07664971
51	0xbd5b41c3	-0.053529512
52	0xbd170da9	-0.03687826
53	0xbb694c20	-0.0035598353
54	0xbdc8c097	-0.098023586
55	0xbc8f1cb2	-0.017469738
56	0x3f3ebbd6	0.74505365
57	0xbd4fdf04	-0.050749794
58	0x3e07263d	0.1319818
59	0xbd432258	-0.047640175
60	0x3e0fb157	0.14032494
61	0xbd23fb89	-0.040034804
62	0xbd91d207	-0.07120138
63	0xbd21a722	-0.03946603
64	0x3dd18f5c	0.10232422
65	0x3d21a38a	0.039462604
66	0xbc9ab618	-0.018885657
67	0xbd9f2f30	-0.07772672
68	0xbddc6ac8	-0.107625544
69	0x3d913177	0.07089513
70	0x3cf9a14a	0.030472416
71	0x3cb47908	0.022030368
72	0x3d5ca2a2	0.053866036
73	0xbca1e883	-0.01976419
74	0x3d1d337a	0.03837917
75	0x3e6b6c2f	0.22990488
76	0xbda50c52	-0.080589905
77	0xbdab98fc	-0.08378789
78	0xbcd2f759	-0.02575271
79	0xbd53ca1e	-0.051706426
80	0x405d74ae	3.4602466
81	0x3ecd43bf	0.4009075
82	0x3d91791f	0.0710318
83	0x3ab269ff	0.0013611912
84	0x3dc572f6	0.09641068
85	0xbcb839f7	-0.022488577
86	0xbc21807e	-0.009857295
87	0xbc3838b4	-0.011243988
88	0xbdbfc175	-0.09363071
89	0x3f1a85c3	0.60360354
90	0xbd85112b	-0.06497415
91	0x3d806e83	0.062710784
92	0x3d440262	0.047853835
93	0xbda00408	-0.07813269
94	0xbcd18225	-0.025574753
95	0xbd3c9c99	-0.04604778
96	0xbc84d9c1	-0.016217114
97	0xbd4af421	-0.049549226
98	0x3d202105	0.03909399
99	0xbdb9a2b3	-0.090642355
100	0x3d59efb2	0.053207107
101	0x405aa0fb	3.4160755
102	0xbbd41540	-0.0064722598
103	0xbaf8f6b5	-0.0018994423
104	0xbde94d85	-0.11391739
105	0xbd8fd219	-0.07022495
106	0x3b94f4b0	0.0045457706
107	0xbdb16c5e	-0.086632475
108	0xbcabdeed	-0.020980323
109	0xbbf273b0	-0.007399045
110	0xbda5ff2f	-0.08105313
111	0x3ccce889	0.025013225
112	0xbbd3187c	-0.0064421277
113	0xbdeaa334	-0.1145691
114	0xbdad0287	-0.08447748
115	0xbd4d7d83	-0.050168525
116	0x3d4e4297	0.050356474
117	0x3ca0b244	0.019616254
118	0xbd8a8171	-0.0676297
119	0x3c99d5b6	0.018778663
120	0x3f105bb4	0.5638993
121	0xbd99375f	-0.07481264
122	0xbccd8dc9	-0.025092022
123	0x3d5965df	0.053075667
124	0x3d8a58c5	0.06755213
125	0x3e5b4e57	0.21416603
126	0x3cb7ad80	0.022421598
127	0x3c7a1204	0.015263084

net.4.weight f4 [6, 128]
0	0x3c3787d0	0.011201814
1	0x3cff20fc	0.031143658
2	0x3ca3e83a	0.020008195
3	0xbd5a1110	-0.05323893
4	0xbd551e18	-0.052030653
5	0xbbf6c11e	-0.0075303456
6	0xbd9a7509	-0.07541854
7	0x3c885a24	0.016644545
8	0xbd7c4903	-0.061593067
9	0xbd4121b3	-0.04715128
10	0x3cdaf666	0.02672882
11	0xbd66a50b	-0.05630974
12	0x3b26677d	0.0025391274
13	0xbc51c790	-0.012803927
14	0xbd10cbbb	-0.035350543
15	0xba2e02c1	-0.00066379836
16	0x3cf3fca0	0.029783547
17	0x3c8db49c	0.017298035
18	0xbd624e11	-0.05525023
19	0xbd6e4281	-0.05816889
20	0x3d85b21f	0.065281145
21	0x3d16a126	0.036774777
22	0xbd21c13e	-0.03949093
23	0xbd82d465	-0.06388167
24	0xbe6ae573	-0.2293909
25	0xbc07bdb4	-0.008284975
26	0xb93140d9	-0.00016904193
27	0x3c8f9ade	0.017529901
28	0x3c23aede	0.009990422
29	0x3db2c74d	0.0872942
30	0xbc736044	-0.0148544945
31	0xbcb25909	-0.02177097
32	0x3dac8626	0.08424024
33	0x3d089c8e	0.033352427
34	0xbcca856c	-0.024721824
35	0x3a2fbeeb	0.0006704169
36	0x3d1771d6	0.036973797
37	0xbd16b8b4	-0.03679724
38	0xbd3df796	-0.046378694
39	0xbe51407f	-0.2043476
40	0xbea0640f	-0.3132634
41	0xbd80b3b5	-0.062842764
42	0xbdd2ba4f	-0.10289442
43	0x3dd06946	0.10176329
44	0x3b4b2079	0.0030994697
45	0xbd9a7645	-0.075420894
46	0x3d009796	0.031394564
47	0x3ca3af80	0.019981146
48	0x3b67fcf8	0.0035398584
49	0x3b578cf0	0.0032890402
50	0x3ca30ae0	0.019902647
51	0x3d66f843	0.056389105
52	0x3ccacf94	0.024757184
53	0xbdb4d553	-0.08829751
54	0x3d41f5ba	0.047353484
55	0x3dd8c379	0.105841585
56	0x3cba1334	0.022714235
57	0x3d2c076a	0.041999258
58	0xbd646fbf	-0.055770632
59	0xbd390210	-0.045167983
60	0xbc6e67e8	-0.01455114
61	0xbba76410	-0.005108364
62	0xbd3abd89	-0.04559091
63	0x3da33a8e	0.07970153
64	0xbc6a7838	-0.014310889
65	0x3d9f964f	0.07792341
66	0xbc3e8ed8	-0.011630736
67	0xbdabc271	-0.08386696
68	0xbc3da067	-0.011573887
69	0xbcf4c53d	-0.029879207
70	0xbd154cf1	-0.03645033
71	0x3d8f57eb	0.06999191
72	0xbc1102c0	-0.008850753
73	0xbc97dd21	-0.01853806
74	0x3c9eeddf	0.019400535
75	0xbc464efe	-0.012103794
76	0xbd8b0666	-0.0678833
77	0xbd653c62	-0.05596579
78	0x3bc9d2a9	0.006159146
79	0xbd56b5ab	-0.052419346
80	0x3dfdbea5	0.12389878
81	0xbd2f500e	-0.042800955
82	0x3a18523c	0.0005810594
83	0xbd227543	-0.03966261
84	0xbcbec2c0	-0.023286223
85	0x3c10ae4f	0.008830621
86	0xbcf5ffd6	-0.030029219
87	0xbc5078f9	-0.012724155
88	0x3ce63f2f	0.0281063
89	0xbbc94a45	-0.006142887
90	0xbd6019d3	-0.054712128
91	0x3ce0b568	0.027430251
92	0x3d5e5272	0.054277845
93	0x3d7e4b4e	0.062083535
94	0x3ccecbbd	0.025243634
95	0x3cc2970f	0.023753671
96	0x3cca642a	0.024705965
97	0x3d0c9ac4	0.034327284
98	0xbd8f3daa	-0.06994183
99	0xbcae5ac4	-0.021283515
100	0x3d527ad2	0.05138666
101	0x3e084805	0.13308723
102	0xbd43d825	-0.047813553
103	0x3da7cd01	0.08193398
104	0xbd400fca	-0.046890058
105	0xbd18abec	-0.037273332
106	0x3d538440	0.051639795
107	0xbc683a00	-0.0141739845
108	0x3cd08e6f	0.025458543
109	0xbdb1f030	-0.0868839
110	0xbd7d93c8	-0.061908513
111	0x3d298b66	0.041392706
112	0xbd97a4dc	-0.07404491
113	0xbd46a636	-0.048498355
114	0xbdaf3ef7	-0.085569315
115	0x3ce8a3f4	0.028398491
116	0x3c26dc19	0.010184311
117	0xbd0ed772	-0.034873433
118	0x3cb30f1b	0.021857789
119	0x3d29c8ba	0.041451193
120	0xbd8676e7	-0.065656476
121	0xbd9d6601	-0.07685471
122	0xbacfd4d7	-0.0015856278
123	0xbc7bd520	-0.015370637
124	0xbc836960	-0.016041458
125	0xbc1bf796	-0.009519478
126	0x3d784d12	0.060620375
127	0xbbc3652b	-0.005962988
128	0xbd72e430	-0.059299648
129	0xbda81d08	-0.08208662
130	0xbd816a15	-0.06319062
131	0xbdb2fa45	-0.087391414
132	0xbdb40811	-0.08790601
133	0xbcaf0c1f	-0.021368084
134	0x3cf325b9	0.029681074
135	0x3bb4dca7	0.005519468
136	0xbda59184	-0.080843955
137	0x39a29f7a	0.00031017867
138	0xbbf4b4f1	-0.007467859
139	0xbd368d2b	-0.044568222
140	0x3ca06975	0.019581536
141	0xbbc2fc30	-0.0059504732
142	0x3c2547f7	0.010087959
143	0xbc0db137	-0.008648208
144	0xbc09af35	-0.008403589
145	0xbd3ecfa2	-0.046584733
146	0xbc96b901	-0.018398764
147	0xbc7da8cf	-0.015482142
148	0xbc4172a8	-0.011807121
149	0x3ccf6850	0.025318295
150	0x3d339ecc	0.043852612
151	0xbcd6ab0a	-0.026204605
152	0x3dcde9f0	0.10054386
153	0xbbcea166	-0.0063058613
154	0x3daa74a0	0.08323026
155	0x3d67a8e6	0.05655756
156	0xbcd679c4	-0.02618111
157	0xbd77b4ed	-0.06047528
158	0xbcbb6766	-0.022876453
159	0x3d8a4063	0.06750562
160	0x3d084e9f	0.033278104
161	0xbbe6487a	-0.007027683
162	0xbd7bc449	-0.06146649
163	0xbd130873	-0.03589673
164	0x3ca4aa75	0.020100811
165	0x3d21c702	0.03949643
166	0xbd121eb4	-0.035673812
167	0x3df5b56d	0.11997495
168	0x3bbe6524	0.0058103967
169	0x3d6bada2	0.057538636
170	0x3d81cea3	0.06338241
171	0x3dca49a0	0.09877324
172	0x3cd9388d	0.026516223
173	0x3ce39386	0.027780306
174	0xbd15eb18	-0.036601156
175	0x3c1e0348	0.009644337
176	0x3ccf451a	0.025301505
177	0xbb14f7c8	-0.0022730697
178	0xbd249dbc	-0.04018949
179	0xbd707517	-0.058705416
180	0xbc9d980c	-0.01923754
181	0x3d8037b1	0.06260622
182	0x3b846401	0.0040402417
183	0x3c485d7c	0.01222932
184	0x3c9947a3	0.018710917
185	0xbd0e80d0	-0.034790814
186	0x3d529c46	0.051418565
187	0xbd30124e	-0.042986207
188	0x3ca63052	0.020286713
189	0x3d23229e	0.039827935
190	0x3d451a70	0.048120916
191	0x3d4ac320	0.049502492
192	0x3d0f8bb0	0.035045326
193	0x3d48df52	0.0490411
194	0xbc38a7c8	-0.011270471
195	0x3cf71c94	0.030164994
196	0x3c1dfed6	0.009643277
197	0xbb5ac532	-0.0033381698
198	0x3d747f97	0.05969199
199	0x3cc57994	0.024105825
200	0xbd9deefa	-0.07711597
201	0x3d82134a	0.06351335
202	0xbc042e2c	-0.008067649
203	0xba9cac0f	-0.0011953133
204	0x3d17c8f9	0.037056897
205	0xbdaa16d5	-0.08305136
206	0xbd36d2c4	-0.044634596
207	0x3d742a86	0.059610866
208	0x3e119ca8	0.14219916
209	0xbbf7b535	-0.0075594434
210	0x3cd40a9b	0.025883963
211	0x3dd90216	0.10596101
212	0xbd45651a	-0.04819212
213	0xbc46a239	-0.012123638
214	0x3da3e46b	0.08002552
215	0xbc0fb894	-0.008772034
216	0xbb500e8b	-0.003174695
217	0x3c97e38e	0.018541124
218	0x3ca797fc	0.020458214
219	0xbd6b775f	-0.057486888
220	0xbc9bdad0	-0.019025236
221	0x3ce005f6	0.027346592
222	0x3da84585	0.08216385
223	0xbd3063bc	-0.043063864
224	0x3c0bb2e8	0.008526541
225	0x3d77b7d6	0.060478054
226	0xbd290a0e	-0.041269355
227	0xbd81f830	-0.06346166
228	0xbd284d71	-0.04108948
229	0x3de8c7ed	0.11366258
230	0x3d3d4702	0.046210296
231	0xbc80fd30	-0.01574573
232	0x3ce1cc71	0.027563306
233	0xbd3ba590	-0.04581219
234	0x3ac4c987	0.0015013673
235	0xbd6a34da	-0.05717931
236	0xbc2506b1	-0.010072396
237	0x3d0d9e26	0.03457465
238	0xbd43f247	-0.047838476
239	0x3c87dc80	0.016584635
240	0x3c1c83fd	0.009552953
241	0xbc1c9ad8	-0.009558402
242	0xbcb04fcc	-0.021522425
243	0xbda6e59a	-0.08149262
244	0x3ca6d525	0.020365307
245	0xbcbeac34	-0.023275472
246	0x3d863901	0.065538414
247	0x3c8bfa20	0.017087042
248	0xbcd4d855	-0.025982061
249	0x3bfebe55	0.007774154
250	0x3b9288f2	0.0044718916
251	0xbd4925c5	-0.049108285
252	0x3c134ab8	0.008989982
253	0x3cb63964	0.022244163
254	0x3ccfbfc0	0.025359988
255	0x3d9cb4c5	0.076516666

net.4.bias f4 [6]
0	0x40495ec8	3.14641
1	0x3fb8355d	1.4391285
2	0x3f988152	1.1914465
3	0x3f527572	0.8221046
4	0x3fa8f861	1.3200799
5	0x3fba6f31	1.4565183
